model_ddpg_critic.pth (torch_old, 609820 bytes, 9 tensors)

fcs1.weight f4 [512, 33]
000000 08 65 05 bd 5a bc e8 3c ae f6 8e bd 02 3a f8 bd
       -0.032567054 0.028410126 -0.06980644 -0.12120439
000010 8e 35 1d bd ee d4 6e be 7e fe 5b 3d 2f f6 bb bc
       -0.03838115 -0.23323414 0.0537095 -0.022944538
000020 f6 57 0f bc b4 cf 57 3d ec ac d5 bc 7b 80 6c ba
       -0.008748999 0.052688316 -0.026083432 -0.00090218306
000030 b2 49 46 bd c5 bb 43 3c 03 63 a8 3b 31 2d 93 39
       -0.048410125 0.011946623 0.0051387562 0.00028071695
000040 e3 7e 92 bc f9 47 79 be d8 78 d8 bd d4 68 59 be
       -0.01788277 -0.24343862 -0.10569924 -0.21231395
000050 0e 07 b5 3c fc 70 e3 3c 19 9a 54 3c 36 31 51 bc
       0.02209809 0.027763836 0.012976193 -0.01276808
000060 bf 92 3e 3c b3 ce 7a 3b d4 30 94 3b 9d 98 76 3d
       0.011631667 0.0038270175 0.0045224223 0.060204137
000070 c4 66 e0 bc 2f a9 d9 bc a5 6f d0 bd e9 df 32 3d
       -0.027392752 -0.02656993 -0.101775445 0.04367057
000080 bd ba ab be 7c 82 60 3c 0e 51 c1 bd 53 ee 1b bd
       -0.33540908 0.013702985 -0.09439288 -0.03806908
000090 a8 e0 3e 3e ae 93 c6 3b ed f0 0e be a0 d1 55 3c
       0.18640387 0.0060600853 -0.13959093 0.013050467
0000a0 d1 33 9a 3c 2a 3d b7 bc bd a5 9d bd 89 23 67 bc
       0.018823536 -0.022368032 -0.07697628 -0.014107593
0000b0 c5 83 00 bd 7e 95 76 3b 68 fa e1 bc 89 f8 90 3d
       -0.031375665 0.0037625725 -0.027585223 0.07078654
0000c0 d2 35 7b bb 49 83 2b be 48 ab 2e 3d 76 e4 f7 3c
       -0.003833164 -0.167493 0.042643815 0.030260306
0000d0 ee e4 01 3e a7 94 6d bc 57 bf 19 bd 42 61 b2 3b
       0.12684986 -0.0145007735 -0.03753599 0.005443723
0000e0 21 ba 03 bd bd f1 4d 3c dd ff 4b bc 36 b6 7f bd
       -0.03215993 0.012569842 -0.012451139 -0.06242963
0000f0 c7 34 bf 3d e0 dd 33 3c b6 0d de 3c 06 2b 58 bd
       0.09336238 0.010978192 0.027106147 -0.052775405
000100 20 33 81 ba ab 7b bd 3e ca e9 a0 3c 9e a5 7e bc
       -0.0009857155 0.37008414 0.01964273 -0.015542416
000110 23 44 07 bd 46 d4 a5 bd fc aa 27 3e f9 38 96 3d
       -0.033023965 -0.080971286 0.16373819 0.073350854
000120 52 a1 33 3d ea 1c 99 bc 11 a4 3a bd cd 10 34 3d
       0.04385502 -0.018690545 -0.045566622 0.043961335
000130 82 f9 d6 bb e0 b7 86 bc 69 ae d8 bc 51 7c 1e bd
       -0.0065605054 -0.0164451 -0.026450353 -0.038692776
000140 91 5f 92 3c 13 d4 8f bb 23 01 34 bd 8b 97 0c bd
       0.017867835 -0.004389295 -0.043946397 -0.03432421
000150 34 1a 5a 3e f5 32 83 be 49 36 c5 3a 95 17 66 3c
       0.21299058 -0.25624815 0.0015046085 0.014043708
000160 ea 3e 26 3c 0e 5b f8 bb a1 74 19 bc 8b cd 98 bc
       0.010146836 -0.007579214 -0.009366185 -0.018652698
000170 df cb 77 3d 8e 75 fc 3d cc c6 37 3d ed 80 bb bc
       0.06049716 0.12327109 0.04486732 -0.022888625
000180 2c 17 17 be e4 f0 49 bc 52 39 ba 3e 54 4c 01 3e
       -0.14754933 -0.012325499 0.36371857 0.12626773
000190 60 c9 27 3d 2a 41 b4 bc 4c 7a 56 be dd 63 4a bd
       0.04096353 -0.022003729 -0.2094509 -0.049411643
0001a0 10 9e 0e be aa ce 1c bd 1b f8 8f 3c df cd 8a bd
       -0.13927484 -0.038283028 0.01757436 -0.06777548
0001b0 c4 56 d0 bc 13 0c 67 3d 36 89 03 3d 17 ec c8 bc
       -0.025431998 0.056408 0.032113276 -0.024526639
0001c0 2e c8 3a bb e7 2b f6 3c 02 cd cf 39 2a bf c1 bc
       -0.0028500664 0.030050231 0.0003963486 -0.023650724
0001d0 c6 cd ba 3c 7c 35 1e bd f9 59 1a be 42 35 0b 3b
       0.022803199 -0.038625225 -0.15073384 0.002124146
0001e0 00 df 29 3c b3 c9 69 bb cd 88 58 3c 2b 61 77 3c
       0.010368109 -0.00356732 0.01321621 0.01509885
0001f0 22 e9 e2 3b 91 41 a1 bd c3 a2 df 3d 4d fd 94 bc
       0.0069247643 -0.07873834 0.10919716 -0.01818719
000200 ae 81 15 bd 20 9b 9a bd ee c0 fe 3c c6 7e c0 be
       -0.036500625 -0.07549119 0.031097855 -0.3759672
000210 a6 b0 10 3c ae ab 79 bd e8 3c 6c 3d 57 d0 23 3d
       0.008831179 -0.060954742 0.057675272 0.03999361
000220 17 60 c9 3c 96 fd 1d 3e 4c 74 07 be 95 04 9e 3d
       0.024581952 0.15428767 -0.13227957 0.07715718
000230 a9 99 23 3d 16 38 f6 3c ac 09 8a bc 76 73 62 ba
       0.039941464 0.03005604 -0.016850315 -0.0008638421
000240 a6 e4 22 bc 81 e7 2d 38 83 d3 15 3d 60 4a 8b bd
       -0.009942209 4.146202e-05 0.036578666 -0.06801295
000250 b1 49 ae 3c b6 6e 63 bd 36 9e 7a 3d 48 f1 1a 3c
       0.021275373 -0.055525504 0.061186038 0.00945694
000260 a2 f1 5c 3b f5 6b db 3b c0 46 9d 3c e1 77 9a 3b
       0.003371336 0.006696219 0.019198775 0.0047139977
000270 5d 91 a4 bc 27 2c bf bc b7 55 69 3c c7 f2 91 bd
       -0.020088846 -0.023336483 0.014241627 -0.07126384
000280 03 a2 40 3d fa 4f d4 3c b9 67 13 3d 44 2f 15 bd
       0.047029506 0.025917042 0.03598759 -0.03642203
000290 f9 a5 14 bf 22 fe 9e 3d 9f cd 2c bd b8 f7 57 3d
       -0.58065754 0.07763316 -0.042188283 0.052726477
0002a0 b0 9b 63 be a5 2d 69 3e ee 82 a7 3d cb 7e 82 bd
       -0.22227359 0.22771318 0.0817927 -0.0637184
0002b0 5c 7a 4e bd 24 c1 ac 3d ee 61 80 3c bb 55 27 bc
       -0.05040966 0.08435276 0.015671697 -0.010213311
0002c0 53 ea a8 bc 7e dd 2c 3a 79 2a 41 bc 86 50 1c 3c
       -0.020619547 0.0006594284 -0.011789911 0.009540683
0002d0 b6 e2 89 3c ed 6a ff 3d b1 b5 cb 3d 78 a6 30 3c
       0.016831737 0.12471566 0.09946764 0.010781877
0002e0 65 74 77 be 5a ef ee 3d cc d9 f7 ba e8 d7 89 3d
       -0.24165495 0.116667464 -0.0018909513 0.06730634
0002f0 bc 61 74 bd 97 a1 5d 3c 2a dc 2f bc 2a 04 15 bd
       -0.05966352 0.013527296 -0.010733644 -0.036380924
000300 03 a9 62 3c 02 1f f5 bb 08 10 30 bc 3d 59 39 bd
       0.013834241 -0.007480503 -0.01074601 -0.04525112
000310 60 d5 f7 ba dd bc 4c be 89 da 08 3e 2e 02 d0 bd
       -0.0018908195 -0.1999392 0.13364615 -0.10156666
000320 8d 14 81 3c dc 99 8e 3c 3b 59 ac 3d f7 14 94 3d
       0.01575687 0.01740735 0.08415457 0.07230561
000330 e0 8b 49 be 71 a8 d2 3c b5 45 6a bd 9a 3a 86 3d
       -0.19682264 0.025715085 -0.057195384 0.06554146
000340 7f e6 56 3d 86 af d4 3b 8b 0f 69 bd 7b 96 33 bd
       0.052465912 0.0064906506 -0.05689959 -0.04384468
000350 5a 4c 89 3d 63 98 d9 bc e1 22 04 be 2c e6 19 3d
       0.06704016 -0.026561921 -0.1290393 0.037573025
000360 3d de 5c 3e 9a ed 2c 3e 95 22 d8 3c 85 e3 8a bc
       0.21569152 0.16887513 0.026383677 -0.016954193
000370 69 36 b6 bc 7a 0c 0c 3d fa 4e 10 bd 1d 4f 15 bd
       -0.022242742 0.034191586 -0.035231568 -0.0364524
000380 5d 53 2d 3c 1c 9e c5 3d 62 7a 24 bc 32 92 f5 3c
       0.010578957 0.096492976 -0.010038944 0.029976938
000390 7d 14 2f be 98 21 23 3c 00 b3 8f 3e 0c 77 39 bc
       -0.1709766 0.00995674 0.28066254 -0.011319887
0003a0 2e b9 f9 3a fc 27 ab bb c0 74 44 3b 03 1a 01 bd
       0.001905238 -0.0052232724 0.0029976815 -0.031518947
0003b0 02 f0 69 3d 64 46 4e 3c b5 6f 5a bb 76 a1 bb bb
       0.057113655 0.012590025 -0.0033330743 -0.0057260348
0003c0 aa e0 b6 bb 1f ae 07 b8 ca 5d ea ba 97 a5 8a 3a
       -0.0055809813 -3.234867e-05 -0.0017880735 0.0010577914
0003d0 52 00 f1 3b 0d 09 d3 3a 92 5c 23 3c 7a c2 d9 3c
       0.0073547745 0.001610072 0.009970801 0.026581991
0003e0 dd fd 6a 3d 9a fb 2d ba 8c 06 86 3c 2c 7e 82 3a
       0.05737101 -0.0006636918 0.016360544 0.0009955815
0003f0 92 ec 3c 3a 7b e5 02 3b 4a a2 e3 3a 48 a8 c0 39
       0.00072068826 0.0019973207 0.0017367091 0.00036746473

fcs1.bias f4 [512]
000000 92 76 2a be 94 aa 40 be 2e f7 85 be 72 8e c6 bd
       -0.16646793 -0.1881507 -0.26165146 -0.09695138
000010 f3 3c 89 bd a4 54 3a be b6 f9 13 3d db d5 5d be
       -0.06701078 -0.1819635 0.036126815 -0.2166361
000020 a2 8e 23 be 6b 5f 81 bb 6e b7 0b be 6f 04 a5 3d
       -0.15972379 -0.0039481423 -0.13644192 0.08057486
000030 6d a0 68 be 28 15 6e bd 4e 21 a1 bc 03 b9 f3 bd
       -0.22717448 -0.058125645 -0.019669201 -0.119005226
000040 e4 42 8b be 82 d7 80 bd ac 01 fe bd dc a9 b1 3b
       -0.2719947 -0.06291105 -0.12402663 0.00542186
000050 57 82 3a bd 44 40 08 bd af bc 49 be 30 7f 6e be
       -0.045534458 -0.033264413 -0.19700883 -0.23290706
000060 bb 17 a1 bd ec 97 76 3d 24 89 c3 3d d7 a3 4d 3d
       -0.07865854 0.060203478 0.09547642 0.050205078
000070 02 5d 69 be 1a 27 9f bd 9c 73 38 3d e8 c4 92 3c
       -0.22789386 -0.0777113 0.04503213 0.017916158
000080 e7 5a 32 3d f9 73 eb 3c 9e 8a 2b be 9e e3 0c bd
       0.043543722 0.028741824 -0.16752097 -0.03439676
000090 50 20 3f bd a8 a4 6e be 62 26 12 3e 89 98 28 be
       -0.046661675 -0.23304999 0.14272454 -0.16464438
0000a0 85 0a 34 3e 28 eb 53 bd 0c b9 c8 bd d6 5c 91 be
       0.17582138 -0.051737934 -0.0980092 -0.2839114
0000b0 0c 39 2f be 8b af 12 be 07 6c c8 bc 3d db a5 bd
       -0.17111605 -0.14324777 -0.024465574 -0.08098457
0000c0 06 bf da bd c2 bd 53 be 85 fb a1 bc 1c 1f 80 bd
       -0.10680966 -0.20677856 -0.019773254 -0.06255934
0000d0 20 5b 8a bd 90 81 86 be 3f 97 2f be fc c0 86 3c
       -0.06755662 -0.26270723 -0.1714754 0.016449444
0000e0 21 7d 7e bc 68 1f 6e be d8 3b 71 3d 8b 1b 6c be
       -0.015532763 -0.23254168 0.058894962 -0.23057382
0000f0 cd 85 3c be 3d 81 64 be 49 5b 94 be 5c a6 83 bd
       -0.18410416 -0.22314925 -0.28975895 -0.06428215
000100 92 fa d1 3d 4f a0 20 3d e2 da 20 3d 6d df 0e be
       0.102528706 0.039215382 0.039271243 -0.13952418
000110 c2 0c 09 bd 01 41 5a be f9 3b a6 be e0 12 0e be
       -0.033459432 -0.2131386 -0.3246763 -0.13874388
000120 20 2c 08 be e1 9c c8 3d 95 7a 05 3c 58 2d 3e be
       -0.13298082 0.09795547 0.008146902 -0.18571985
000130 a1 05 a9 bd 84 ab 81 bd 18 63 25 3e 48 28 27 be
       -0.08253027 -0.06331542 0.16151083 -0.1632396
000140 5e 1a b2 3c b4 6d 04 be 4b 60 2c be 2f 76 ec bd
       0.021741088 -0.12932473 -0.16833608 -0.11545979
000150 be 19 9d 3d 1f e9 39 be 84 d5 5e bd e9 f5 65 be
       0.076709256 -0.18155335 -0.054402843 -0.22457089
000160 d8 05 ff bd 08 ce 4d bd be b6 36 be 05 fd 95 bd
       -0.124522865 -0.050245315 -0.17843148 -0.0732365
000170 d5 ea 65 bd 61 3a d3 bc a4 5a 4f bd fb 22 f6 bd
       -0.056132156 -0.025784673 -0.05062355 -0.12018391
000180 5a eb a2 3d 60 3b 69 bd 18 a2 ee 3c 2f 6c 76 3d
       0.07955046 -0.05694139 0.029130027 0.060161766
000190 1d c0 73 bd f7 c6 0b 3e ce 0d 82 bd 6c e2 9c 3b
       -0.059509385 0.13650118 -0.06350289 0.004787734
0001a0 37 7a 3d be a0 97 59 be cf 24 e7 bd 04 1d 81 bd
       -0.18503653 -0.21249247 -0.112863176 -0.063043624
0001b0 e9 a1 27 be e4 91 a4 bd be 7a b4 bd 42 ae ae bd
       -0.16370358 -0.08035639 -0.08812474 -0.08529331
0001c0 4f d9 c1 bd 4b e3 4c bd bd ba f7 bc f0 18 10 be
       -0.094652764 -0.05002145 -0.030240411 -0.14072013
0001d0 5f 05 5e bd 88 93 0b 3d 2e 97 4b be 9d 7f 88 bd
       -0.05420434 0.034076244 -0.19881889 -0.06664965
0001e0 fc fd 3a be 7a 6a 05 be bf 7e 0f be 73 fe a4 bd
       -0.1826095 -0.13028899 -0.14013194 -0.08056345
0001f0 eb ec f6 bd 69 8e 3e 3b 10 db 9d bd 4f ed cb bc
       -0.12056907 0.0029076582 -0.077077985 -0.024893431
000200 0c ce 20 bd 53 58 18 bd be 62 8c be 25 f4 f2 bd
       -0.039259 -0.037193608 -0.27419084 -0.11862973
000210 4e c6 99 bd 37 e0 2d be c5 c3 8e bc b6 12 ab 3c
       -0.07508527 -0.16980062 -0.017427335 0.020882946
000220 fa 45 95 3c b4 74 24 bc 0e 8f 0a bd 36 40 5e be
       0.018221844 -0.01003759 -0.033827834 -0.21704182
000230 31 1c 99 bd a0 98 27 be f0 6e 9a ba 95 3d 5e be
       -0.0747608 -0.16366816 -0.001178233 -0.21703179
000240 a1 4e e2 bd b9 0b ba bd 47 23 11 be e5 d4 1f be
       -0.110501535 -0.09084267 -0.14173613 -0.15608557
000250 57 7b fc bd 22 17 83 bd 94 bc 1b bd 02 b1 90 be
       -0.12328213 -0.064008966 -0.03802164 -0.28260046
000260 62 0d 0d 3d 48 ab 28 bd e6 35 09 be ae ff 1c bd
       0.03443659 -0.04117897 -0.13399467 -0.038329773
000270 e3 60 bc bd 41 6b 17 be af 65 f0 bd cf 23 25 bd
       -0.09198167 -0.14787008 -0.117381446 -0.040317353
000280 7c 7e ea bd 28 c1 b1 bd d0 bf 9e bd 97 26 25 3d
       -0.11449906 -0.0867942 -0.07751429 0.040320005
000290 7c 94 46 be be 32 53 bd e7 fe 52 be 5f ce 14 bd
       -0.1939258 -0.051562063 -0.2060505 -0.036329623
0002a0 f3 11 39 be 0b e4 37 be 25 26 7f be bb 2a 60 bc
       -0.18073253 -0.17958085 -0.24916895 -0.013682063
0002b0 77 70 8f bd 3d 11 ec 3d dc 19 f1 bd 92 3d 37 be
       -0.07003873 0.115267254 -0.117725104 -0.17894581
0002c0 df 6b 79 be d6 cc ea bc 7b c6 14 3d 93 2a 25 be
       -0.24357556 -0.028662127 0.0363221 -0.16129522
0002d0 31 b5 e9 bd ce fc ec bc b5 88 b1 3d f3 9a 33 be
       -0.11411513 -0.02892914 0.08668653 -0.17539577
0002e0 9a 3e 27 be 2b d2 d4 3b dd 95 35 be 67 85 b6 bc
       -0.16332474 0.0064947805 -0.1773295 -0.022280408
0002f0 e7 c5 4a be f4 2e 53 bc fe 47 8b bd e2 02 f9 bd
       -0.19802056 -0.0128896125 -0.06800841 -0.12158753
000300 2e 83 2d be ab d7 89 bd 9c e2 1f bd 77 ca 06 be
       -0.16944572 -0.067305885 -0.03903447 -0.13163172
000310 8f 2c 1f be 01 10 8e 3d 35 d6 b9 bd 49 5f ca bd
       -0.15544342 0.06936646 -0.0907406 -0.098814555
000320 9a ec 0b be ea 3b 07 3b 87 fa 81 be c7 bf db bc
       -0.13664475 0.0020635077 -0.2538645 -0.026824845
000330 2d 1f 0a 3e d2 2d e2 3c 9c 17 87 bd 74 25 59 be
       0.13488455 0.02760974 -0.065963 -0.21205693
000340 eb 48 06 be 14 20 d6 3d 47 ff 21 be 2e 8a 97 be
       -0.13113753 0.10455337 -0.15820037 -0.2959761
000350 ab 29 dc bd 09 b5 29 bd ac 0c 29 be d1 c7 8e bd
       -0.10750135 -0.041432414 -0.1650874 -0.06971706
000360 32 ee de bd dd 97 b4 bd 0c e0 6c be ba f6 26 be
       -0.10885276 -0.08818028 -0.23132342 -0.16305056
000370 87 54 fa bd d5 dc b3 3c d1 cb 5b be 20 d7 6b bd
       -0.122231536 0.021955887 -0.21464469 -0.057578206
000380 16 d6 2d be 1b 83 c2 bc 40 cf 2d be 68 ca 89 bc
       -0.16976199 -0.023744157 -0.16973591 -0.016820148
000390 ca 49 2a bd 8e 18 29 bd 02 c5 80 be df 1f 2b be
       -0.041574277 -0.041283183 -0.25150305 -0.16711377
0003a0 a7 aa 6c be 6c ef 58 3d 38 c4 27 be 44 76 37 bd
       -0.23111974 0.052962705 -0.16383445 -0.04479052
0003b0 c6 2f 70 be ab 64 b4 bc a0 ca 42 be c3 67 15 be
       -0.23455724 -0.022020658 -0.19022608 -0.14590363
0003c0 eb e9 7c bd 15 c8 05 be 44 bb 38 3d b2 61 aa 3c
       -0.06174652 -0.13064606 0.045100465 0.020798538
0003d0 48 90 c5 bb eb 61 56 be 2b 19 d2 3d a4 1f dd bd
       -0.0060291626 -0.2093579 0.10258707 -0.107970506
0003e0 e6 3a 18 be a3 d6 e0 bd eb c7 51 be 02 24 11 be
       -0.14866218 -0.10978439 -0.20486419 -0.14173892
0003f0 3a 3d ce 3d 85 8b e7 bd 27 c9 5a be 79 be cc bd
       0.10070272 -0.11305908 -0.21365796 -0.09997267

fc2.weight f4 [256, 516]
000000 ed d1 0b be 02 bd 9f bc bd 41 92 3d 0c 4f ca bc
       -0.13654299 -0.019499306 0.07141445 -0.024695896
000010 22 6e 5d 3d f6 ce 93 bd e9 0c bc 3d 43 8f 74 be
       0.05406011 -0.07217209 0.0918215 -0.23882775
000020 bd 91 ba 3d 38 f4 19 3d 2d ca bc 3d 2e 07 83 3c
       0.091098286 0.03758642 0.092182495 0.015994634
000030 bd d3 8b 3c 3c 15 55 3d 04 f2 11 3d 69 3b ec 3c
       0.017068738 0.052022204 0.035631195 0.028836923
000040 59 f1 10 bc 71 2d 8c bc f7 24 a4 bd 5e 18 db bc
       -0.008846604 -0.017111512 -0.08014863 -0.026745018
000050 e8 52 f1 bd 47 5e d2 bd 97 72 97 3c 19 61 e2 3b
       -0.11783391 -0.10271888 0.018487258 0.0069085476
000060 01 da f6 bc bd 6b 6a 3d 62 23 36 bd 58 db cf 3d
       -0.03013325 0.057231653 -0.044467337 0.101492584
000070 de 9b b1 bd 7f b5 97 bb 1f 3a 97 bc 90 3e 06 3d
       -0.086723074 -0.0046297903 -0.018460331 0.032774508
000080 82 a7 72 3d aa b3 17 bc b1 1c d9 3c b8 85 ac 3c
       0.05924178 -0.009259144 0.026502939 0.021059856
000090 12 00 20 bd 8d 67 bb bc dd f1 86 bc cc cb df 3d
       -0.039062567 -0.022876525 -0.016472751 0.10927543
0000a0 c2 35 ab bc 04 9e ac 3c 96 2e c7 bc 0d a1 b8 bd
       -0.020899657 0.021071441 -0.024314206 -0.09015093
0000b0 41 06 dc bd 13 ec 9c 3b 2f 01 71 3d ba 8f 16 bd
       -0.1074338 0.0047888844 0.05883902 -0.036758162
0000c0 4d 48 9a 3d d3 e2 96 bd 15 c9 e2 bc d2 97 c4 bd
       0.075333215 -0.07367482 -0.027683774 -0.0959927
0000d0 ec e3 d4 3c d9 71 c0 3d 3b e3 87 3c 41 c7 df bd
       0.025987588 0.09396715 0.016587844 -0.109266765
0000e0 b7 fd 8f 3b 1f 3d c8 bd c3 a3 50 3c aa 56 0d 3e
       0.004394259 -0.09777283 0.012734356 0.13802591
0000f0 d8 4c c5 bd 1d 30 df bb ba d6 18 bb e4 3c 8c 3d
       -0.096337974 -0.0068111555 -0.0023321346 0.068475515
000100 0a e5 d0 3d 40 72 65 3c 09 21 83 bc a1 c6 56 3d
       0.10199936 0.01400429 -0.016006963 0.05243552
000110 ca d7 43 3c 73 99 ce 3c 77 0b a3 bd 92 cf e5 bc
       0.011953304 0.025219655 -0.07961171 -0.028053079
000120 1e af ac 3b 6d f6 8c bc 36 30 a2 bd 7a 26 34 bd
       0.005269899 -0.017207349 -0.07919352 -0.043982007
000130 10 21 34 bd d4 d6 61 bd d2 b0 39 bc d8 2b 84 3c
       -0.043976843 -0.055136517 -0.011333661 0.016134188
000140 0d ee 5c 3d 08 a7 f9 bb 75 48 9e 3c 6d c4 b9 bc
       0.05393796 -0.0076187886 0.01932166 -0.02267667
000150 b8 28 88 3d 82 5a da 3d 1a 49 b4 bd 7d 1b 50 3d
       0.066483915 0.10661794 -0.088030055 0.050807465
000160 7b 10 43 bd f9 22 5d 3c 98 c3 b6 3d a9 b7 ef bd
       -0.04762314 0.013497108 0.08924025 -0.11704952
000170 4f bf 6c 3c 27 47 8c bb c5 0e 9d bd 71 28 58 bd
       0.014449908 -0.004280943 -0.07668833 -0.052772943
000180 4c c1 49 3d 36 ba 68 3d e1 5a 94 3d 22 bf 1d 3d
       0.049256608 0.05681821 0.07243896 0.038512357
000190 0b 06 f9 3c 11 1e 94 bd 55 98 9d 3d 1b bb 0a 3d
       0.03039839 -0.07232297 0.07695071 0.033869844
0001a0 e4 09 af bd c0 9f 9f 3a 17 d3 83 3b 92 32 83 3d
       -0.08546808 0.0012178347 0.0040229666 0.0640613
0001b0 32 fc fd 3c 8f 74 66 bc 76 13 50 bd 7c c7 16 bd
       0.031004045 -0.014065876 -0.05079981 -0.036811337
0001c0 79 51 a0 bb 02 c1 34 3c 64 5c 49 be 41 d1 fa 3c
       -0.004892525 0.011032345 -0.1966415 0.030617358
0001d0 11 ad 82 3d 07 a7 f4 bd 7b a9 61 3d 44 36 ae 3c
       0.06380666 -0.119459204 0.05509327 0.02126611
0001e0 57 ce 98 3d 3a 71 0b bd cb e9 a7 3d fa 9a bf 3c
       0.07461231 -0.03404353 0.08198889 0.023389328
0001f0 70 3c c7 bb 16 a0 21 3d e6 05 a2 bd 79 ee c4 bc
       -0.0060802028 0.03945931 -0.07911281 -0.024039494
000200 52 72 f1 3c c4 ec b0 bd 56 ac 8c 3d 56 6f 01 bc
       0.029473457 -0.086389095 0.06868808 -0.00790008
000210 97 6e dc 3d 9b 24 52 bc 74 93 77 bd 79 f3 93 bd
       0.10763281 -0.01282611 -0.060443357 -0.07224173
000220 31 ac 79 bd 8a 3a e9 3c f7 a7 b0 bd 59 0d 19 3d
       -0.06095523 0.028470296 -0.08625787 0.037366245
000230 cc 05 fc bc 28 bf 21 bd 4d 80 9b bd 6c 8c 17 3e
       -0.030764483 -0.03948894 -0.07592831 0.1479966
000240 35 18 37 be c2 26 c1 3c e6 a4 cb 3c dc 7b 44 3d
       -0.17880328 0.023578051 0.024858903 0.047969684
000250 ef 17 ea 3b 71 3c e5 bc 9b 35 c3 bd 6e af 7d bc
       0.0071439664 -0.027982922 -0.09531709 -0.01548372
000260 1c 73 56 be 81 e8 45 be 65 d0 9b 3a 9e 2e ed 3d
       -0.20942348 -0.19326974 0.0011887668 0.11581157
000270 5c 75 a6 bc 22 7b bd bd b5 ae 19 3d 67 68 44 3e
       -0.020319633 -0.09252001 0.03752013 0.19180451
000280 e9 96 c6 bb 93 29 c6 3c 05 57 8a bd 8f 08 95 bd
       -0.0060604704 0.024189746 -0.06754879 -0.07277023
000290 05 fa ae bc 5c 4b 65 3d 28 29 87 3b 19 2e 56 3c
       -0.021359453 0.05598007 0.0041247793 0.013072514
0002a0 49 44 d3 3d b8 94 36 bd e1 18 c8 3b 6a c4 34 be
       0.10315759 -0.044575423 0.0061064814 -0.17653051
0002b0 a5 8b 8f bd 33 2f 09 3d 3b 50 39 bd 42 51 f6 bc
       -0.07009057 0.03349228 -0.04524253 -0.030068044
0002c0 6c 2c 7e bd 8c d0 c6 bc 13 b9 52 be 0e 3a 59 bd
       -0.062054083 -0.024269365 -0.20578413 -0.05303388
0002d0 6d e7 79 ba fd e1 8a bc 56 28 0f be f0 58 f3 bc
       -0.00095330813 -0.016953463 -0.1398023 -0.029705495
0002e0 d4 87 b8 bd c0 84 66 bd 09 8a d7 bc 5c 0c 51 bc
       -0.09010282 -0.056278944 -0.026310937 -0.012759294
0002f0 e1 9a f0 3c da 1a d3 3d dc 45 d4 3d 93 22 5c 3d
       0.029370727 0.10307856 0.10364887 0.05374391
000300 be b0 71 bd 02 48 e0 bd 11 96 6c 3b f1 f5 89 3d
       -0.059006445 -0.109512344 0.0036100189 0.06736363
000310 7d 3e d0 3c 81 3a 62 3d 93 17 12 bd 98 21 04 3c
       0.025420422 0.055231575 -0.035667013 0.00806465
000320 4e 34 83 3d 75 e1 31 bd 1a aa 66 3d 4d e2 c6 3c
       0.06406461 -0.043427903 0.056314565 0.02427783
000330 3c 76 d1 bd f2 ce 8a 3d a2 a9 1d be 1e b2 61 bd
       -0.102276295 0.06777753 -0.15396741 -0.055101506
000340 bd d6 ce 3c 16 9d f3 bd f6 a5 93 3c ad e1 41 3e
       0.02524888 -0.11895196 0.018023472 0.18933745
000350 ab 3b 50 be 97 76 62 bd d3 ec 03 be 19 30 16 bb
       -0.20335262 -0.055288877 -0.1288331 -0.0022916852
000360 cf 97 23 bd ac 85 82 3b 3e 20 40 3d 8f ab 2d bd
       -0.039939698 0.00398322 0.04690575 -0.04239994
000370 5e 48 98 3c 04 b7 38 bd 4a e6 e1 3c ae 6d 62 bb
       0.018589195 -0.045096412 0.02757563 -0.0034550237
000380 e7 6a bb bc 7a f8 8d 3b e6 2f 27 3c 44 78 8b bc
       -0.022878123 0.004332599 0.010204291 -0.01702512
000390 fa bb d2 3d 2d 6f d9 3c fb ff 13 bb a9 ef da bc
       0.1028976 0.02654227 -0.0022582996 -0.026725607
0003a0 4c ca 96 3b 68 64 1e bc cd 00 37 bd 3e 56 f0 3c
       0.0046017524 -0.009667493 -0.044678498 0.029337998
0003b0 01 a1 d3 bc 23 e0 c6 3d 8c 74 2c 3e fd f6 b2 3d
       -0.025833609 0.097107194 0.16841334 0.087385155
0003c0 d4 4a 1e be e2 14 e2 3c 18 89 47 bd eb a8 0d bd
       -0.15458232 0.027597848 -0.048714727 -0.03458492
0003d0 34 5f 4a bd 25 82 53 3e f3 21 e7 3c a7 eb 86 3a
       -0.0494072 0.20655115 0.02821443 0.0010293619
0003e0 56 f0 14 3d d0 35 dc 3d 49 45 80 bd 41 0a 90 3d
       0.036362015 0.107524514 -0.06263215 0.07033206
0003f0 1b 8b 02 bd 8f 27 94 3d 7a 09 ff 3d 1c a8 c4 bc
       -0.031870943 0.07234108 0.124529794 -0.024005942

fc2.bias f4 [256]
000000 e6 38 2d 3d 1d 2c fd bc fd 7b 6c 3b 46 87 11 be
       0.04229059 -0.030904824 0.0036084645 -0.14211759
000010 51 23 78 bd 12 c3 3a be f1 e7 b9 3d f6 ce 16 3b
       -0.060580555 -0.18238476 0.090774424 0.0023011542
000020 de 76 e4 bd 00 4c ee 3d 0f 0a 18 be 45 02 0f be
       -0.111554846 0.116355896 -0.14847587 -0.1396571
000030 b8 f0 b9 bd 36 bb 8b bd 23 42 04 be ae 43 08 be
       -0.090791166 -0.06822817 -0.12915854 -0.13307068
000040 48 2b 0d 3d 50 b4 01 be b0 b9 c5 bd 1e 11 c5 bb
       0.034465104 -0.1266644 -0.09654558 -0.0060140034
000050 50 6f 13 3e 0d de d8 3d 92 3b 13 be df 12 0b 3d
       0.14397931 0.10589228 -0.14378193 0.033953544
000060 0a 29 29 3d 1e b3 e2 3d c8 bd 13 be 1e 8b 63 3d
       0.041298904 0.1106932 -0.14427865 0.055552594
000070 58 8d ce 3d d7 3d cd 3c 1a 64 c0 bd 6d 76 d9 bd
       0.10085553 0.025053902 -0.09394093 -0.10618291
000080 b7 e3 22 3d 3f fe 35 3d d7 8b 4d bc 10 a7 02 be
       0.039767947 0.04443192 -0.012545547 -0.12759042
000090 84 f5 07 be fe 6c d9 bd 64 ad 29 be ce 3b c8 3c
       -0.1327725 -0.10616492 -0.1657005 0.02444258
0000a0 5b a1 b5 bd ad ed c4 bd 51 53 0c be 66 f0 a5 bd
       -0.08868667 -0.096156456 -0.13703658 -0.08102493
0000b0 5f d2 d7 bd 42 45 0c be ac 06 d3 bd 53 1f 2f be
       -0.10538172 -0.13698295 -0.10304007 -0.17101793
0000c0 e1 f5 42 bd 7a 73 93 3c 16 27 09 bb 96 2e bb 3c
       -0.04759777 0.0179994 -0.0020927838 0.022849362
0000d0 03 b2 40 be 90 a2 30 bd fa f3 4b be 54 cd cb bd
       -0.18817906 -0.04312378 -0.19917288 -0.099512726
0000e0 fe 34 d3 3d cb 79 0c be 81 a4 fa bd 20 03 b3 bd
       0.10312842 -0.13718335 -0.12238408 -0.087408304
0000f0 be 95 5d be 72 e2 55 3d cb 08 0b be ee 5a c6 3d
       -0.21639153 0.05221791 -0.13577573 0.09685312
000100 61 be 09 3e 50 bf 31 be 5e a0 98 bd bb 86 1d be
       0.1345153 -0.17358136 -0.074524626 -0.15383427
000110 fe ed bb bd 6a a0 94 bd f3 f2 a0 3d d8 b4 ac bd
       -0.09176253 -0.07257159 0.07858839 -0.08432931
000120 80 ec d1 3d 3a dd 04 be be a0 25 be d0 0f 50 be
       0.10250187 -0.12975016 -0.161746 -0.20318532
000130 3b 18 41 3d 6c d3 a3 39 e5 ea 9a bd e9 c3 37 be
       0.04714225 0.00031247304 -0.07564334 -0.17945828
000140 d1 0f aa bc ce ab da bd f4 96 a1 bd 8f 54 1b be
       -0.020759495 -0.106773004 -0.0789012 -0.15168975
000150 fc 7c 29 be 5c 27 9d 3d 34 cc c7 3d 50 a7 12 3e
       -0.16551584 0.07673523 0.097557455 0.14321637
000160 32 d8 06 3d 49 df 00 be 50 57 2f 3b c1 d3 e8 bd
       0.032921024 -0.12585177 0.0026754923 -0.11368514
000170 20 08 17 be e6 d0 1d be bb 45 cf bc 27 51 35 be
       -0.14749193 -0.1541172 -0.025301805 -0.17706738
000180 4f 9e 50 be 65 7d d3 bd f8 8e b9 bd 48 3b 27 be
       -0.2037289 -0.103266515 -0.09060472 -0.16331208
000190 12 d2 23 be e8 0b 3a be 1c 94 89 bd b4 ca ce bd
       -0.15998104 -0.18168604 -0.06717703 -0.10097256
0001a0 e7 4c 81 3c 97 ca bd bd bf dd 4a be 46 af e4 3c
       0.01578374 -0.092671566 -0.19811152 0.027915608
0001b0 5d 8c b1 3d ef 6f 0a 3d 15 22 99 bd c5 b2 0b be
       0.0866935 0.033798154 -0.07477204 -0.13642414
0001c0 16 ed 90 bd 48 02 06 be f5 d5 8d bd 40 79 ce bd
       -0.070764706 -0.13086808 -0.06925575 -0.1008172
0001d0 43 63 b3 bd a9 dd 05 3e fe c0 9f 3d 96 ca e7 3c
       -0.08759167 0.13072838 0.07800482 0.028294843
0001e0 88 0e 9f 3c 6c d5 12 3c 33 72 86 3d 48 96 a7 bd
       0.019416109 0.008962017 0.065647505 -0.08182961
0001f0 7f bd 17 be e5 00 0e be da fb fc 3b fa f7 38 be
       -0.14818381 -0.13867529 0.0077204527 -0.18063346
000200 ca 3b b6 3d 33 22 ec 3d d7 13 70 3d ca 26 af bd
       0.088981226 0.115299605 0.05861267 -0.0855232
000210 5c a4 18 be 89 fb 16 be d0 47 c7 bd c2 c1 5a 3d
       -0.14906448 -0.1474439 -0.09730494 0.053407438
000220 bc 44 7a 3c 02 15 1a be 6d 3b 09 be 81 99 e2 bb
       0.015275177 -0.15047076 -0.13401575 -0.0069152717
000230 2c 80 06 3e 5d 89 a8 bd 6b 88 d7 bd 79 44 15 bd
       0.13134831 -0.08229325 -0.105240665 -0.036442254
000240 86 01 f6 3c bb b6 09 be 37 40 1b be 38 9d e6 bd
       0.030030023 -0.13448612 -0.15161215 -0.11260456
000250 21 4d 7a 3d ab e8 75 be 6f 67 e7 3d fb 05 0a bd
       0.061108712 -0.24014537 0.11299025 -0.03369711
000260 45 0b c6 3a 3c 07 f5 bd ae 78 28 3e 37 5a d5 bd
       0.001510956 -0.119642705 0.16452286 -0.10417598
000270 63 56 1a bc 8c eb f9 bd 31 f3 1a 3e 15 9e 18 bc
       -0.00942001 -0.1220313 0.15131833 -0.009315033
000280 2b 53 2e be c4 8c 59 3d 8b 3c 3f be 13 13 24 be
       -0.17023914 0.05311276 -0.18675439 -0.16022901
000290 64 33 54 3d 6b f4 10 bc 52 4e df bd 8f b1 15 be
       0.051806822 -0.008847336 -0.1090361 -0.14618514
0002a0 48 08 13 be da 73 0b 3e 8b 2a 19 be 0b ff c0 bd
       -0.14358628 0.13618413 -0.14957635 -0.094236456
0002b0 5d ec 15 be 95 29 94 bd b8 b2 15 be 79 05 60 bd
       -0.14640947 -0.07234494 -0.14618957 -0.05469272
0002c0 d2 1e 4c 3d f4 cc cf bd e3 0c 3c 3d a4 c4 9f 3d
       0.04983408 -0.101465136 0.045910727 0.07801178
0002d0 a5 6c b9 3b 5f c9 e1 3d 16 c4 9f bd 32 b9 98 3d
       0.0056587034 0.110247366 -0.07801072 0.07457198
0002e0 09 7d c5 3d 3a d9 9d bd 21 74 67 bd 57 44 64 3d
       0.09642989 -0.07707448 -0.056507234 0.055729236
0002f0 3c 10 f9 bd 70 81 bc bd c7 ff 11 be be ad 32 be
       -0.121612996 -0.09204376 -0.14257728 -0.1744909
000300 2e 54 8d 3c c1 a6 81 bc b5 d5 f2 3b 7b 0b 1a bd
       0.017252054 -0.015826585 0.00741073 -0.037608605
000310 a1 33 f1 ba 17 24 f0 bc c0 7c 17 be 92 77 e9 bd
       -0.0018402227 -0.029314084 -0.14793682 -0.11399759
000320 a0 98 5b 3d 5e 05 d7 bd 8a 4c 27 3d 24 85 a9 bd
       0.05361235 -0.104990706 0.040844478 -0.08277348
000330 a3 38 ce bd 60 45 d5 3c df 49 de bd e6 ab bf bd
       -0.10069396 0.026034057 -0.108539335 -0.09358959
000340 28 98 fb 3d a0 d2 21 be 8b c9 c6 bc 17 cf 49 be
       0.12284881 -0.15803003 -0.024266025 -0.19707905
000350 47 cc 43 3d 87 f4 6d 3d 0c 3f 9f bd 2d 0b 16 3e
       0.047802236 0.058094528 -0.07775697 0.146527
000360 40 75 1b be 84 9e 0e be 45 bf c1 3d 6d 14 4e be
       -0.15181446 -0.13927656 0.0946031 -0.2012498
000370 e1 92 25 be 87 98 b6 3d 81 4e df 3c b5 a5 09 be
       -0.16169311 0.08915811 0.027259113 -0.13442118
000380 e4 ae 38 be df 39 d9 bd d0 1b 10 be bc f9 11 be
       -0.18035465 -0.10606741 -0.1407311 -0.14255422
000390 0f 93 a5 bd 4d ba 3a bc 25 96 ea bd dd de f6 3d
       -0.0808469 -0.011396957 -0.11454419 0.120542265
0003a0 6b 9f 9b 3d 22 d8 54 be 5f 2c fa bd 76 cd b0 bd
       0.07598766 -0.20785573 -0.12215494 -0.086329386
0003b0 bf d1 2a 3d 76 38 e1 3d e3 1d c4 bc d4 20 bf bd
       0.041703936 0.10997097 -0.023940032 -0.09332433
0003c0 0c 53 80 bd 00 ac fc bd c4 73 93 3d ae 78 a7 3b
       -0.0626584 -0.12337494 0.07199815 0.0051108217
0003d0 9a fe 1d be 6c b7 75 bc 49 a4 dc bd 63 5f 06 be
       -0.15429154 -0.014997344 -0.107735224 -0.13122325
0003e0 8b 30 08 3e a2 20 d0 bd ec f8 85 bc 72 81 8c bd
       0.13299768 -0.10162474 -0.016354047 -0.06860627
0003f0 6b 32 0f 3e 3b 0a 4e be cf 52 0b be 5a a0 0b be
       0.13984077 -0.2012109 -0.13605808 -0.13635388

fc3.weight f4 [1, 256]
000000 ef 2c 68 3d 74 fb bc 3d b4 75 7d 3d 47 a8 04 be
       0.056683477 0.092276484 0.06187983 -0.12954818
000010 f2 52 e1 3d 2d ca 52 be 0e e1 89 3d 45 9c 8b 3d
       0.11002149 -0.20584936 0.06732379 0.068169154
000020 80 9a 0d be 4c 71 4a 3d b7 fb 40 be d9 71 0f be
       -0.13828468 0.049424455 -0.18846022 -0.14008273
000030 9f 18 f8 bd b2 15 b3 3d 95 ce a3 be 83 21 e9 bd
       -0.12114071 0.087443724 -0.31993547 -0.11383345
000040 3e 8d 66 3d a1 88 f7 be 43 7b 65 be e0 88 c0 3d
       0.056287043 -0.48346427 -0.22410302 0.09401107
000050 a7 c7 6c 3d b8 80 3c 3d 91 9b ef bd 22 69 63 3d
       0.05780759 0.046021193 -0.11699594 0.055520184
000060 be 65 4a 3d f0 97 7b 3d 94 8e 99 be 01 c1 50 3d
       0.049413435 0.061424196 -0.2999159 0.050965313
000070 c9 c8 70 3d 66 d0 96 3d a8 a8 e3 bd e8 c6 81 be
       0.058785234 0.073639676 -0.11116153 -0.25347066
000080 5e 7e 55 3d 06 54 63 3d 7a c2 90 3d c2 57 ef bd
       0.052122466 0.055500053 0.070683435 -0.1168666
000090 14 20 fd bd ac b3 be bd 99 10 d3 be b9 5b 77 3d
       -0.12359634 -0.093116134 -0.412236 0.060390208
0000a0 cd e6 b7 bd 3e 17 ee bd d4 8c 3e be af ef c7 bd
       -0.08979569 -0.11625527 -0.18608409 -0.09762513
0000b0 55 cb 10 be 2c 17 dd be 40 8e d2 bd 5f 85 ae bd
       -0.14140065 -0.4318174 -0.10281038 -0.08521532
0000c0 02 fe cc 3d 98 d6 64 3d e9 62 bf 3d 23 66 86 3d
       0.10009386 0.055868715 0.093450375 0.0656245
0000d0 86 33 83 bd ef 47 fe 3d 12 1a 10 bf b5 f0 e9 bd
       -0.06406312 0.12416064 -0.5628978 -0.11422864
0000e0 a6 8d 30 3d 69 c7 18 be 8e 82 ae be ec b9 02 be
       0.043103836 -0.14919819 -0.3408398 -0.12766236
0000f0 9c d5 1c be fa b2 81 3d 4d 63 14 be 3d 1c a5 3d
       -0.1531586 0.06332965 -0.14491005 0.08062027
000100 db d0 8a 3d cb df f6 bd 28 bc 23 3e 1a a9 34 be
       0.06778117 -0.12054404 0.15989745 -0.17642632
000110 69 b8 1f 3e f7 c8 71 bd 59 03 6b 3d cd c4 99 bd
       0.1559769 -0.059029546 0.05737624 -0.0750824
000120 ce 79 5c 3d ba 16 77 be d6 fa b7 bd 48 31 f5 bd
       0.0538271 -0.24129763 -0.0898339 -0.1197229
000130 1c 17 50 3d 4a 13 57 3d 40 ac f3 bd 02 9d 2b be
       0.05080329 0.05250863 -0.118980885 -0.16759112
000140 a1 38 43 3d 6d b5 07 be 98 b2 df 3d a5 50 ef bd
       0.047661427 -0.13252802 0.10922736 -0.116853036
000150 ca f7 f5 be d5 d2 55 3d 36 b0 6d 3d 22 08 5d 3d
       -0.4804061 0.05220302 0.058029376 0.053962834
000160 12 89 68 3d 3d 60 f7 bd 68 c1 94 3d f9 bd de be
       0.056771345 -0.12078903 0.07263452 -0.43504313
000170 f5 7b 9f bd 20 d4 45 be aa 6e ce 3d eb 0d 89 be
       -0.07787315 -0.193192 0.10079701 -0.2676843
000180 82 e0 e5 bd 29 0f 0e be 5e 4d 35 be bd a1 be bd
       -0.11224462 -0.1387297 -0.17705294 -0.09308193
000190 b5 62 bf be 25 f3 d2 bd 3d 4b 9f 3d fa db 0e 3e
       -0.37379995 -0.103002824 0.077780224 0.13951102
0001a0 60 ec 3c 3d e7 f3 08 be 1c 5d 2a be 28 db 96 3d
       0.046123862 -0.13374291 -0.16637081 0.073660195
0001b0 75 20 47 3d 3d d7 22 3d 66 b0 ab 3d 10 2a e4 be
       0.048614938 0.03975605 0.08383255 -0.4456334
0001c0 f3 05 16 3e a0 5d 25 be 74 e7 c6 3d ba 26 45 bd
       0.14650707 -0.16148996 0.09712115 -0.048132636
0001d0 5d e6 ab 3d ea a2 40 3d d3 c5 56 3d 7a 3a aa 3d
       0.08393548 0.047030367 0.052434754 0.08311935
0001e0 bb 39 7e 3d bd 5d 6d 3d 95 40 55 3d d6 f3 20 be
       0.062066775 0.057950724 0.052063543 -0.15718016
0001f0 5f 4b e9 bd 8e 76 9e be d0 f8 8b 3d 5b 86 23 be
       -0.11391329 -0.30949825 0.068345666 -0.15969221
000200 93 c0 4c 3d 3a 27 4d 3d 95 70 4e 3d 2b 12 f6 3d
       0.04998834 0.050086237 0.050400335 0.12015184
000210 c1 74 04 be 43 a1 e2 bd 74 f5 18 be ff 18 8f 3d
       -0.12935163 -0.110659145 -0.14937383 0.069871895
000220 ff e1 b2 3d 5a 4f 31 be f2 10 85 be a9 7c a4 3d
       0.087345116 -0.17315426 -0.2598949 0.080315895
000230 f6 69 52 3d 9d a2 c5 3d a2 9c 35 be 0d 92 a2 3d
       0.051370583 0.09650157 -0.17735532 0.07938013
000240 b6 16 6f 3d e8 02 de be 85 62 38 be 63 d7 ea bd
       0.05837127 -0.43361592 -0.18006332 -0.11466863
000250 b3 9e 5a 3d c9 1a b0 bd 2e 2f 5a 3d 96 66 ab 3d
       0.053374004 -0.08598859 0.05326765 0.08369176
000260 b9 54 95 3d 34 f9 5a be 2c f3 70 3d c6 d4 3b be
       0.0729155 -0.21384126 0.058825657 -0.18342885
000270 dd 63 d0 3d a7 a9 28 be 7c 80 76 3d 58 57 a3 3d
       0.101752974 -0.16470967 0.060181126 0.07975644
000280 ce d6 15 be 86 c2 82 3d 6e 65 43 be 69 8b 11 be
       -0.14632723 0.06384759 -0.19081661 -0.14213337
000290 9f 40 4b 3d bb c9 b2 3d ee b9 d0 bd bd 63 4b be
       0.049622174 0.08729883 -0.10191713 -0.19862266
0002a0 06 51 60 be 46 dc 49 3d 39 dd 10 be 2c 7c 6f bd
       -0.21905908 0.049282335 -0.1414689 -0.05846803
0002b0 c1 80 20 be 34 b3 df bd bb 40 c9 bd 19 cc d8 3d
       -0.15674116 -0.10922852 -0.098267995 0.105858035
0002c0 77 62 47 3d 72 a6 a6 be 5b 0b 8d 3d 25 5e 52 3d
       0.048677888 -0.32548863 0.068869315 0.051359314
0002d0 ba 0e cf 3d 9e c4 5f 3d aa a4 07 3e f1 1c 59 3d
       0.10110231 0.054630868 0.13246408 0.053006116
0002e0 44 ce 7f 3d f0 89 a9 3d 40 02 98 3d 3f 4a 6b 3d
       0.06245257 0.082782626 0.07422304 0.057443853
0002f0 d9 df b0 bd 76 f5 f2 bd 3f 3b c5 bd cb 89 30 be
       -0.086364456 -0.11863224 -0.09630441 -0.17240064
000300 03 9d 98 3d cf 11 8a 3d 63 70 a3 3d 75 06 84 3d
       0.074518226 0.06741678 0.079804204 0.06446544
000310 9d b1 89 3d 9e fd a7 3d 22 8a ed bd 91 0e cd bd
       0.0672333 0.082026705 -0.11598612 -0.10012544
000320 58 e5 3e 3d 4c 04 40 be 9b 9a 88 3d 6f b2 b8 bd
       0.046605438 -0.18751639 0.06670114 -0.090184085
000330 33 ee b8 bd a5 8b 85 3d 68 27 a4 bd b8 37 20 3e
       -0.09029808 0.06520776 -0.08015329 0.15646255
000340 65 a2 51 3d 4e b5 e6 bd 45 f6 94 3d 49 c3 09 be
       0.051180262 -0.1126505 0.07273535 -0.13453402
000350 74 aa 43 3d 1e cb 5d 3d 0c a0 c3 bd 09 0e 52 3d
       0.04776998 0.054148786 -0.09552011 0.051282916
000360 7f 72 02 be 68 aa 09 be 03 8f 8f 3d 3b dc 8e be
       -0.1273899 -0.13443911 0.07009699 -0.27902398
000370 69 5c 11 be 5a 3c 51 3d 80 8c 8c 3d ac d3 12 be
       -0.14195408 0.051082946 0.06862736 -0.14338559
000380 4c 11 96 be f1 fb ca bd ca d2 7f be 9a 80 8e be
       -0.2931007 -0.09911335 -0.24982753 -0.2783249
000390 c0 bf e9 bd 7f 64 71 3d 28 8b c1 bd 6d ca 83 3d
       -0.114135265 0.05893373 -0.0945037 0.06435094
0003a0 d3 85 5d 3d c3 8a 1c bf b9 08 01 be dd b3 e0 bd
       0.054082703 -0.61149234 -0.12600984 -0.10971806
0003b0 ce 6b 4b 3d aa 43 4c 3d e6 9e b6 3d 38 5d 05 be
       0.049663357 0.049869217 0.08917026 -0.13023841
0003c0 18 f8 01 be 3d 95 18 be f5 a3 8d 3d 06 6a de 3d
       -0.12692297 -0.1490068 0.06916038 0.10860066
0003d0 5f 67 cd be a9 bc a7 3d aa 1c 80 be 5b 44 ff bd
       -0.40117928 0.08190281 -0.2502187 -0.1246421
0003e0 b1 3e 7a 3d 84 6c 81 be 38 3d 56 3d 29 96 f0 3d
       0.061094943 -0.25278103 0.052304476 0.11747391
0003f0 a1 e6 71 3d 84 8a ba bd 5c f9 94 bd 65 5a c0 bd
       0.059057835 -0.09108451 -0.07274124 -0.093922414

bn.weight f4 [512]
000000 91 e8 e3 3e e9 5f 2b 3f 1d 04 da 3e 02 1f f7 3e
       0.44513372 0.6694322 0.42581263 0.48265845
000010 69 88 2f 3f 42 be 81 3e 9a 54 99 3e bf 42 9d 3f
       0.6856752 0.25340468 0.29947358 1.2285994
000020 4f ee 4a 3f be 2e ae 3e 69 4c 02 3f 78 5b f8 3d
       0.7926988 0.34020036 0.5089784 0.12126821
000030 34 e0 5a 3f 98 1f 31 3f 78 2d c6 3e ba d9 18 3f
       0.85498357 0.69188833 0.38706565 0.59707224
000040 9d 52 f0 3e dd bc 17 3f 73 0a 17 3f 4d ad f8 3e
       0.4693803 0.5927256 0.5900032 0.48569718
000050 d4 cd d5 3e 01 e7 02 3e 19 c7 16 3f 47 b7 cf 3e
       0.41758597 0.12783433 0.5889755 0.40569517
000060 4e 69 1f 3f 9b 7c 22 3f 24 fb 88 3e f6 ec 1a 3f
       0.6227006 0.6347138 0.26754105 0.60517824
000070 48 a3 e1 3e cd 9a 2c 3f b2 fa 1d 3f c2 ef 1d 3f
       0.44069886 0.6742371 0.61710656 0.61693966
000080 bf 44 11 3f e8 7e f7 3e 20 db 13 3f 93 83 f6 3e
       0.56745523 0.4833901 0.57756233 0.48147258
000090 e8 b0 5c 3f 89 fb d2 3e a3 99 21 3f bb 2c e7 3e
       0.8620744 0.4120753 0.63125056 0.45151314
0000a0 41 ae cd 3e d9 d0 1f 3f df 7e d9 3e f7 19 17 3f
       0.40172008 0.6242805 0.42479607 0.59023994
0000b0 02 e0 3c 3f 5e 29 8d 3e f4 d1 5e 3f 91 a8 5f 3f
       0.7377931 0.27570623 0.87039113 0.87366587
0000c0 6b f8 82 3e e0 01 bd 3e de a2 08 3f e5 97 b1 3e
       0.25580153 0.36915493 0.53373516 0.346862
0000d0 bf 62 4c 3f 5e 28 1d 3f 85 6d 0d 3f 99 4c 36 3f
       0.79838175 0.6138972 0.5524524 0.7121063
0000e0 82 64 a1 3e 9c 88 3b 3f dc 41 27 3f aa e1 f6 3e
       0.31521994 0.73255324 0.6533487 0.48219043
0000f0 5f 8e 61 3f 8b 3d 25 3f 98 22 c8 3e cc b0 93 3e
       0.88107866 0.6454703 0.39088893 0.28845823
000100 70 e6 83 3e 60 50 a6 3e 21 62 c3 3e 55 ab ef 3e
       0.25761747 0.32483196 0.38160804 0.46810403
000110 28 f6 6f 3f 16 f1 00 3f ed e8 75 3f cf 6e ff 3e
       0.9373498 0.5036787 0.9605854 0.49889228
000120 02 e8 47 3f 0f fe fe 3e 32 67 c3 3e b6 7a e1 3e
       0.7808839 0.49803206 0.3816467 0.44038934
000130 4d 8d e6 3e a8 70 33 3f dc e9 0d 3f a2 e3 19 3f
       0.4502968 0.70093775 0.55434966 0.60112965
000140 de 0d 15 3f 6e 9a 58 3f 29 fd b4 3e 45 09 06 3f
       0.58224285 0.8461064 0.35349396 0.52357894
000150 62 16 10 3f f3 6c be 3e 26 49 aa 3e 0f ff dc 3e
       0.56284153 0.37192497 0.33258933 0.43163344
000160 43 49 25 3f b8 2d 6c 3d 54 b9 f0 3e 24 bf 2d 3f
       0.64564914 0.05766079 0.47016394 0.6786978
000170 2e 56 a1 3e ef 0f 22 3f a4 e6 b1 3e dd 42 0d 3f
       0.31511062 0.6330556 0.34746277 0.5518015
000180 83 61 01 3f 95 31 42 3f eb 46 ff 3e 5d 5c 42 3f
       0.50539416 0.75856906 0.49858794 0.75922185
000190 c9 bb 2f 3f 72 ce 8b 3c 54 08 36 3f ae f9 fd 3e
       0.6864591 0.017066214 0.7110646 0.49604553
0001a0 2c 4c 10 3f 60 8f c1 3e 70 dc 12 3f 55 c6 8c 3e
       0.5636623 0.378047 0.5736761 0.27495065
0001b0 4b af d0 3e 09 52 8e 3e f7 39 0d 3f 5c d7 14 3f
       0.40758738 0.27796963 0.5516657 0.5814111
0001c0 9d 0a d3 3e a9 b1 3f 3f 3e 46 84 3f 14 80 2c 3f
       0.41219035 0.7488046 1.0333936 0.6738293
0001d0 15 47 3b 3f ee 29 34 3f 3e 64 65 3f b7 5e dd 3e
       0.7315534 0.7037648 0.8960608 0.43236324
0001e0 fe 43 48 3f e5 fb 96 3e 65 4e fa 3e 15 30 31 3f
       0.7822875 0.29489055 0.48887935 0.6921399
0001f0 8d ca 4f 3f e3 90 44 3f ce bf da 3e 8c b9 0b 3f
       0.8116844 0.7678358 0.4272446 0.5458
000200 a2 4d f0 3e d5 f4 27 3f 45 ed a9 3e d0 d6 04 3f
       0.4693423 0.6560796 0.33188835 0.5189028
000210 24 16 ec 3e a2 90 36 3f 00 4a 7c 3e 54 08 01 3f
       0.46110642 0.7131444 0.24637604 0.5040333
000220 0e 9e c0 3e c0 6c 54 3f de 89 4d 3f 08 94 47 3f
       0.37620586 0.8297844 0.80288494 0.7796025
000230 fb 05 37 3f ee 36 23 3f 34 12 f0 3e dc d4 4a 3f
       0.714935 0.6375569 0.46888888 0.7923105
000240 3d 82 aa 3f ba 50 1c 3f 36 17 65 3f ad 2e 17 3f
       1.3320996 0.6106068 0.8948854 0.59055597
000250 85 55 27 3f 06 9e 2a 3f 66 3d a0 3d 1f b0 10 3f
       0.6536487 0.66647375 0.07824211 0.5651874
000260 9f c0 26 3f 79 40 c5 3e 44 ea 47 3f 92 ed 70 3e
       0.65137666 0.3852575 0.78091836 0.23528126
000270 43 13 47 3f 3f eb 1e 3f 79 c1 29 3f 17 16 d9 3e
       0.77763766 0.6207771 0.6631084 0.42399666
000280 56 8b c3 3e d0 41 b8 3e 6b da ed 3e 9f 08 fb 3e
       0.38192242 0.3598771 0.46455702 0.49030015
000290 f3 d3 af 3e fb 69 bc 3e 09 29 05 3f 0a a2 9f 3e
       0.34341392 0.36799607 0.5201574 0.31178313
0002a0 8e 5b 00 3f 7a 66 ba 3e ab 11 4c 3f fb d3 a8 3e
       0.501397 0.36406308 0.7971446 0.32974228
0002b0 24 22 32 3f 29 2d 31 3f 9c 99 23 3f 25 f4 e9 3e
       0.69583344 0.69209534 0.63906264 0.4569408
0002c0 76 1a 32 3f be 14 64 3f c4 1f 5b 3f 8e 3a 57 3f
       0.69571626 0.8909415 0.85595345 0.8407372
0002d0 ab fc 3e 3e 49 a5 c2 3e f1 ab 24 3f 50 c6 3e 3f
       0.18651073 0.38016728 0.6432486 0.7452135
0002e0 21 fa 10 3e 5f 7e 59 3f 3a 9e d7 3e 5a 48 50 3f
       0.14157917 0.8495845 0.42112905 0.813604
0002f0 24 f0 b4 3e 41 2f ea 3e 95 06 38 3f 55 9d 32 3f
       0.35339463 0.45739177 0.71885043 0.6977132
000300 47 a1 d2 3e 2c dc d0 3e 1e e1 f4 3e a0 78 53 3f
       0.4113867 0.40792978 0.47828 0.82605934
000310 37 42 c8 3e 1c 51 3c 3f 82 a8 3a 3f ca da 29 3f
       0.39113018 0.73561263 0.7291337 0.6634947
000320 46 69 7b 3e 04 0f fb 3e 86 07 19 3f b2 81 ca 3e
       0.24551877 0.49034894 0.59777105 0.39552075
000330 46 2a 09 3f 74 47 3f 3f 27 b6 4f 3f 9f 94 4c 3f
       0.5358013 0.74718404 0.8113732 0.7991428
000340 ca 8a 01 3f 77 9c 2e 3f f9 8d 10 3f b4 d3 8e 3e
       0.506024 0.68207496 0.56466633 0.27895892
000350 c5 b0 8f 3e c0 ff 0f 3f e2 56 d9 3e b4 55 92 3e
       0.28064552 0.5624962 0.424491 0.2858101
000360 20 0f 25 3f 1d de d2 3d 1d 0d 31 3f c5 29 3c 3f
       0.64476204 0.10296271 0.69160634 0.73501235
000370 de 38 11 3f 43 41 25 3f 9f 7d c8 3e e3 b2 12 3f
       0.567274 0.64552706 0.3915834 0.5730421
000380 41 9c 19 3f c6 06 f2 3e c1 7b 36 3f fb 96 21 3f
       0.6000405 0.47270793 0.71282583 0.63121
000390 a8 0b 3a 3f 77 b7 d6 3e 8a a8 c1 3e 9e 9a 0e 3f
       0.72674036 0.41936848 0.37823898 0.5570468
0003a0 ab 2a ce 3e 88 eb 3b 3f 7f 5e 42 3f bb fe fb 3e
       0.40266928 0.7340627 0.7592544 0.4921778
0003b0 ca 74 11 3e ce 93 11 3f 80 47 7b 3e e7 0e 0a 3f
       0.14204708 0.5686616 0.24538994 0.5392899
0003c0 93 cf 0d 3f 8b e9 f6 3e 3a 3b d6 3e bb d2 9e 3e
       0.5539486 0.48225054 0.4184206 0.3102015
0003d0 22 51 32 3f cf 43 3a 3f 06 45 8c 3f dc 07 1e 3f
       0.6965505 0.7275972 1.0958564 0.6173074
0003e0 65 58 0c 3f 63 13 27 3f 26 d6 1d 3f ec 87 11 3f
       0.5482238 0.65263957 0.6165489 0.56848025
0003f0 ff ad 56 3e 11 b5 dc 3e e5 f3 1e 3f 18 50 48 3f
       0.20964812 0.43106893 0.62090904 0.78247213

bn.bias f4 [512]
000000 5f 90 15 3e 6c 14 9f 3d 75 ea 4b 3d a6 9b 87 bd
       0.14605854 0.07767567 0.049784143 -0.066214845
000010 36 05 0a 3e 35 8a d4 bd 34 9a a0 3c da 0e 1e 3e
       0.1347855 -0.103779234 0.01960478 0.15435353
000020 e0 4a 72 3d 04 68 65 bd c8 92 6e 3c 09 4f 7a be
       0.059153438 -0.0560074 0.014561363 -0.24444212
000030 9d 84 f1 3d 78 7f 82 bd 33 c6 8a bd 5d 6f 0f 3e
       0.11792872 -0.06371969 -0.06776085 0.14007325
000040 cd 16 2d 3e 75 71 0a 3e a7 a6 9e 3d 8f 4a 86 bc
       0.16903229 0.13519843 0.0774663 -0.016392974
000050 e6 2e f0 3d 42 af b8 3e 7a 67 3e 3e 20 82 ab bd
       0.11727695 0.3607121 0.1859416 -0.08374429
000060 af c9 2c bd c3 bd f6 3d 13 9b d5 3d 11 8d 1d bd
       -0.042184528 0.12047913 0.10429969 -0.03846461
000070 4e 41 23 be 4f 19 8c bd 26 bb fe 3d c5 c1 d0 bd
       -0.1594288 -0.06840765 0.124380395 -0.101932086
000080 26 e3 d9 3d 1b a8 19 3d 54 e3 e4 3d b2 2b 1d 3e
       0.10639028 0.037513833 0.11176172 0.153487
000090 99 4b 82 3d 34 0d 55 bc 2d 59 bc 3b b0 73 db 3d
       0.06362075 -0.013003636 0.0057479353 0.10715425
0000a0 e2 e4 06 3d 47 1e ca 3d 0d 00 93 3d bb 9d 4f 3e
       0.032933123 0.09869056 0.07177744 0.20275013
0000b0 46 56 a9 3b 2e f7 a8 3d 67 47 bc bc e7 a9 bc 3d
       0.0051677553 0.08250271 -0.022983266 0.09212094
0000c0 ec 8b f8 3d 54 8c bd bd 01 ba af bd eb b5 dd 3d
       0.12136063 -0.09255281 -0.08580399 0.10825714
0000d0 a8 83 fd bc d6 1b 0d 3e e1 9a a2 3d f6 ab 43 3e
       -0.030946568 0.1378015 0.07939697 0.19108567
0000e0 c7 57 fe 3d 00 52 96 3d 7c 68 22 3c 96 c1 ef 3a
       0.12419086 0.07339859 0.009912606 0.0018291946
0000f0 98 d3 02 3e 6a 03 57 3d 78 aa 1c bc 5d 6b 01 3d
       0.12776029 0.05249349 -0.009562127 0.03159653
000100 d6 e8 72 3d 60 fe 1b 3e f3 80 f3 3d b6 8f b5 3a
       0.05930408 0.15233755 0.118898295 0.0013852033
000110 7a b6 02 3e 6b de a5 bd 57 16 24 3e 26 dd be bc
       0.12764922 -0.080990635 0.16024147 -0.023298811
000120 56 bd d5 3c d2 35 ad 3d 3d 62 cc bd 93 ca 6f 3e
       0.026091259 0.08457531 -0.09979675 0.2341712
000130 97 44 8b 3d a6 96 c1 bc 7d 21 90 3d ac 48 d9 3d
       0.06800192 -0.023631405 0.070376374 0.10609564
000140 75 3a b1 3d 45 4f 74 3d d1 e0 5b 3e 0f fd e2 3c
       0.08653728 0.05964591 0.2147248 0.027708558
000150 ce 28 07 3e 61 43 77 3c aa 4f b6 bd b2 a3 2c 3e
       0.1319916 0.015091748 -0.089019135 0.1685932
000160 61 9e 58 3d 41 fc 4d be de cc 2e 3c a6 25 23 3e
       0.052885417 -0.20115758 0.010668961 0.1593233
000170 38 e9 75 3d 05 fb 1e 3e ab 01 da 3d 1f 04 a2 3c
       0.060036868 0.15525444 0.106448494 0.019777356
000180 46 c2 76 bd fe f5 5c 3e 67 56 24 be a9 40 aa 3d
       -0.060243867 0.21578214 -0.16048585 0.08313114
000190 62 ab 8f 3d f0 88 80 be 86 f7 69 3c ef da 1f 3e
       0.070151106 -0.25104475 0.014280206 0.1561086
0001a0 05 5e 8d 3d 9d d2 bc 3c d6 36 bf 3d 19 9f 24 3e
       0.069026984 0.023049647 0.09336631 0.16076316
0001b0 9b a6 80 3d bf 43 18 3d a6 7f c2 3d 7e 67 af 3d
       0.062817775 0.037173983 0.09497003 0.085646614
0001c0 5a f4 24 3d 46 00 5b 3e 17 ef fc 3d f9 e6 18 be
       0.040272094 0.21386823 0.1235029 -0.14931859
0001d0 62 b7 96 bd 72 2a 42 bd 69 6a 03 3e ce fd e9 bd
       -0.07359196 -0.04740376 0.12833561 -0.114253625
0001e0 72 23 88 ba 43 73 a4 3d cb 6e 3b 3d 0f 5a 49 3d
       -0.001038654 0.08029797 0.045759957 0.049158152
0001f0 3f 7a 0d 3e d7 ea f9 bc 92 f6 3d 3d a0 24 f5 3c
       0.13816164 -0.030507488 0.046377726 0.02992469
000200 2c 0a 3b 3d 5e ec 20 be a6 0a 97 bd 45 a6 d0 3c
       0.045663998 -0.15715167 -0.07375078 0.025469908
000210 69 e9 08 3e e9 65 a7 bb d5 ca 3f be 29 0f a7 3c
       0.13370289 -0.005108584 -0.18729718 0.020392971
000220 19 d7 1f 3d 79 42 ac 3d e9 0b 68 bd 28 90 0f bd
       0.039023492 0.08411116 -0.056651983 -0.035049587
000230 d3 16 8a 3d 03 14 98 3d 50 fb 4b 3e c1 49 20 3e
       0.067426346 0.07425692 0.19920087 0.15653135
000240 4c 6d 06 3e 1a 66 84 3d 8e 8c c2 3d f0 2f a9 bc
       0.13127631 0.06464787 0.09499465 -0.020652741
000250 f6 8a 97 bd d0 41 ac 3d 74 2e 94 3e 43 8f 56 3d
       -0.073995516 0.0841099 0.2894169 0.05238272
000260 b5 ad c6 3c e0 e8 18 bd 0f 87 3f 3e 23 d9 06 be
       0.024252752 -0.037331462 0.18703865 -0.13168769
000270 bf 9b fc 3d a7 5c 67 3d 36 99 fe bc 3b 4f 88 bb
       0.12334394 0.056484845 -0.031078916 -0.0041598356
000280 44 9c 6f 3e 8c 38 aa 3d 85 81 cf 3d c4 ac 98 3d
       0.23399454 0.08311567 0.10132126 0.074548274
000290 01 97 e4 3d 3e 30 03 3c 24 36 8b 3d 82 5a e8 bd
       0.11161614 0.008007107 0.06797436 -0.11345388
0002a0 44 e3 2f bb f7 0f fa 3b 9b c5 0c 3e 7c 39 e0 3d
       -0.0026838342 0.0076312977 0.13747256 0.10948464
0002b0 21 16 a4 bd 1a e9 6f 3d c5 10 2e 3d 65 f4 11 3d
       -0.08012033 0.058571912 0.04249646 0.035633463
0002c0 ea 58 1d 3e 60 d5 82 3d 9d f0 f0 3d da dc 81 bc
       0.1536595 0.06388354 0.11764643 -0.01585238
0002d0 a8 69 df bd 93 4c 06 3e a7 19 27 3d 5f 24 1f 3e
       -0.10908824 0.13115148 0.04079595 0.15541218
0002e0 ac e8 ab bc 30 ad 24 3e 11 f3 7f bd 7c f9 d2 3d
       -0.02098497 0.16081691 -0.062487666 0.103014916
0002f0 08 9a d6 3c 61 5b 0e 3b 3c ad 54 bd 61 62 b2 bc
       0.026196495 0.0021721947 -0.05192302 -0.021775426
000300 28 15 15 bd 7a cf 80 bc 73 fb 89 3d 91 70 01 3e
       -0.03639713 -0.015723933 0.06737413 0.12640597
000310 42 a8 1a 3d 15 e3 0a bd 5e 2f 57 3d 50 3c 7b 3d
       0.03775812 -0.03390797 0.052535407 0.061336815
000320 44 2b de bd 2a c2 f0 3d 9e c1 a0 3d dd aa 10 be
       -0.10848096 0.11755784 0.078494295 -0.14127679
000330 2a b8 a8 bd 2a de 05 be 2e d7 0f 3e e9 48 0b 3e
       -0.082382515 -0.1307303 0.14046928 0.13602032
000340 4e fc ab 3b cc 84 cd 3c 9f 57 a4 3d 2c 33 84 be
       0.005248583 0.025087737 0.08024525 -0.2582029
000350 86 d6 e6 3d 91 e9 88 bd b4 45 ca 3d de 9a cf 3d
       0.11271386 -0.06685174 0.09876576 0.101369604
000360 c3 de 8c bd 7a 5d aa be 02 e8 19 3d b7 4e 1c 3e
       -0.06878426 -0.33274442 0.037574776 0.15264402
000370 65 ce 8a 3c a9 5a 85 bc a4 26 04 3e 20 95 98 3d
       0.01694412 -0.016278582 0.12905365 0.07450318
000380 c5 34 2a 3e 90 4b 95 bc 5b cc 09 3e 32 3f 47 3e
       0.16621692 -0.018224508 0.13456862 0.19457701
000390 36 48 c0 3d 65 5d 58 bd 39 0b c5 3d f3 0f 90 3d
       0.09388773 -0.052823443 0.09621281 0.07034292
0003a0 25 68 98 bb 53 40 7c 3d 3f b3 75 3e ff 0a b5 3d
       -0.004651087 0.06158478 0.23994158 0.08839988
0003b0 4e 61 95 3e 68 27 1f 3e 5c 92 22 3c 6e fd ab 3c
       0.291758 0.15542376 0.00992259 0.020994868
0003c0 1f e1 e9 3d e2 32 4a bc 93 3a 55 bc eb 7c 9e 3e
       0.114198916 -0.012341233 -0.013014453 0.3095468
0003d0 70 a7 b0 3d 8e 52 2f 3e ea 17 10 3e 4c 12 74 3d
       0.08625686 0.17121336 0.14071622 0.05958776
0003e0 53 57 bc 3d b0 fb ce 3d a6 89 96 bc 6f c7 14 bc
       0.09196343 0.10106599 -0.018376183 -0.009080752
0003f0 12 25 ac 3d 21 c5 20 bc c5 d8 51 3e f4 c1 69 3d
       0.08405508 -0.009812624 0.20492847 0.057069734
