model_ddpg_actor.pth (torch_old, 613401 bytes, 14 tensors)

fc1.weight f4 [512, 33]
000000 41 26 e7 bb 97 01 b1 bd 37 2d 12 be 44 c8 7b 3d
       -0.007054121 -0.08642881 -0.1427506 0.061470285
000010 78 59 1c 3d e2 56 d2 bb b5 98 1e bd 60 98 c9 b9
       0.03817126 -0.0064190486 -0.03871985 -0.00038451236
000020 de 91 d5 bb 4d 53 8a bd 6a 88 b0 3c 26 8f bb bb
       -0.006517633 -0.067541696 0.021549422 -0.0057238517
000030 b4 83 93 bb e6 fc ec 3c 74 41 aa bb 0f 10 b2 3c
       -0.004501784 0.028929185 -0.005195791 0.021736173
000040 01 b9 19 3e 90 c6 91 bd 68 99 fe 3c 6e 46 29 3c
       0.1501198 -0.07117951 0.03107901 0.010331733
000050 92 7c 4c bd 13 74 7b 3c 0f 3f 28 bc 02 4c 3e bd
       -0.049923487 0.0153474985 -0.010268941 -0.046459205
000060 f8 dc 11 bd ea a2 fc 3c 47 d7 0e bd c7 ac f3 3c
       -0.035611123 0.030839402 -0.034873273 0.029745473
000070 83 fa 3c 3c da 90 e1 3c 38 f8 9c bd 29 13 29 bd
       0.011534336 0.02753489 -0.076645315 -0.04127804
000080 43 b4 76 3d f2 69 df bc ec ff 9f 3c 2e 66 6e 3d
       0.060230505 -0.027272198 0.019531213 0.058202915
000090 c2 f1 de bd bd 1d 13 be ce e2 a0 3c 0a 8b c3 3d
       -0.108859554 -0.14366813 0.019639399 0.09548004
0000a0 72 5b 7a bc dd 76 14 bd 7b ff 7c bd d7 9d 0e 3d
       -0.015280591 -0.03624617 -0.061767083 0.034818497
0000b0 63 d9 82 3c 39 dd d3 3c 24 f7 6c bc 5b cd 88 3c
       0.015972799 0.025862323 -0.01446322 0.016699484
0000c0 4d 6d bd bc e7 bf 8d 3d 24 e2 f6 bc 38 48 3a bc
       -0.023123408 0.06921368 -0.03013713 -0.011369757
0000d0 e9 b8 1a 39 fc 4b 9c bc 35 0f ae 3c 80 f5 cc bc
       0.00014755469 -0.0190792 0.021247486 -0.025019407
0000e0 b8 db df 3c 6d 08 eb 3c 70 5d 46 bc f7 17 4b bd
       0.02732645 0.028690541 -0.012107238 -0.0495834
0000f0 42 ca f5 3d cf 05 2f 3d c4 22 92 3c e9 f6 be bd
       0.12001468 0.04273015 0.017838843 -0.09324438
000100 40 cd 85 3c 15 70 44 3e d1 a4 af bb dd 0d 1e 3d
       0.016333222 0.19183381 -0.005360224 0.03858744
000110 f9 2c 83 bd 3e d6 64 bb 18 2c 36 be 03 c0 1d 3e
       -0.06405062 -0.0034917737 -0.17790258 0.15405278
000120 4b d8 04 be f2 10 67 bb 00 99 11 bd 9f a5 8e bc
       -0.12973134 -0.0035257903 -0.035546303 -0.017412959
000130 38 13 4f 3c e9 03 09 bc 55 ae 71 bc 3a 7e 02 3d
       0.012638859 -0.008362749 -0.014751037 0.03185866
000140 dd 1d 58 3a 58 1b 02 3d 85 2e e7 bc c7 2f 29 be
       0.0008244196 0.03176436 -0.028220424 -0.16522132
000150 a0 66 7a bb 69 e6 e5 bd dd b2 f7 bb 3a 94 e1 bc
       -0.0038208142 -0.11225588 -0.007559164 -0.0275365
000160 91 ff 6d 3c 4b 39 5a 3d ab 57 94 bc 87 79 e0 3c
       0.014526264 0.053277295 -0.01810821 0.027401699
000170 78 35 5e bb 76 c3 98 3c 38 04 17 bd f0 3d fb 3b
       -0.0033906382 0.01864789 -0.036869258 0.0076672956
000180 09 ee 0d bd 3c 1b 8b bc cc b6 31 3e b4 7c cf bc
       -0.034650836 -0.01698076 0.17354888 -0.025328018
000190 75 1c 82 3d ad 0c 52 3c a0 e0 58 bb 96 61 b5 bd
       0.06353084 0.012820405 -0.0033092871 -0.08856504
0001a0 59 92 23 3e 56 b2 0b 3e c8 68 d9 ba f3 65 f8 3c
       0.15973796 0.13642249 -0.0016587013 0.03032205
0001b0 46 f3 45 3d 26 a3 e3 3c 1a 0f 84 3d 02 a1 91 3c
       0.048327707 0.027787756 0.06448193 0.01777697
0001c0 59 13 d5 bb 1b a3 a6 bd 15 46 26 bc 8d c8 a1 bd
       -0.0065025506 -0.08136579 -0.010148545 -0.0789958
0001d0 a9 dc 96 3d a7 3b 20 bc a1 60 e6 3c 40 b9 05 3d
       0.07366306 -0.009779847 0.028122248 0.03264737
0001e0 dd 2e 7c 3c e4 68 73 3c 8f 02 46 3c 21 b2 05 bd
       0.015392032 0.014856551 0.012085571 -0.03264058
0001f0 4a 36 a7 3c 7c 13 5c bb 78 2a 11 3e b8 a9 2f bd
       0.02041163 -0.003358095 0.14176357 -0.042886466
000200 10 c6 38 bc 10 9f 0f be 6a 40 5f bc 0b d0 4e 3e
       -0.0112776905 -0.14025521 -0.013626197 0.2019655
000210 3e 82 3a bd 90 88 99 3d 71 11 27 3d 00 b4 94 3d
       -0.045534365 0.0749675 0.040788118 0.07260895
000220 51 87 43 be 96 5c 2b 3e 3d 5b 1e bd f8 22 82 bc
       -0.19094588 0.16734537 -0.03866123 -0.015885815
000230 57 8f 0b 3c 5b da 4f 3d eb 78 84 3c 3a 8d 70 3c
       0.008518062 0.05074535 0.01617094 0.014682109
000240 6b 58 2f bc 18 89 09 3d cb ba 43 bd 4b b4 a3 bd
       -0.010702233 0.03357801 -0.04778556 -0.079933725
000250 55 85 55 3e cc ea b6 3c 52 1c 87 3c 58 ea 63 bd
       0.20851643 0.022328757 0.016492996 -0.05564341
000260 da b8 23 3c 0d df 8c bb ee 51 0e bc cf 58 a0 bc
       0.0099928025 -0.0042990507 -0.008686526 -0.019573597
000270 9c 9e e2 ba b6 1c 0f 3b 77 7c 23 3d 7f 92 23 3d
       -0.0017289701 0.0021837181 0.03991362 0.03993463
000280 36 71 0c bc 1b ff 31 bd 7d 71 93 bd 00 51 85 bb
       -0.0085719135 -0.04345618 -0.071993805 -0.004068494
000290 88 7c 3d be 67 96 7a bc a1 66 ca 3c e6 89 9d bc
       -0.18504536 -0.015294648 0.02470714 -0.019230794
0002a0 8d 79 45 bd 0f 6b 67 3d 1c 73 24 3e 72 48 82 be
       -0.048211623 0.056498583 0.16059536 -0.25445896
0002b0 90 9f 08 be 86 3a 49 bd c6 17 83 bd 21 8b 9b 3b
       -0.13342118 -0.049128078 -0.06401019 0.00474681
0002c0 d9 12 a7 bc b9 28 e3 bc 65 45 0f bd 03 3b 64 3d
       -0.02039473 -0.027729379 -0.03497829 0.05572034
0002d0 7f 34 51 ba 17 1e 1c bc f0 d7 39 3d fa 2a 14 3e
       -0.000798054 -0.009528658 0.04537195 0.1446952
0002e0 37 60 34 3d b0 fe fe bb 16 79 6b bd 8c 39 79 3d
       0.04403707 -0.007781826 -0.057488523 0.060845897
0002f0 61 be 69 3d 70 22 34 bb bd 1f 2f 3d 2d 39 8c 3c
       0.057066325 -0.0027486347 0.042754877 0.017117107
000300 01 c1 ee bc c7 6f 8c 3a 3c e4 d8 bc 12 cb 97 3d
       -0.029144766 0.0010714465 -0.026476018 0.074117795
000310 00 d4 23 bd 04 0b 0b 3c 24 96 28 bd 72 7c 2d 3d
       -0.0399971 0.008486513 -0.04115881 0.04235501
000320 1d 72 94 3c 3f 0d dd 3d 85 75 af bd c7 50 8d be
       0.01812082 0.10793542 -0.08567337 -0.2760069
000330 82 1b 61 be 48 29 5b bb c9 81 ac 3c 6c d2 01 3d
       -0.2198315 -0.0033441354 0.02105798 0.031694815
000340 64 41 4a 3c 5e 97 25 3d 17 dc c2 bc 72 93 86 bd
       0.012344692 0.040427558 -0.023786588 -0.06571092
000350 0a 64 a8 3c c8 a9 bd 3c 4b d1 02 3d 50 fa 91 3d
       0.020555515 0.023152247 0.03193788 0.071278214
000360 bb f2 1d be 7d 73 a4 bd 8b b4 3a 3c 17 00 d4 bc
       -0.15424626 -0.0802984 0.011395584 -0.02587895
000370 e8 25 a7 bc 24 a2 4e bd b7 f7 24 bc 8b 99 86 bb
       -0.020403817 -0.050447598 -0.010068825 -0.004107659
000380 e6 2a 3d 3d 8f 4d 82 3d c0 9b 19 3c a0 2a a6 ba
       0.04618349 0.063624494 0.009375513 -0.0012677498
000390 e6 ac 08 be 71 f4 1d bd cc fe f6 bd 15 16 f4 3c
       -0.13347206 -0.038563196 -0.120603174 0.029795686
0003a0 82 8e 8a ba ce df 99 3d d8 a9 53 3d d9 c3 47 bd
       -0.0010571035 0.075133905 0.051675647 -0.04877076
0003b0 2a 30 5e bd 29 54 e7 bd 89 a6 01 3c 81 3b a6 3d
       -0.05424515 -0.11295349 0.00791324 0.08116818
0003c0 02 0d b1 bc 4e d5 c5 bc 4b 47 ce bc bc dd 28 bb
       -0.021612648 -0.024149563 -0.02518048 -0.002576693
0003d0 0d 87 46 bd fd ec d6 3c 7a 9b bd bc 85 87 4e be
       -0.04846864 0.026236052 -0.023145426 -0.20168884
0003e0 14 39 2f 3e a5 b0 43 be b5 73 50 3b 2b d0 a6 bc
       0.17111617 -0.19110353 0.0031807248 -0.020362934
0003f0 14 dc 66 bb c8 a6 0c bd 56 38 db ba ff 84 8f 3c
       -0.0035226392 -0.034338742 -0.0016725163 0.017519472

fc1.bias f4 [512]
000000 10 bc f9 bd 2c b4 84 be 98 84 43 be 27 26 0c be
       -0.12194073 -0.2591871 -0.19093549 -0.13686429
000010 9d cd 12 be 1b 13 c5 bd 5e 36 8d 3d 47 2f 4e be
       -0.14336248 -0.09622785 0.06895135 -0.20135222
000020 67 1d b3 bd 9a f5 b6 3c e8 40 f6 bd 01 a9 7c 3b
       -0.087458424 0.022333909 -0.12024099 0.0038552883
000030 59 6a 24 be 08 45 53 bd a4 ff 94 bd c3 8a f0 bd
       -0.16056193 -0.051579505 -0.07275322 -0.11745217
000040 e6 6e 2a be 8c 50 07 bd 2b 1d 08 be 32 90 32 3e
       -0.16643867 -0.0330358 -0.13292377 0.17437819
000050 82 08 85 bd f6 20 5d 3d fd a9 0e be 54 8b e4 bd
       -0.06495763 0.053986512 -0.13932033 -0.11159387
000060 a6 26 5b ba 81 25 7c 3d ab 85 59 3d 19 66 34 3d
       -0.0008359946 0.061559204 0.05310599 0.04404268
000070 ba f5 fb bd 47 a6 aa bd e1 26 50 3d 48 40 67 bc
       -0.12302728 -0.08332496 0.050818328 -0.014114447
000080 70 87 4a 3d 97 75 de bc d4 4d 00 be 0f 6f a5 3d
       0.04944557 -0.02715568 -0.12529689 0.08077823
000090 9f 6b 46 bd c2 d1 59 be ea d4 ff 3d e7 10 c5 bd
       -0.04844248 -0.21271423 0.12491782 -0.096223645
0000a0 a2 07 de 3d d8 36 5b 3d 2e f5 ca bd 59 3c 05 be
       0.108412996 0.0535191 -0.099100456 -0.13011302
0000b0 60 56 7c be b4 07 8d bd b3 96 64 3d 48 d6 ee bd
       -0.24642324 -0.06886235 0.05580778 -0.11661965
0000c0 44 1f 49 bd 0f 2b fe bd 7c 29 da bc 47 41 82 bd
       -0.049102083 -0.124105565 -0.02663111 -0.06360107
0000d0 1d 04 41 ba bc 38 35 be 0c e9 bf bd d5 96 0f bd
       -0.00073629786 -0.17697424 -0.09370622 -0.035055954
0000e0 33 f2 40 bc fc 72 90 be 78 8d 01 3d f3 2e 71 be
       -0.011776495 -0.28212726 0.031629056 -0.23553066
0000f0 09 6c 66 be 8c 9e 3e be d0 fb 45 be 58 e8 23 bc
       -0.2250215 -0.18615168 -0.1933434 -0.010004126
000100 7e ab 64 bd 22 06 da 3b 7f f1 05 bc bb 04 c0 bd
       -0.05582761 0.006653563 -0.008175253 -0.09375902
000110 a0 6c 0d 3d 7e 7f 12 bb 52 4d 5b be 78 46 04 bd
       0.03452742 -0.0022353823 -0.21416214 -0.032293767
000120 1d 3e 48 bc 4d 53 85 3d df 36 81 3d 99 9b 2c be
       -0.01222184 0.06510029 0.06309294 -0.16856231
000130 e2 40 4b bc 76 02 27 bd 4c b6 12 3e 4e a7 d1 bd
       -0.012405606 -0.04077383 0.14327353 -0.10236989
000140 6c b5 9d 3d d6 bf cb bd 8d 7a 31 be 8c 56 93 bd
       0.07700619 -0.09948699 -0.17331906 -0.07194242
000150 5e 3f 0c 3d ff 5f 41 be 65 34 a3 bc 13 63 f2 bd
       0.03424012 -0.18884276 -0.019922445 -0.11835303
000160 89 2c 64 bd 62 39 e4 3d ac cc 45 be 4e 74 d1 bd
       -0.055706535 0.111437574 -0.19316357 -0.102272615
000170 0e 56 bf 3c 32 4b 7e 3a 05 fd 24 bd 9e 2b d2 bd
       0.023356464 0.0009700536 -0.04028036 -0.102622256
000180 98 96 78 bd 47 cd bd 3c 8b 72 b8 3d ff 59 e9 bc
       -0.060690492 0.023169173 0.09006222 -0.028485296
000190 54 71 48 bd 67 63 6f bd 80 e3 b9 3c 9f bb 9a bd
       -0.048936203 -0.058444407 0.022691488 -0.07555317
0001a0 de 4b f9 bd 48 66 2b be e6 77 af ba 67 91 40 bc
       -0.12172674 -0.16738236 -0.0013387173 -0.011753417
0001b0 28 3b f8 bd 7a df 0f be f1 40 ce 3d a1 7c 93 bd
       -0.12120658 -0.14050093 0.1007098 -0.072015055
0001c0 0e 54 90 3c 80 32 00 3d 88 70 91 bd e8 ce ef bd
       0.017618205 0.03129816 -0.07101542 -0.11709386
0001d0 48 29 81 bd a3 8b 53 3d 58 0d 60 be 29 be 11 be
       -0.06306702 0.05164684 -0.2188009 -0.14232697
0001e0 37 f3 13 be 95 87 a4 3b bb e0 43 be a4 20 21 be
       -0.14448248 0.0050210455 -0.19128697 -0.15735108
0001f0 88 66 0c be 2d ad 9c 3d ba 7a 94 3d 81 b0 7a 3d
       -0.13710988 0.07650218 0.07249971 0.061203483
000200 1c 90 89 bd 36 0a 0b 3c b9 6c dd bd bb 19 07 bd
       -0.0671694 0.008486321 -0.10811753 -0.032983523
000210 70 b5 c7 bd 0f a7 fe bd 7d 84 87 bd 19 bd 6b 3d
       -0.09751403 -0.12434208 -0.06617067 0.057553384
000220 e7 27 dd bc ae 29 ba 3d 08 b5 d1 bc 20 bc 64 bd
       -0.026996566 0.09089981 -0.025599018 -0.055843472
000230 80 3a 85 3d 45 94 10 be 01 08 00 bd 21 62 7e be
       0.065052986 -0.1411906 -0.031257633 -0.2484212
000240 39 bb b8 bc fa 24 bc bd a6 6a 37 be 2a 6e 22 be
       -0.022550212 -0.0918674 -0.17911777 -0.15862337
000250 71 24 dc bd 56 e8 b8 bd 9d 57 16 be 78 78 43 be
       -0.10749138 -0.090286896 -0.1468186 -0.19088924
000260 f3 29 b6 3d 49 33 df 3d c6 ed 9c bd 5a 37 52 3d
       0.0889472 0.10898454 -0.07662539 0.05132232
000270 6a d6 7d bd a0 29 37 be 84 46 0c bd a1 35 23 3d
       -0.06197206 -0.17886972 -0.034246936 0.039846066
000280 d2 2b 1a bd 8d b8 22 be 06 eb 25 be 8b 0f 04 3c
       -0.037639447 -0.15890713 -0.16202936 0.008060346
000290 70 cb 2b be 8b a2 fd bd de bf 62 be 4d 6f 27 3d
       -0.16776824 -0.12384518 -0.22143504 0.04087763
0002a0 a6 0e b3 3c 28 3e 25 be 26 21 32 be 96 0a 21 bd
       0.02185757 -0.16136992 -0.17395458 -0.039316736
0002b0 1e 16 f8 3b b4 65 57 3d 00 1c c2 bd d8 d5 33 be
       0.007570996 0.052587226 -0.09477997 -0.17562044
0002c0 38 69 4e be f8 dc 73 bd 79 e1 07 3e 8f 2e 37 be
       -0.20157325 -0.059536904 0.13269605 -0.17888854
0002d0 1a ad f4 bd e3 dd 5b 3d 2f 05 c7 3d 86 df 45 be
       -0.11947079 0.053678405 0.097177856 -0.19323549
0002e0 9a 42 01 be ac 97 ef 3c 28 9d 0c bd b4 4e 18 3a
       -0.12623063 0.029247127 -0.034329563 0.00058100675
0002f0 18 e2 56 be 57 ec a0 bd fd da d2 bd b7 74 12 bd
       -0.20984685 -0.07857578 -0.10295675 -0.03575584
000300 a5 8b ef bd 81 38 f7 3c 4c 75 b5 bd 49 44 2f be
       -0.11696557 0.03017831 -0.08860263 -0.17115892
000310 33 e2 41 be 04 f4 a8 3d 6f 38 e0 bd a1 66 fd bd
       -0.18933944 0.08249667 -0.10948264 -0.123730905
000320 15 0c 48 bd 08 e2 88 3c bc 15 56 be b8 02 59 bc
       -0.048839647 0.016709343 -0.20906729 -0.013245277
000330 b7 01 08 3c bf a0 43 3d f7 83 8d bd 87 d8 13 be
       0.00830119 0.04776072 -0.06909936 -0.14438067
000340 08 37 b0 bd 23 23 85 3d 0e 16 0a be 56 42 2b be
       -0.086042464 0.065008424 -0.13484976 -0.16724524
000350 72 71 55 bd 47 e3 23 bc 1a c0 1c be 3a 64 01 be
       -0.052110143 -0.010002918 -0.15307656 -0.1263589
000360 37 2b 00 bc db 78 19 be e3 94 6e be 6b 5e 07 be
       -0.007822803 -0.14987509 -0.23298983 -0.13219611
000370 81 5c a8 bd d5 3d 6e bc 07 4a 8a be 34 5d 43 bc
       -0.08220769 -0.014541109 -0.27009603 -0.011924077
000380 39 8b 56 bd a9 78 87 bc 0e a3 e8 bd 9d 45 9b 3d
       -0.052378867 -0.016537027 -0.11359225 0.07581637
000390 2b 72 9f bd ac 8c ad bb 9d bb 81 be 62 78 3c bc
       -0.07785448 -0.0052963104 -0.2533845 -0.011503311
0003a0 63 2c ca bd 70 bb 83 3d eb 8d 0a be 2b 38 0e 3d
       -0.09871747 0.06432235 -0.135307 0.034721535
0003b0 0b ec 59 be fa 99 23 bd 42 d3 3d bd 8e 0c 4d be
       -0.2128145 -0.039941765 -0.04634405 -0.2002432
0003c0 f4 c2 44 bc 2a 12 39 be 59 c0 95 3b 76 16 04 3e
       -0.012009371 -0.18073335 0.004570049 0.12899193
0003d0 27 c7 88 bd 06 cb cc bd 2f eb 50 bc 34 1b 70 3c
       -0.0667861 -0.09999661 -0.012751385 0.014654923
0003e0 c6 e3 20 bd f7 e5 12 3c eb 8e 45 be b4 de c6 bd
       -0.03927972 0.008965961 -0.192928 -0.09710446
0003f0 c1 ae c1 bd ab 98 d8 bd 21 20 24 be 54 1d 47 be
       -0.0945716 -0.10575994 -0.16027881 -0.19444782

fc2.weight f4 [256, 512]
000000 e1 55 83 bc 12 f2 59 bd 47 7b f7 bc a4 3e f0 3d
       -0.016032161 -0.053209372 -0.03021015 0.11730698
000010 8c 4b c6 bc da 47 81 3d e5 0d 45 bd 8d 4a d4 bb
       -0.024205945 0.06312533 -0.048108954 -0.0064786137
000020 b8 4a 9b 3d 75 3e 57 3d e4 9d ad bc 21 f1 a1 3d
       0.07582611 0.052549798 -0.021193452 0.0790732
000030 0d 6b 24 bd d5 41 e6 3b e2 ec 78 3d b1 0d e1 3d
       -0.040141154 0.0070268908 0.060772784 0.109889396
000040 32 0f 79 bd 0e 09 e2 bc 15 7a 01 bd 47 10 e2 3b
       -0.060805507 -0.027592208 -0.031610567 0.006898913
000050 4c 26 87 3c a0 92 a2 bc 16 36 94 3d bb ea 7b 3c
       0.016497754 -0.019845307 0.072368786 0.015375788
000060 be a0 a8 3d ed 1e 35 3d 66 5a 51 bc 4f 66 61 bc
       0.08233784 0.044218946 -0.0127779 -0.013757302
000070 4d 3d 8b bd bd 46 a1 3d f5 fe f7 3b 37 c1 93 bc
       -0.067988016 0.078748204 0.007568235 -0.018036468
000080 5f 58 c5 bc 88 0e 5b 3d fc ec 19 bd 26 68 63 bd
       -0.02408999 0.053480655 -0.03757952 -0.055519246
000090 19 1b 35 3e f3 10 c7 bd 83 ea a8 3c 7d 48 dc bd
       0.17686118 -0.0972003 0.020619636 -0.107560135
0000a0 93 de 8f bd 52 95 85 3c 9e 3a 54 3d 7f 89 e1 3d
       -0.070248745 0.016306553 0.051813714 0.110125534
0000b0 a6 4b 8c 3d c8 74 b8 bc 19 02 0c bd bb 8c 9a bc
       0.06850366 -0.022516623 -0.034181688 -0.018865934
0000c0 2a 1a 18 3d 52 8b aa bd 92 86 86 bb 45 18 c5 3c
       0.037134327 -0.083273545 -0.0041053975 0.024059424
0000d0 d3 8c 8a 3d c2 dc 55 3b a9 3e 45 bd 5c b7 05 bc
       0.06765141 0.0032632803 -0.04815546 -0.008161392
0000e0 b0 99 5a be d0 5d bf 3c 8a c2 85 bd c1 f6 93 3d
       -0.2134769 0.023360163 -0.06531246 0.07224799
0000f0 6b be 3d bc 91 02 6d 3c 73 e3 93 3d 49 9f 9e bc
       -0.011581044 0.014465944 0.07221117 -0.019363062
000100 07 01 37 bc da 65 c7 bc 53 d4 c7 bc 73 aa 42 bd
       -0.0111696785 -0.024340559 -0.024393236 -0.047525834
000110 ae eb fb 3c e2 26 04 3d c5 b1 b1 bd ec f0 4b bd
       0.03075203 0.032263644 -0.08676485 -0.049790308
000120 fc 77 14 bd 4b b2 0b 3d 4d 1b a3 bb cb a3 45 bd
       -0.03624724 0.03410558 -0.0049776197 -0.04825191
000130 a6 63 21 bd 72 28 45 bc 15 e0 a6 3b 91 87 1e 3d
       -0.039401673 -0.012033569 0.0050926306 0.038703505
000140 0f 19 4c 3d cd 6b 6e bb 93 d3 e6 3b 03 48 b5 3c
       0.049828585 -0.0036380172 0.0070442646 0.022129064
000150 0c 79 00 bd 67 23 94 3c 29 13 6d 3d 3d 45 a0 bb
       -0.03136544 0.018083287 0.0578796 -0.0048910663
000160 41 f0 b7 bd 26 8e bb 3c 31 1c 07 be 86 21 fb bd
       -0.08981372 0.02289493 -0.13194348 -0.122622535
000170 8e 37 e2 b9 97 b3 ee 3c 54 f2 37 bc ae 4d 3e 3d
       -0.0004314747 0.02913837 -0.011227209 0.0464608
000180 09 7c 2d bd 9e 2d a6 3c b0 ea aa bd 7c c3 fb bc
       -0.042354617 0.020285424 -0.08345544 -0.030732863
000190 c2 5f 38 bd 3d 55 cc bb 5f aa dd 3c a1 f9 d1 ba
       -0.045013197 -0.006235747 0.027058778 -0.001601983
0001a0 15 c9 f7 3c bc ab 04 bc ae 52 3f 3c 90 c0 33 bd
       0.03024725 -0.008097585 0.011677427 -0.043884814
0001b0 b8 4c 35 bc 9c 71 ea 3c d7 11 37 bd 99 5d 7b 3d
       -0.011065654 0.028618626 -0.044694748 0.06136856
0001c0 ae bf 22 3d 67 ca 18 3c 7f dd a6 bd dc d9 06 bd
       0.03973358 0.0093256 -0.08147716 -0.03292261
0001d0 69 a2 63 bd f1 1d 7c 3c 78 3b 0e bc f9 f6 12 3d
       -0.05557481 0.015387998 -0.008681171 0.035880063
0001e0 6e 20 66 bd dd a6 1c 3d ec a2 1a 3d 90 c8 83 bd
       -0.05618327 0.03824507 0.03775303 -0.06434739
0001f0 5f 03 21 3d e2 5d 12 3d 7c 26 83 bd 47 c4 53 3d
       0.039309856 0.035734065 -0.06403825 0.051700857
000200 f1 c6 45 3d 78 ca 01 3d 6e 19 15 be 9a ee 79 bd
       0.04828543 0.03168723 -0.14560482 -0.061018564
000210 60 50 63 3c 2f cf fa 3c be 8f 3d bc ab ad bc 3c
       0.013874143 0.030616371 -0.011569915 0.02303203
000220 38 f1 c8 bc e4 2f 07 be a6 c0 79 ba a3 08 24 3d
       -0.024529085 -0.13201863 -0.0009527303 0.0400473
000230 e5 80 65 3d 7f a1 14 bc 6b 45 0b 3d 7e 9b 03 bd
       0.056031127 -0.009071707 0.03400175 -0.03213071
000240 1e 10 2d 3e 2e 3d fb 3c 0f 41 22 3c 66 4a cb bc
       0.1690068 0.030668821 0.0099032065 -0.02481575
000250 f5 bf c1 bc fd dc 3d bd d5 da 57 bd 5c 66 8d 3d
       -0.023651103 -0.04635333 -0.05269893 0.06904289
000260 76 c3 8b 3c d6 cd 2d 3d fa 00 04 3d 44 1b 8a 3d
       0.017060976 0.04243263 0.032227494 0.06743482
000270 17 92 6a 3d aa 65 07 3d 93 c2 a6 3b e0 5c 7d 3d
       0.05726823 0.03305594 0.005089113 0.06185615
000280 f2 9e a5 3d 35 84 98 3c 0c 31 3b 3d 9b cc 75 3d
       0.08086957 0.018617729 0.04570107 0.06000958
000290 8c 86 3f bc 92 af 81 3d 6f f4 79 bd c9 c7 b4 3b
       -0.011689793 0.063323155 -0.061024126 0.0055169803
0002a0 74 17 3b 3c db 7d ce bd a0 6b 23 bd d2 e7 97 bd
       0.011419166 -0.10082599 -0.03989756 -0.07417263
0002b0 37 6b 13 3d c0 bd dc bb 39 a2 5f bd ae 29 8c bd
       0.03599092 -0.006736487 -0.054598067 -0.06843887
0002c0 3f 1e f4 bd 24 86 30 3c 23 19 48 3c 6a 22 2f bd
       -0.119198315 0.010774169 0.012213024 -0.04275743
0002d0 7c 72 97 bd 97 0e 52 bd 62 9d 90 bc 2c bc 43 bb
       -0.07394883 -0.051283445 -0.017653171 -0.0029866798
0002e0 3f 2d b9 3b 81 15 b6 3d f9 7e ec 3d c8 47 e0 3c
       0.0056511457 0.0889082 0.115476556 0.027377978
0002f0 cc 46 bf 3d 71 65 a3 bd 68 2d 1f 3d 70 c4 94 3c
       0.09339675 -0.07978333 0.038861662 0.018160075
000300 dc ea 74 bd ce 6e fc 3d a7 c0 29 3d 60 66 99 bc
       -0.05979429 0.12325822 0.041443493 -0.018725574
000310 69 39 9d bd cf 8e a9 bd 7e f3 46 bd 95 a3 5d 3d
       -0.07676966 -0.08279192 -0.048572056 0.054111082
000320 a1 2f f2 3c 9d ef c0 3c 6f 04 a1 3d 09 35 33 bd
       0.029563727 0.023551757 0.07862174 -0.04375175
000330 f2 0a 41 3c 72 f7 96 3d 1b 12 ea bb 12 02 79 3d
       0.011782395 0.07371415 -0.0071432716 0.06079299
000340 2b f6 ba 3d 5f 7e ea bc 00 7f 04 3d db d4 a7 3c
       0.09128984 -0.028624712 0.03234768 0.02048724
000350 c8 00 28 bd b2 cb 1f bd 00 a0 9a 3b 4b b6 18 bb
       -0.04101637 -0.03901262 0.0047187805 -0.0023302014
000360 d4 33 03 bd 3c 2b 05 be 5c fb e2 3c af df d9 bc
       -0.03203185 -0.13004774 0.027707748 -0.026595918
000370 41 e6 c0 3d 81 df fc ba c5 d9 b4 3d 97 2c 54 3b
       0.094189174 -0.0019292684 0.08830599 0.003237521
000380 8e f2 24 be f0 09 58 3d f4 47 b8 3b 9b 38 83 3c
       -0.16108152 0.052743852 0.005623812 0.016018203
000390 cb 55 8f 3c e4 7f 02 bc 48 31 9f bd 07 cf 00 3e
       0.017496964 -0.007965062 -0.077730715 0.12578975
0003a0 a4 e6 a5 3c cf 46 69 3c 99 cf 9b 3d 26 c1 89 3d
       0.02025158 0.0142380735 0.076079555 0.06726293
0003b0 19 23 f8 bd f3 e0 cd bd c2 a4 e5 bc f9 04 d0 bd
       -0.12116069 -0.10052671 -0.028032664 -0.101571985
0003c0 f1 c5 bf 3b 05 e8 7b 3c 8a 88 72 3d 0b 91 be 3d
       0.005852454 0.015375142 0.059212245 0.093050085
0003d0 bf 44 f0 3c 50 1a 26 3b 7d 27 d5 3c eb b9 aa bd
       0.029329656 0.0025345273 0.026019806 -0.08336242
0003e0 cd f6 94 bc 04 dc 05 bd aa 93 7b bd d5 5a de 3c
       -0.01818409 -0.032680526 -0.06142012 0.027142921
0003f0 94 9e 51 3c 30 90 20 3d 19 28 92 3d cd bd da bc
       0.012794156 0.039200008 0.07136554 -0.026701832

fc2.bias f4 [256]
000000 56 97 15 be 43 60 35 bd 56 cf d9 bd df 79 4a bc
       -0.14608511 -0.044281255 -0.10635249 -0.012358158
000010 2a 32 aa bd 88 a3 7a bd 7b 29 40 bd 62 fe 6a bd
       -0.08310349 -0.06119111 -0.04691456 -0.057371505
000020 b9 92 0b be d8 b6 4d bd fc 40 6d bd 3c 92 6d bd
       -0.13630189 -0.0502232 -0.057923302 -0.058000788
000030 ea a8 a1 bc 6d 08 d2 bd 5b b3 0e bb 42 af 00 bd
       -0.019733865 -0.10255513 -0.0021774385 -0.03141714
000040 a7 5a 16 bd cb 33 aa bd 46 c5 e8 bc 9d a6 cd bd
       -0.036707547 -0.0831066 -0.02841438 -0.100415446
000050 8f 9e b9 bd e8 74 86 bd 76 d3 de bd 1d 71 b4 bd
       -0.09063446 -0.06565267 -0.10880177 -0.08810637
000060 29 5a 91 bd 6f 57 85 bd 6d 8c c8 bd 05 b2 01 be
       -0.07097275 -0.06510817 -0.09792409 -0.12665565
000070 7f 54 8a bd 37 0b c2 bd 35 b0 21 bd 2b cf 76 bd
       -0.067543976 -0.09474795 -0.039474685 -0.060256165
000080 d6 0d 80 bd a9 85 80 bd f7 45 84 bd 2f db ec bd
       -0.06252639 -0.06275494 -0.06458657 -0.115652435
000090 d2 d4 eb bd a5 c6 09 be f7 68 e0 bd 90 92 1e bd
       -0.11515202 -0.13454683 -0.109575205 -0.03871399
0000a0 a2 c3 61 bd e5 cd 9b bd c5 37 a0 bd bd 61 85 bd
       -0.05511821 -0.07607631 -0.07823137 -0.06512783
0000b0 4e 35 f0 bd 74 36 b6 bc 81 dd b3 bd 0d 7e 7e bd
       -0.11728917 -0.022242762 -0.08782483 -0.06213193
0000c0 e0 ab 4f 3c 18 2c 55 bc 4a 1d 5f bd e0 99 28 bd
       0.012675256 -0.013011001 -0.05447129 -0.04116237
0000d0 62 fb 64 bd 05 a8 8e bd f0 fe eb bd a1 16 cb bd
       -0.0559038 -0.06965641 -0.11523235 -0.099164255
0000e0 86 69 ab bd ef 7b c1 bd 54 30 07 bd 3a 31 6a bd
       -0.083697364 -0.094474666 -0.033005074 -0.057175852
0000f0 2a 0a 00 be db ed 9c bd e7 7e d3 bb 36 1e 0b bd
       -0.12503877 -0.07662555 -0.006454337 -0.03396436
000100 8a 8d 61 bd bf 79 f7 bd 45 26 51 bd 32 42 a6 bd
       -0.055066623 -0.12083768 -0.051061887 -0.081180945
000110 cd 08 97 bd 73 1f 01 be 31 0e ce bd 0a 8e 1d bd
       -0.073747255 -0.12609653 -0.100613005 -0.038465537
000120 72 76 f0 bc 4f 3f 85 bd d5 c6 a9 bc 09 ab b0 bd
       -0.029353354 -0.06506216 -0.020724693 -0.08626372
000130 3e 0b 1a bd 38 2d 89 bd f9 f7 2e bd af 17 01 be
       -0.037608378 -0.06698078 -0.042716954 -0.12606691
000140 43 61 63 bd f5 24 09 bd 35 6f aa bd a2 de 2b be
       -0.055512678 -0.03348251 -0.08321992 -0.16784146
000150 54 41 3f be 11 ff 36 bd fa 80 4b bd 51 c7 41 bd
       -0.18677264 -0.044676844 -0.04968355 -0.047309224
000160 9d 15 af bd 63 4b 93 bc 17 f6 a6 bc 03 76 67 bd
       -0.08549044 -0.017980283 -0.020381017 -0.05650903
000170 11 39 df bd 29 d5 6a bd 6a e7 a6 bc a4 dc 85 bd
       -0.108995564 -0.05733219 -0.020374019 -0.065362245
000180 50 71 a6 bd 1a 86 b1 bd 75 b8 f3 bd 0d dc 1a be
       -0.081270814 -0.08668156 -0.11900417 -0.15123005
000190 66 04 11 be 49 20 a7 bd 1c b0 ed bd a7 75 8b bd
       -0.14161834 -0.08160455 -0.11605856 -0.0680955
0001a0 4a d8 97 bc c7 4b fc bc 10 a0 38 bd 9c fe ee bd
       -0.018535752 -0.030797852 -0.045074522 -0.11669657
0001b0 34 8d 94 bd 90 0b be bd e1 c9 d2 bd 2f 3f 1a bd
       -0.07253495 -0.09279549 -0.102924116 -0.037657913
0001c0 16 ec 83 bd c9 6d 9c bd 5b 5f e2 bd b0 22 e5 bb
       -0.06441514 -0.07638127 -0.11053344 -0.0069926605
0001d0 fe 06 8c bd a6 75 95 bd d7 d3 b9 bd f0 1e b1 bc
       -0.06837271 -0.0729783 -0.09073608 -0.021621197
0001e0 f4 aa 81 bd 8c 03 91 bd e4 75 16 be 32 8b a1 bd
       -0.06331435 -0.07080755 -0.14693409 -0.078878775
0001f0 9e 4e 8e bd 92 5c ae bd f6 ba e3 bc f9 8f 95 bd
       -0.06948589 -0.0851375 -0.02779911 -0.07302851
000200 66 e9 c1 bd 6e 0b 29 bb 9c ca 7a bd b1 eb 2e bd
       -0.09468345 -0.0025794166 -0.06122838 -0.04270524
000210 c0 1b 99 bd 0c ec f7 b8 90 e7 9e bd 89 92 ba bd
       -0.07475996 -0.00011821845 -0.07759011 -0.091099806
000220 8a 1b 16 be f8 59 25 bd 1f 05 d6 bd 9c fd c8 bb
       -0.14658943 -0.040369004 -0.104501955 -0.006133748
000230 ea 94 0d bd 5e 22 09 3d 90 7f bb bd 35 f2 83 bd
       -0.034565844 0.03348004 -0.0915519 -0.06442682
000240 32 fe b9 bd 41 c2 1d bd 15 f9 dd bd 42 c8 6e bd
       -0.09081687 -0.038515333 -0.10838524 -0.05829645
000250 11 bf 91 bd 2a d6 a7 bd de 83 a7 bd b4 b5 54 bd
       -0.07116521 -0.081951454 -0.081794485 -0.051931098
000260 51 f1 0e bd 84 30 4e bd a3 d3 03 bc fc 9f cb bd
       -0.034898106 -0.050339237 -0.008046064 -0.09942624
000270 c2 c6 85 bd 48 f7 76 bd 52 bc be bd 6b 83 08 be
       -0.06532051 -0.06029442 -0.09313263 -0.13331382
000280 6e 15 dd bd d1 fe 08 bd 93 78 57 bd 9b 6b f2 bd
       -0.10795103 -0.033446137 -0.052605223 -0.1183693
000290 8a ba e2 bd 7e 2d ed bd 3c fb d4 bd ed b3 da bd
       -0.11070736 -0.115809426 -0.10399482 -0.10678849
0002a0 7f 88 89 bd 10 65 59 bd 2f 51 62 bd 96 62 85 bd
       -0.06715488 -0.053074896 -0.055253204 -0.065129444
0002b0 93 1f 84 bd 69 4f 93 bd 6c 2c bd bd b8 25 94 bd
       -0.06451335 -0.07192881 -0.092369884 -0.07233757
0002c0 ac 14 af bd da 83 34 bc d8 5f b6 bd 41 fb 99 bd
       -0.08548865 -0.011017764 -0.089049995 -0.07518626
0002d0 ee f9 8e bc 2d 1c 15 be 84 09 61 bd 4c d1 d9 bd
       -0.01745316 -0.1456153 -0.054940715 -0.10635623
0002e0 81 c7 e8 bd 58 a1 a9 bd eb a4 8c bd c3 e6 2e bd
       -0.11366177 -0.08282727 -0.06867393 -0.04270054
0002f0 11 4d eb bc 64 fc 78 bd e2 fc 49 bd 76 c0 93 bc
       -0.028723272 -0.060787573 -0.049313433 -0.018036108
000300 5c 32 44 bd 71 ee 56 bd f9 22 a2 bd 92 86 5b bd
       -0.04789959 -0.05247349 -0.07916827 -0.053595133
000310 a2 f3 d9 bc 45 ff b5 bd 8c 4c b7 bd dd ea 32 bd
       -0.026605431 -0.088865794 -0.08950147 -0.043681014
000320 7b e3 a9 bd a5 4d c8 bd e2 71 83 bc fb b3 cc bd
       -0.082953416 -0.097804345 -0.016045514 -0.09995266
000330 36 ad 6d bd d3 4c d1 bd cf e0 ed bd 3c 76 94 bd
       -0.058026515 -0.10219731 -0.116151445 -0.07249114
000340 83 85 5a bd 40 3e 42 bd 9d bf 9a bd e2 5f ae 3b
       -0.053349983 -0.047422647 -0.075560786 0.0053214887
000350 cb 4d b8 bd 33 4b e9 bc ab da dd 3c 67 8b eb bd
       -0.08999213 -0.02847824 0.027081808 -0.11501198
000360 fb d7 bc bd cf 9a a8 bd 22 e4 c7 bd ac 91 9d bd
       -0.092208825 -0.082326524 -0.0976031 -0.076938
000370 5c 52 04 bd b9 ec 3d bd 82 57 ce bd 94 7c d4 bd
       -0.032305107 -0.046368334 -0.100752845 -0.10375324
000380 7c ce a2 bd ae 3a ab bc 5d 36 bf bd 58 db 46 bc
       -0.0794954 -0.020902004 -0.09336541 -0.012137257
000390 28 fc 9d bd c2 7a e3 bd 04 64 6f ba 25 e7 4a bd
       -0.077141106 -0.111073986 -0.000913203 -0.049536843
0003a0 27 92 b6 bd 61 e9 9d bd 7d 74 7b bd f9 e0 e6 bd
       -0.08914595 -0.07710529 -0.06139039 -0.11273379
0003b0 b9 f9 b5 bd 89 43 07 3d e7 ee d4 bd 2d b1 bf bd
       -0.088855214 0.03302339 -0.103971295 -0.093599655
0003c0 c6 02 81 bd 35 46 6f bc 6c 15 c5 bd 0f 00 89 bd
       -0.06299357 -0.014604141 -0.096232265 -0.06689464
0003d0 f6 5f a8 bd 57 cd fd bd 8f c7 c1 bc bc 44 89 bd
       -0.08221428 -0.12392681 -0.023654727 -0.06702563
0003e0 4c 8b 6d bd e5 60 97 bd 13 ab f0 ba 64 07 1a bd
       -0.057994172 -0.07391528 -0.0018361531 -0.037604704
0003f0 f6 00 e7 bb 2d 89 c8 b8 31 06 ab bd d7 89 fa bc
       -0.007049675 -9.562294e-05 -0.0835079 -0.030583305

fc3.weight f4 [4, 256]
000000 7b a6 d3 3d c3 4e 7b be 1e 48 ac 3e 15 e6 85 be
       0.10334488 -0.24541764 0.3364877 -0.261521
000010 83 2c 4e 3e 38 9a 7c be fd d4 ee bd 46 bf eb 3e
       0.20134167 -0.24668205 -0.11661718 0.46044368
000020 94 86 52 3e 1b b2 b9 be d9 6c eb 3c 05 c8 f6 be
       0.2055915 -0.36268696 0.028738426 -0.48199478
000030 5f 9d 38 3d 30 a6 3f bd 26 50 82 3e 45 0e 07 bf
       0.045071956 -0.046789348 0.25451773 -0.5275615
000040 9e bd 2e bd 77 5f 0e 3e b5 4f 00 be 31 3f f8 3d
       -0.0426613 0.13903604 -0.12530406 0.12121428
000050 1f 07 a5 be 46 c5 2f bf 0b 85 11 3f 6b 7f 94 bd
       -0.32231995 -0.6866039 0.5684363 -0.072508655
000060 a2 2e 2f bf 1d be 0a 3e 83 b3 53 3d e4 9f ac bd
       -0.6843053 0.13549085 0.051684868 -0.08428934
000070 82 e7 fe be 7a 4d ad be 7e 38 86 3c b3 c1 3f bd
       -0.49786 -0.33848172 0.01638436 -0.046815585
000080 e8 69 17 bf 1b 0e bd 3d 29 3e 36 3e da 68 13 bf
       -0.59145975 0.09231206 0.1779715 -0.57581866
000090 f4 26 42 bd 52 a4 b7 3e da 25 e6 3e fd 58 d7 3d
       -0.04740043 0.35867554 0.44950753 0.1051502
0000a0 69 c9 13 bc a3 26 65 3e 67 c3 0c bf 14 ad 51 3e
       -0.009020188 0.2237802 -0.5498566 0.2047618
0000b0 35 88 40 3d 38 e6 b0 3c cf 89 21 be e3 c6 9f bd
       0.047004897 0.021594152 -0.15775226 -0.078016065
0000c0 7f e8 e1 3d f1 b2 44 be 09 83 58 3e cd b9 bc 3e
       0.11030673 -0.19208886 0.21143736 0.36860505
0000d0 a6 90 0a bd 87 7d 55 be d0 70 10 3e 95 83 00 bf
       -0.033829354 -0.20848666 0.14105535 -0.5020078
0000e0 1d 92 a1 3d 77 22 f5 3d 14 b2 03 3e 71 ae 13 be
       0.07889197 0.11969464 0.128609 -0.14422013
0000f0 b4 5d 32 3f cd 2c 8c 3e fd a1 03 3f 0d 9d b7 be
       0.6967423 0.2737793 0.5141905 -0.35862008
000100 73 fb 99 3e 9b a0 2a 3e 77 27 80 3e 4e f2 2d be
       0.30074653 0.16662829 0.2503011 -0.16986963
000110 77 d7 87 be 66 78 37 3e 37 06 dc bc 3b 2a b5 be
       -0.26531574 0.17917022 -0.026858432 -0.35383782
000120 b7 da ee bc 27 a3 01 3e 8c 76 e8 bd 13 16 ba 3e
       -0.029157026 0.12659894 -0.11350736 0.36344966
000130 f8 4d 05 3f 78 90 c0 3e ed 18 c6 3d aa f8 27 bf
       0.52072096 0.3761022 0.09672723 -0.65613806
000140 4c 70 95 be b1 56 ac 3c bc 76 19 3d 2e 69 6b 3e
       -0.29187238 0.021037431 0.03746675 0.22989342
000150 f4 14 33 bf d8 e5 10 3f 68 8c f4 3d b9 16 97 3c
       -0.69953847 0.56600714 0.11940843 0.018443452
000160 02 27 5d 3e 29 63 d3 3c 81 10 8a be 58 2f 4b 3e
       0.21596912 0.02580412 -0.26965716 0.19842279
000170 3e f7 f3 be f5 26 91 bc 5a 90 a7 bd dc b0 94 be
       -0.47649568 -0.017718771 -0.0818183 -0.29041183
000180 b5 cd df 3c 76 9c 56 be bb 06 44 3e 48 00 1e be
       0.027319768 -0.20958123 0.19143192 -0.15429795
000190 49 b8 83 3d d1 62 85 be 7f 78 bb 3c bd d4 2d be
       0.06431634 -0.26051953 0.022884605 -0.16975684
0001a0 2c 6c ac be 06 47 a0 3e cf a3 03 bf b6 d9 22 bf
       -0.3367628 0.31304187 -0.5142183 -0.6361345
0001b0 38 e6 36 3e 9f 47 28 bf 6e 85 e5 3d 90 c6 79 be
       0.17861259 -0.65734285 0.1120709 -0.24392152
0001c0 20 e5 52 bd ed bd 1f bf 21 21 0c 3e f2 f3 2f 3f
       -0.051488042 -0.6239918 0.13684513 0.68731606
0001d0 5b a3 f0 be 97 dd 14 be c7 b3 e5 3d 5d 45 04 3d
       -0.4699963 -0.14537655 0.112159304 0.032292712
0001e0 13 83 b8 3e fd 83 7c be c9 dc b1 3e 1c b1 11 3f
       0.36037502 -0.24659725 0.34738758 0.5691087
0001f0 8a a9 10 3d 32 17 17 3c 68 b1 ac bd 1c a8 4a bd
       0.035317935 0.009221839 -0.08432275 -0.049476728
000200 c4 b9 f1 be 29 ef 5c be f7 e1 61 bd cf 9a e8 bd
       -0.4721204 -0.21575607 -0.055147137 -0.113576524
000210 88 1e c0 3e 81 81 83 3e 4e 28 de bd 5c 95 9d 3e
       0.37523293 0.2568474 -0.10847531 0.30778015
000220 e5 a5 75 3e 2f ac f9 3e 24 77 48 3d 74 e9 bf be
       0.23989065 0.48764178 0.048941746 -0.37482798
000230 6b 11 84 3c df f6 0b 3c 79 1e af be 77 6d db be
       0.016121587 0.008542745 -0.34202936 -0.42856953
000240 cb ff ea 3e 52 72 6f 3e 6d 05 1b bf 03 37 c7 bd
       0.4589828 0.23383453 -0.60555154 -0.097272895
000250 ba 98 8b 3e 41 0c 10 be 80 47 12 bf 4e be 25 be
       0.2726496 -0.14067174 -0.5714035 -0.16185877
000260 13 91 4a be 04 61 a9 3d 0d db 27 3d e2 9c 39 bf
       -0.19781904 0.082704574 0.040980387 -0.7250501
000270 f6 60 83 3b 79 b6 f7 be 57 02 79 be c2 68 7a bd
       0.0040093614 -0.48381403 -0.24317299 -0.06113506
000280 6a 60 83 bd a8 cf 16 3f 0c 39 c4 3e 5b a4 4c 3e
       -0.06414874 0.5891061 0.38324773 0.19984572
000290 c0 6d 92 be 39 cb 9c be e3 bd 7a 3d cf 33 26 bf
       -0.28599358 -0.30623797 0.061216246 -0.64922804
0002a0 3c 3d 94 3d 33 e1 1f 3d 7d 15 00 3f d3 4c db be
       0.07238242 0.039033126 0.5003279 -0.4283205
0002b0 1c cf 16 be ef 20 f1 3d 55 10 e5 3e 25 19 60 3b
       -0.14727443 0.1177386 0.44739023 0.0034194675
0002c0 4a a9 49 3f 06 88 6d 3e 9d 69 67 be b2 96 19 be
       0.7877394 0.2319642 -0.22598882 -0.14998892
0002d0 df de e1 3e a4 2f fa bd f2 02 ab 3d 88 60 0a bf
       0.4411535 -0.12216118 0.08350171 -0.54053545
0002e0 53 70 8a 3d 7f bb 38 3e 2d ec d0 3e 99 2b 86 be
       0.067597054 0.18040274 0.40805188 -0.26205137
0002f0 cf 47 5d 3e 1b dd aa be 96 ab e3 be de cb e2 3d
       0.21609424 -0.33371815 -0.44466847 0.11074041
000300 5a db 74 bc 00 54 2f 3e 03 f3 8c 3d 8d 1b 89 be
       -0.014944876 0.17121887 0.06882288 -0.26778832
000310 22 a3 c0 bd bb 89 8a 3e 7a 4d b6 3d 10 89 a3 be
       -0.09406115 0.27058205 0.08901496 -0.31940508
000320 c6 4b ef ba 2a 37 2c 3e 10 7a bb 3e 65 b4 d3 3e
       -0.0018256835 0.16817918 0.36616564 0.41348568
000330 48 eb a9 3e 0f 54 d5 3d a8 9a 63 3c 2a 62 02 3e
       0.33187318 0.104164235 0.013891853 0.12732759
000340 a3 56 4a bd da 7a 91 be e5 fb 20 3e d8 fc 8b be
       -0.04939903 -0.2841404 0.1572109 -0.27341342
000350 98 72 06 be 64 07 0f bf cb 0c 19 3e ff f9 24 bf
       -0.13129652 -0.5587065 0.14946286 -0.64443964
000360 47 9e 07 bd 5e 5b 79 3e be 09 6c bd 04 d2 ad 3e
       -0.03310993 0.2435126 -0.05762648 0.33949292
000370 76 e2 4b 3e 21 ba 02 3e 75 11 2f bf c2 44 bc 3e
       0.19910607 0.12766315 -0.6838601 0.36771208
000380 b4 c2 00 3f 24 3f bb 3c b5 96 cf 3d b8 52 6a ba
       0.50297093 0.022857256 0.10136167 -0.00089387177
000390 95 6c 5c bd bd e6 ec 3e 55 59 15 3e d2 c2 1e bf
       -0.05381449 0.4626979 0.14584859 -0.6201602
0003a0 c2 ee 1d 3e e5 2b 0c 3f 06 28 8d 3d fc c6 f1 be
       0.1542311 0.5475448 0.068923995 -0.47222126
0003b0 40 c4 bd 3e 39 62 11 3e 0e 5a 08 3f 16 24 84 bd
       0.3706379 0.14197625 0.5326241 -0.06452195
0003c0 c1 80 2e 3e 4a 9b 15 3f a0 52 de be 96 1d 4b be
       0.17041303 0.5844008 -0.43422413 -0.19835505
0003d0 5f fc 9e 3e ac 66 32 be dc 01 99 be 83 4a ed be
       0.3105192 -0.17421979 -0.2988423 -0.4634591
0003e0 56 10 80 3e 6b 93 bf bd 0c 60 4e 3e 30 66 fa be
       0.25012463 -0.093542896 0.20153826 -0.48906088
0003f0 0f 3e ac 3d 57 bd 11 3f 60 4a a0 3e ff 11 eb 3d
       0.08410274 0.56929535 0.31306744 0.11478042

fc3.bias f4 [4]
000000 41 bc 36 bd fe 36 74 3d d4 f7 95 bd d4 8c 28 3c
       -0.044613127 0.059622757 -0.0732266 0.010287482

bn1.weight f4 [512]
000000 dd 8e a9 3e d3 ec 83 3e f5 15 0a 3f 96 45 9d 3e
       0.3311681 0.2576662 0.53939754 0.30717152
000010 20 52 0d 3f 7a d5 d0 3e 2a 20 06 3f 84 f2 1d 3f
       0.5520344 0.4078787 0.5239283 0.61698174
000020 69 6d 35 3f 29 46 4c 3f 81 3e 25 3f 6f 9a c8 3e
       0.7087007 0.79794556 0.645485 0.39180323
000030 02 ef 01 3f f3 44 20 3f e6 a7 fa 3e 74 16 3d 3f
       0.5075532 0.6260521 0.4895622 0.73862386
000040 61 e1 c5 3e 74 be 53 3f 9c de ab 3e 3a 38 3d 3f
       0.38648513 0.82712483 0.33568275 0.7391392
000050 cd 63 e0 3e 1b 48 25 3f 62 09 08 3f c9 96 eb 3e
       0.43826142 0.6456315 0.5313932 0.46013477
000060 48 49 5b 3f 6c cd ac 3e f6 fa 37 3f 75 99 b2 3e
       0.85658693 0.33750474 0.7186731 0.34882703
000070 27 78 80 3f c1 c3 12 3f c5 af 40 3f 5a 1f 95 3e
       1.0036668 0.57329947 0.75268203 0.29125482
000080 6c 79 70 3f 5e 91 ee 3e 20 b2 1c 3f c8 a5 96 3e
       0.93935275 0.4659528 0.612093 0.29423356
000090 0a 0f 23 3e 45 79 17 3f 79 d6 1a 3f 10 0b 0e 3f
       0.15923706 0.5916942 0.6048351 0.5548563
0000a0 9d 04 68 3f c5 db 56 3f 46 ba 0a 3f c5 0a fe 3d
       0.9063204 0.8392909 0.5419048 0.12404398
0000b0 5c c9 d6 3e 6c b1 34 3f a2 02 52 3f 76 02 34 3f
       0.419505 0.70583224 0.8203527 0.70316255
0000c0 4e 3a 16 3f 31 88 37 3f 1a 73 bd 3e 07 8a 8d 3e
       0.58682716 0.71692187 0.37001878 0.2764437
0000d0 48 79 5f 3f 2e 6d 05 3f 49 23 e4 3e 8c f4 90 3e
       0.87294436 0.5211972 0.4455817 0.28311574
0000e0 9b c5 80 3e e8 b1 04 3f c1 29 4b 3f 30 84 6e 3e
       0.2515076 0.51833963 0.79360586 0.23292613
0000f0 77 d5 66 3f ae 9e 4f 3f 32 2d 7c 3f 77 8e 09 3f
       0.9016947 0.811015 0.9850646 0.5373301
000100 af bb 5d 3e 76 75 b8 3e 4f 81 44 3f 0e 6b f7 3e
       0.21653627 0.36027116 0.7675981 0.48323864
000110 d5 cb 1c 3f ae bf 12 3f d1 e6 bd 3e 71 dd 9a 3e
       0.61248523 0.5732373 0.3709016 0.3024707
000120 de 0b 29 3f 27 1d 12 3f 20 4b 46 3f ff 9f 80 3e
       0.6603373 0.5707573 0.7745838 0.25122067
000130 29 aa 38 3e f9 0f 3a 3f a7 46 2d 3f 3b 2f f2 3e
       0.18033661 0.7268062 0.6768593 0.4730166
000140 1d 3f 99 3e 77 69 fc 3e 07 0b 62 3f 74 cb 24 3f
       0.29930964 0.49299213 0.88298076 0.64372945
000150 0e 7b d7 3e e9 83 f9 3e 6b 19 12 3f 47 c5 cd 3e
       0.4208607 0.48733452 0.57070035 0.40189573
000160 5f 98 26 3f a3 0c 24 3f d5 0f b9 3e 37 c6 9c 3e
       0.6507625 0.6408178 0.3614489 0.30619976
000170 88 c1 31 3f 8f 5f d4 3e b0 a6 0d 3f d1 57 16 3f
       0.6943593 0.41479155 0.5533247 0.5872775
000180 f3 df f0 3e cd a4 31 3f c5 aa b1 3e f8 f3 57 3e
       0.4704586 0.6939209 0.347006 0.2108916
000190 e1 0d d2 3e d4 8a 3b 3f d3 c8 0d 3f 7f d7 e1 3e
       0.41026214 0.7325871 0.5538456 0.44109723
0001a0 41 5c 2a 3f cb 8f 31 3f 37 70 09 3f d4 be 3c 3f
       0.6654702 0.69360036 0.5368685 0.7372868
0001b0 75 d6 d4 3e ec c0 3a 3f 3c 90 1b 3f f4 88 30 3f
       0.41569868 0.72950625 0.6076696 0.68958974
0001c0 3d 6d 1c 3f 7f 52 2d 3f 9e ba ce 3e a8 52 83 3e
       0.61104184 0.67704004 0.40376753 0.25649
0001d0 8b 2f 58 3f f7 e6 54 3f dc 00 9b 3e be 24 fc 3e
       0.84447545 0.83164924 0.30274093 0.49246782
0001e0 47 3f 87 3e 0b b9 fc 3e 2f 01 1f 3f dc 75 09 3f
       0.26415464 0.49359927 0.6211118 0.53695464
0001f0 ac 56 4a 3f f1 58 3b 3f 23 44 be 3e 77 66 19 3f
       0.790385 0.7318259 0.3716136 0.59921974
000200 b2 36 20 3f 4e 87 b6 3e fe 4d 5f 3f a2 0e be 3e
       0.6258346 0.35650104 0.8722838 0.3712054
000210 1e 1c a5 3e 67 29 3d 3f d3 83 76 3e 98 e8 51 3f
       0.32248014 0.738913 0.24073724 0.81995535
000220 95 ee 83 3e 6c ec ea 3e 67 a0 39 3f 80 d5 21 3f
       0.2576796 0.458835 0.7251038 0.632164
000230 21 54 77 3f 1e 5f 32 3f 91 8c 13 3f aa 84 03 3f
       0.96612746 0.6967639 0.5763636 0.51374304
000240 f4 fc 34 3e 95 f6 21 3f dd 97 0e 3f cb aa 57 3e
       0.17674619 0.6326688 0.55700475 0.21061246
000250 af 0e a1 3e da f2 35 3f 9e 3d 77 3e d6 7b 0a 3f
       0.31456515 0.7107369 0.24144599 0.5409521
000260 ac ad 1b 3f 9c 62 20 3f 50 88 7a 3f 0b a5 48 3f
       0.6081188 0.62650466 0.97864246 0.78376836
000270 62 44 03 3f 83 89 37 3f 8c 64 3d 3f 37 2b 29 3f
       0.5127622 0.716942 0.7398155 0.66081566
000280 b4 91 68 3f e3 1b 82 3e bb b1 b1 3e 4a 9e 93 3e
       0.90847325 0.254119 0.3470591 0.28831702
000290 cf d2 ac 3e 81 4a 36 3f 4e 5f ea 3e ce 7d 14 3f
       0.33754584 0.71207434 0.45775837 0.5800446
0002a0 cd 13 15 3f fc 63 34 3f 25 4f 5f 3f 8c cb 2e 3f
       0.5823334 0.70465064 0.8723014 0.6827934
0002b0 74 48 49 3f 0f 73 37 3f 62 89 2a 3f b0 85 82 3e
       0.7862618 0.7165994 0.6661588 0.2549262
0002c0 62 9d 01 3f f8 16 ac 3e 76 3b 68 3f 0f 0d da 3e
       0.5063077 0.33611274 0.9071573 0.42588088
0002d0 df 85 c6 3e 53 a4 1a 3f ee a7 cb 3e 5c 54 06 3f
       0.3877401 0.6040699 0.39776558 0.5247247
0002e0 4c e9 39 3f e7 9e 35 3f 63 7e 71 3f 73 19 0e 3f
       0.7262161 0.7094559 0.94333476 0.5550758
0002f0 0e c6 cf 3e 7a 2e dd 3e ef 7a db 3e 5f 4e f6 3e
       0.4058079 0.4319952 0.42867228 0.48106667
000300 62 ec 3b 3f 8e 7b 30 3f 9c 8e 4c 3f 3d a9 1d 3f
       0.73407567 0.6893853 0.79905105 0.6158636
000310 cb f3 c3 3e a1 e8 01 3f 44 24 77 3e fc 44 c0 3e
       0.38271937 0.5074559 0.24134928 0.3755263
000320 47 74 44 3f b4 b6 67 3e 35 cc 52 3f ce 6e be 3e
       0.76739925 0.2262829 0.82342845 0.37193912
000330 6c 13 2a 3f ba 3d ef 3e 34 e6 4f 3f 42 5b 24 3f
       0.66435885 0.4672678 0.8121064 0.6420175
000340 04 4a 3b 3f e4 fb 43 3f a7 f5 12 3f a3 5f 09 3f
       0.73159814 0.7655623 0.57406086 0.53661555
000350 cc 39 4a 3f d9 0b 21 3f df 1e e5 3e 1b 6e 23 3f
       0.7899444 0.62908703 0.44750115 0.6383988
000360 68 44 2b 3f bc d6 6e 3e ad 2f be 3e 95 55 51 3f
       0.66901255 0.23324102 0.3714575 0.8177121
000370 0b 8b c7 3e 80 85 32 3f d4 cf 59 3e ff 4e 63 3f
       0.3897327 0.69734955 0.21270686 0.88792413
000380 5f e3 34 3f 25 f2 17 3e c2 52 a8 3e 5a ab 28 3f
       0.7065944 0.14838465 0.3287564 0.6588646
000390 3a e6 3f 3f cd 2e 14 3f 42 50 b6 3e 47 e5 72 3f
       0.7496067 0.5788391 0.35608107 0.948811
0003a0 0a 46 15 3f af 77 c0 3e 84 67 23 3f be bf a5 3e
       0.58309996 0.3759131 0.6382983 0.3237285
0003b0 cd e4 f5 3e 2c d5 66 3e 83 c7 22 3f 3e ec 39 3f
       0.48026124 0.22542256 0.6358568 0.726261
0003c0 92 68 7e 3f b6 72 4e 3f a3 ac 51 3f 31 ef 14 3f
       0.9937831 0.80643785 0.8190405 0.5817748
0003d0 8f 13 2a 3f dd 6d e7 3e 7e 60 45 3f b8 79 17 3f
       0.66436094 0.45201007 0.7710036 0.59170103
0003e0 5a c9 93 3e b1 9d 2c 3f 10 52 0f 3f bd 73 63 3f
       0.28864557 0.6742812 0.5598459 0.8884848
0003f0 da 71 97 3e 0d 95 de 3e d0 7b 3c 3f 68 88 b0 3e
       0.2957905 0.43473092 0.7362642 0.3447907

bn1.bias f4 [512]
000000 c1 41 02 3a 39 f8 dd bd 72 f1 22 3e c6 b3 b2 bd
       0.00049689045 -0.1083836 0.15912417 -0.08725695
000010 a1 9d 7b bb 4c 1a c8 3c 87 13 ce 3b c8 79 86 3d
       -0.0038393515 0.024426602 0.006288949 0.06566197
000020 9a 9e b8 3c 2c 30 82 3c 6d fe 8c 39 17 e7 e7 3d
       0.022536565 0.01589211 0.00026892443 0.11323374
000030 2d d3 04 3e e8 76 a8 3d 11 ce 90 bd 9c ed 21 3e
       0.12971182 0.082258046 -0.07070554 0.15813297
000040 8a 7d 1c 3e eb bf e3 3d eb 84 7c 3e 99 44 e8 bb
       0.15282264 0.1112059 0.24660079 -0.0070882556
000050 af 2e 14 3e 79 e8 97 3d 1d fc 4c 3e 0f e7 38 3d
       0.14470933 0.074173875 0.20018049 0.04514223
000060 bd ee 18 3d 81 22 57 3d fc 0e 97 3c e9 fc 3c 3e
       0.037337054 0.05252314 0.018439762 0.18455853
000070 2d 9e 3f bb 45 bd e2 bd 5c 62 a6 3b 5d 3c af 3d
       -0.0029238567 -0.110712565 0.0050776433 0.08556435
000080 fd e3 3c bd 5d 1f f3 3c ff b4 28 3e 65 6c be 3d
       -0.046115864 0.029678041 0.16475295 0.09298018
000090 30 95 dc be 28 4a d1 3d 30 53 95 3d 80 45 87 3d
       -0.4308257 0.10219222 0.072912574 0.06605053
0000a0 13 95 4f 3d cf be 60 3b b7 7f 16 3e 97 54 95 be
       0.050679278 0.0034293418 0.14697157 -0.291661
0000b0 cb 15 59 bc 28 04 ba 3d fb 77 65 3d be 15 06 3d
       -0.013249825 0.09082824 0.056022625 0.03273558
0000c0 2f 79 9a 3d 5f b2 31 3e f1 77 e3 3d 1b 39 be bd
       0.07542645 0.173532 0.111068614 -0.09288236
0000d0 e2 96 85 3d 86 2a dd 3d 63 40 19 3e 14 82 11 3e
       0.06522919 0.10799126 0.14965968 0.14209777
0000e0 42 1d a9 3e 8a 88 c7 3d c3 3d e5 bb e9 29 83 bd
       0.33030134 0.0974284 -0.006995888 -0.06404478
0000f0 66 7f 31 3e 8d 96 3f 3d 2b cd 17 3e bd e6 2f 3d
       0.17333755 0.046774436 0.14824359 0.04294466
000100 65 24 4c 3d 53 52 b1 3d ca 73 1a 3d be f9 22 3d
       0.049839396 0.0865828 0.03770808 0.039788954
000110 f1 88 26 3d 04 97 db 3c c6 80 13 3e 5e bd af 3d
       0.04065794 0.026805408 0.14404592 0.08581041
000120 ac 8c c5 3d bb 72 9a bb 83 3d 51 bc 75 b8 40 be
       0.09645972 -0.004713384 -0.012771013 -0.18820365
000130 d7 2e ad 3e 19 a3 2d 3e ef 27 99 3d e8 89 15 3e
       0.33824798 0.16956748 0.0747832 0.14603388
000140 73 34 b9 bc 7b 17 93 3c fb 60 c2 3d 5d 9f 19 bd
       -0.022608018 0.017955532 0.09491154 -0.037505496
000150 79 dd 0c 3e a0 65 0f 3e 33 f2 21 3e fb 74 15 3d
       0.1375636 0.1400361 0.15815048 0.036488514
000160 1a 25 b3 3d 57 e3 1e bd 1a ab 8b 3d 60 b6 56 3e
       0.08747311 -0.038791027 0.068197444 0.20968008
000170 33 36 ce 3d 5c ee 8e bd d5 08 38 3b f8 9b da 3d
       0.100689314 -0.06979057 0.0028081436 0.1067428
000180 34 38 f6 3d 90 4b df 3d 95 85 12 3d a9 ee 42 bc
       0.12022439 0.10903084 0.035771925 -0.011897721
000190 fa f8 ea 3d be 01 0d bc 5a 48 27 3e f7 e8 28 3e
       0.1147327 -0.008606372 0.16336194 0.16495119
0001a0 19 d7 4b bd 42 54 b8 bc d4 d5 45 3d 66 7c b2 3d
       -0.04976568 -0.022501115 0.048299626 0.08715133
0001b0 77 b3 93 3d ef 52 94 3d 8a af b8 3d ef 8f fd 3d
       0.072119646 0.07242381 0.090178564 0.12380969
0001c0 66 07 97 bc 44 28 95 3d d4 f6 43 3d 41 77 92 3e
       -0.018436145 0.07283071 0.047842816 0.2860661
0001d0 83 d8 87 3d 02 fb 36 3c b4 f8 c2 3d 42 a9 1b 3e
       0.06633093 0.011168243 0.095200926 0.15201285
0001e0 9e 6d 74 bc 0f ba a0 3d b6 be 6f 3d ea e6 b0 3d
       -0.014918713 0.07847988 0.058531485 0.08637793
0001f0 ee 82 7a 3d 4d 6f 92 3d 33 4f 7f bd 94 fa 70 bd
       0.06116002 0.07150135 -0.06233139 -0.05883272
000200 bd e2 33 3d 9e 3f 17 3e aa 1b d5 3d 83 45 57 bd
       0.043917406 0.14770362 0.10405667 -0.052556526
000210 d0 26 e0 3d bd 22 b6 3d 20 1a 97 3e 90 17 3f bd
       0.10944903 0.088933446 0.2951212 -0.04665333
000220 bd ce 5a 3e 8f c3 2b 3d f2 6e fa 3d 71 44 05 3d
       0.21367927 0.041934546 0.122281924 0.032535974
000230 33 44 d1 3c a1 12 e2 3d b4 a7 09 3e 91 18 c3 3c
       0.025545215 0.110387094 0.1344288 0.023815425
000240 49 36 7b be 7e 5f 02 3e b1 af bb 3d 14 4a fd bd
       -0.24532427 0.1273174 0.0916437 -0.12367645
000250 9b 79 1f 3e 37 64 9a bc 94 6e 75 3d 88 d5 e8 3d
       0.15573733 -0.018846614 0.05991991 0.11368853
000260 de 94 10 3e 2e fd 38 3c 12 7e fe 3c 35 b0 47 3d
       0.14119288 0.0112908315 0.031065974 0.04875203
000270 bd e9 3c 3e fc b3 39 3e c5 1d 0d 3e dc 38 f2 3c
       0.18448539 0.18135065 0.13780887 0.029568128
000280 95 51 d1 3d 2e e8 b7 bd 5b 26 e9 3d fd 58 12 3e
       0.10220639 -0.08979832 0.11384269 0.14291759
000290 40 c3 05 3e a7 f2 dd 3d bb f2 26 3e 18 7a ee 3d
       0.13062763 0.10837298 0.16303532 0.11644381
0002a0 9d 5d 1d bc bc 8e 86 bc f0 56 52 3e 01 5f 4a 3d
       -0.009604839 -0.016425483 0.20540977 0.04940701
0002b0 5e 42 a4 3c 06 4c 17 3e 04 10 c6 3d 58 13 7b 3d
       0.020051178 0.14775094 0.096710235 0.061297745
0002c0 0e 7b 5e 3e c8 ad aa 3d c4 54 8c 3c 2c c9 2e 3d
       0.21726629 0.083339274 0.017130263 0.04267232
0002d0 fd b3 a8 bc d1 98 cb 3c 26 4e 9e 3d 43 7d 61 3e
       -0.020593638 0.024853142 0.077297494 0.2202044
0002e0 b0 89 ba bc 4a 95 77 3d f6 1d 9c 3d c1 83 d1 3d
       -0.022770733 0.060445108 0.07622902 0.10230208
0002f0 4c 02 c6 3d 63 ed 06 38 2a 64 8f 3c 27 ef b2 3c
       0.09668407 3.2169173e-05 0.017503817 0.021842552
000300 95 4f c7 bc e7 d4 d1 3b b5 af 04 3c 5e 5d 0b 3e
       -0.02432994 0.0064035538 0.008098532 0.13609836
000310 af db 90 3d b3 5d 12 3e 0d 94 8d 3e a2 bc 08 3e
       0.07073151 0.14293556 0.27652016 0.13353208
000320 31 cd 9a 3d 94 b9 25 3d 99 f7 ec 3c 26 43 0c 3e
       0.075586684 0.040460184 0.028926658 0.1369749
000330 33 ad 30 3d 41 d7 10 3e 0d 1c 32 3e 83 fb 3f 3c
       0.043133926 0.14144613 0.17393513 0.01171768
000340 39 c7 46 bd 72 0f fc bd 42 39 36 3e 6d 73 39 3d
       -0.048529837 -0.123076335 0.1779528 0.045276094
000350 f0 95 04 bd 8d 7f e4 bc 7c 20 c3 3d 31 94 95 3d
       -0.032369554 -0.027892852 0.0952768 0.07303656
000360 03 42 ce 3d da ef 94 3e 0d d8 de 3d 7d 2c 62 3c
       0.100711845 0.29089242 0.10881052 0.013804552
000370 c4 70 22 bd 39 3f 0f 3d a1 f4 63 be 80 27 ed 3a
       -0.039658323 0.034972403 -0.22261287 0.0018093437
000380 57 64 cb 3d a2 8e a3 be cf 61 68 3e 6d bb 83 bc
       0.09931248 -0.31944758 0.22693561 -0.016080583
000390 df e8 0f 3e f0 57 b2 3c f8 4b d3 bb 56 68 5f bd
       0.14053677 0.021770447 -0.006448265 -0.054542862
0003a0 c4 0a c3 3a ad a8 0e 3d d4 08 2b 3c 89 25 dd bc
       0.0014880528 0.03482883 0.0104391165 -0.026995437
0003b0 1e 16 0e 3d dd 5b 6d 3e ea 9d 01 3e 3c 3b 00 3d
       0.03468906 0.23179574 0.12657896 0.03130649
0003c0 d7 77 05 3e 17 bd 8e bc ef 14 17 3e a4 ff 7d 3d
       0.13033997 -0.01742415 0.1475408 0.062011376
0003d0 02 25 88 3c 0e 65 13 bd 4a b3 ad 3c 90 7a c5 bd
       0.01661921 -0.035985045 0.021203656 -0.096425176
0003e0 f5 bc 4c bd 36 59 55 bd a2 7b 15 3e 9a aa 85 3d
       -0.04998489 -0.05208703 0.14597943 0.0652668
0003f0 45 e0 d7 bd 9c de 2a 3d 70 9e a1 3d 76 2c 4a 3e
       -0.10540823 0.041716203 0.07891548 0.19743523
