model_ddpg_critic.pth (torch_old, 609820 bytes, 9 tensors)

fcs1.weight f4 [512, 33]
0	0x3ce36f6a	0.027763087
1	0x3b834f51	0.004007258
2	0xbbac4fca	-0.005258535
3	0xbc856236	-0.016282182
4	0xbd872ff3	-0.066009425
5	0x3ad9ee36	0.0016626779
6	0x3d794e05	0.06086542
7	0xbba6beec	-0.0050886776
8	0xbc8f389d	-0.01748305
9	0x3a8fb8de	0.0010965129
10	0x3b88724c	0.004164016
11	0x3be1f64e	0.006895817
12	0x3b4678ce	0.0030284408
13	0x3ae4b984	0.0017450307
14	0xbc3c2e34	-0.011485625
15	0x3c590b28	0.013247289
16	0xbc75931f	-0.01498869
17	0x3cbd8219	0.023133324
18	0x3d807e52	0.06274094
19	0xbb0baf3b	-0.0021314162
20	0xbb4fec5f	-0.0031726582
21	0xbbd283a4	-0.006424384
22	0xbb760ec6	-0.0037545427
23	0xbb1af9ee	-0.0023647505
24	0x3bae9155	0.0053273835
25	0x3bd59684	0.006518187
26	0xbcd5bb96	-0.026090425
27	0x3d8adbcd	0.06780205
28	0xbba44d3a	-0.005014089
29	0xbcd9a92f	-0.02656993
30	0xbddffdf1	-0.10937107
31	0x3d32dfe9	0.04367057
32	0x3f26cc06	0.65155065
33	0xbcb9db94	-0.02268771
34	0xbcf0bb4c	-0.029386185
35	0xbbbc0416	-0.005737792
36	0x3d4228d2	0.04740221
37	0x3cd8ef32	0.026481245
38	0x3d489ba0	0.04897654
39	0xbd64fa3e	-0.055902712
40	0xbd3556ad	-0.044272114
41	0x3bd5a55e	0.0065199574
42	0x3cfde41d	0.030992562
43	0xbc31218a	-0.010811219
44	0x3b7557f8	0.0037436467
45	0xbd0af600	-0.03392601
46	0x3cb1f585	0.021723518
47	0xbbd56e29	-0.0065133763
48	0xbc125f3c	-0.008933838
49	0xbd80f1db	-0.0629613
50	0x3d96063a	0.073254064
51	0xbd99a2ff	-0.07501792
52	0x3e6d7510	0.23189187
53	0xbb9c38e5	-0.0047675245
54	0x3bf7a051	0.007556953
55	0xbc275988	-0.010214217
56	0x3d08d01c	0.033401594
57	0x3b558e88	0.0032586176
58	0xbc2ed766	-0.010671472
59	0xbc472525	-0.012154852
60	0x3e2ea3d0	0.17054677
61	0x3d849e31	0.06475485
62	0x3cde0db6	0.027106147
63	0xbe051557	-0.12996422
64	0xba813320	-0.0009857155
65	0xbe931b2e	-0.28731674
66	0x3c919761	0.017772378
67	0x3d7037b1	0.05864686
68	0xbd27b0af	-0.040939983
69	0x3dea126e	0.114292964
70	0x3ddf19c6	0.10893588
71	0x3d5a31ed	0.05327027
72	0x3e1f5f07	0.15563594
73	0xbc8ccd16	-0.017187636
74	0x3d35e751	0.044410054
75	0xbc78ddbd	-0.015189585
76	0x3c3d1449	0.011540481
77	0x3c0fec10	0.008784309
78	0x3d07d93d	0.03316616
79	0xbcbe288b	-0.023212692
80	0x3e09d5d9	0.13460483
81	0xbb3b02b7	-0.0028535554
82	0xbeaaac60	-0.33334637
83	0x3d9e3dca	0.07726629
84	0xbdc7d4ae	-0.09757362
85	0x3dd815b5	0.10551015
86	0x3d6bbda9	0.05755392
87	0xbd2c2b9c	-0.042033777
88	0xbd073692	-0.033011027
89	0xbc6173db	-0.013760532
90	0x3cc79daf	0.024367182
91	0xbce101c0	-0.027466655
92	0x3dc03517	0.09385126
93	0xbc21d503	-0.009877446
94	0x3a1b6832	0.0005928307
95	0xbcbb80ed	-0.022888625
96	0xbc6be9ab	-0.0143989725
97	0xbc49f0e4	-0.012325499
98	0xbd1de3e5	-0.038547415
99	0x3e1da05f	0.15393208
100	0x3c58e78e	0.013238801
101	0xbcd183ae	-0.025575485
102	0xbd59feee	-0.053221636
103	0xbccb61e7	-0.024826957
104	0x3e5960dd	0.21228357
105	0xbe19578a	-0.149748
106	0xbcc66445	-0.024217734
107	0x3c42177e	0.011846421
108	0x3bda6fbb	0.0066661513
109	0x3ca4feef	0.020141093
110	0xbc871a53	-0.016492045
111	0xba938adc	-0.0011256593
112	0x3d29d1d6	0.04145988
113	0x3dea6446	0.11444907
114	0x3d332cd7	0.043743934
115	0xbd0201cb	-0.03173999
116	0xbc469c58	-0.012122236
117	0x3dac4c9c	0.084130496
118	0x3e06340e	0.13105795
119	0x3ba217e1	0.0049466942
120	0xbd2cb186	-0.042161487
121	0xbd0483e0	-0.03235233
122	0x3cebcb13	0.028783357
123	0xba65d4a6	-0.0008767344
124	0xbc49d0f6	-0.012317887
125	0xbd39e250	-0.045381844
126	0xbca84aa7	-0.02054341
127	0xbcc9a962	-0.0246169
128	0xbd1581ae	-0.036500625
129	0x3d5e33a7	0.05424848
130	0x3cfec0ee	0.031097855
131	0xbe4fca17	-0.20291935
132	0xbd03a843	-0.03214289
133	0xbd2703b1	-0.040775005
134	0x3d7df3cc	0.06200008
135	0xbe55456c	-0.20827264
136	0x3df58f87	0.11990266
137	0xbde9b0c2	-0.11410667
138	0xbdb0a6d8	-0.08625573
139	0x3bc1307a	0.0058956714
140	0xbddb5757	-0.10710018
141	0xbc810fb1	-0.015754553
142	0xbc89d1a1	-0.016823592
143	0xbc06ac53	-0.008219796
144	0xbbc58fae	-0.006029091
145	0x3d276778	0.04087016
146	0x3d2f6c62	0.04282797
147	0xbd7f6645	-0.06235339
148	0xbdd9fd67	-0.10644036
149	0xb9ffd1d8	-0.00048793736
150	0x3d2b285f	0.041786548
151	0xbe80da3b	-0.25166497
152	0x3c34e016	0.011039754
153	0xbc6f5b17	-0.01460912
154	0x3c5e44b1	0.013566182
155	0xbcf9e8dc	-0.030506544
156	0x3c484f66	0.012225961
157	0xbd0e858e	-0.034795336
158	0xbd4e4579	-0.050359223
159	0x3bb55d47	0.005534801
160	0x3d3f6dcb	0.046735566
161	0x3cd44ffa	0.025917042
162	0xbd2727fa	-0.04080961
163	0xbd152f44	-0.03642203
164	0x3e7ae8f5	0.24502929
165	0x3d8a2a23	0.06746318
166	0x3d7e051e	0.0620166
167	0xbcf524ad	-0.029924715
168	0x3b0c7e56	0.0021437607
169	0xbd2bcfab	-0.041946094
170	0x3d5e5edd	0.054289687
171	0x3dffedc2	0.124965206
172	0x3d52579e	0.05135309
173	0xbd883d36	-0.066523
174	0x3d308338	0.04309389
175	0x3ce5a2e6	0.028031778
176	0x3b12f54d	0.0022424043
177	0xbdc5be2b	-0.09655412
178	0xbd89908b	-0.067170225
179	0x3d0ef641	0.034902815
180	0xbd1d7193	-0.03843839
181	0xbdb5202d	-0.08844028
182	0xbc85d63b	-0.016337505
183	0x3d1bc028	0.03802505
184	0xbde6c764	-0.112684995
185	0x3e1b92ef	0.1519277
186	0xbb28ad06	-0.0025737896
187	0xbc3a9769	-0.011388638
188	0xbd1a8839	-0.03772757
189	0xbd0e5312	-0.03474719
190	0xbd5b876c	-0.053595945
191	0xbcf5279b	-0.029926112
192	0xbad1dd1c	-0.001601133
193	0x3d8b3abc	0.06798312
194	0xbc301008	-0.01074601
195	0xbcf43dad	-0.029814566
196	0xbaf7d560	-0.0018908195
197	0xbcada560	-0.021197021
198	0x3dbc89fb	0.09206005
199	0xbcf9fb96	-0.030515473
200	0x3d12ec7b	0.035870057
201	0xbba7c778	-0.005120214
202	0xbcab4f1d	-0.020911748
203	0xbe22685a	-0.1586012
204	0x3db6418b	0.0889922
205	0x3c217c5e	0.009856312
206	0xbd67ff7a	-0.056640126
207	0x3d515465	0.051105876
208	0x3bf929c9	0.007603858
209	0x3cf9f9a0	0.030514538
210	0x3cafbbe4	0.021451898
211	0xbd80891f	-0.06276154
212	0x3d1ffcee	0.039059572
213	0xbc782f49	-0.015147992
214	0xbe228e30	-0.15874553
215	0xbd8bded2	-0.06829609
216	0x3e797aed	0.24363299
217	0x3e39718b	0.1810972
218	0x3cc4abf0	0.024007767
219	0x3d817440	0.06321001
220	0x3d720b61	0.059092883
221	0x3d8c6cb5	0.06856672
222	0x3d284451	0.041080777
223	0xbccb571b	-0.024821809
224	0xbdcba756	-0.09944026
225	0xbc8780a6	-0.016540837
226	0xbb8d9236	-0.004320408
227	0x3cf59232	0.029976938
228	0xbd6d5547	-0.057942655
229	0x3c232198	0.00995674
230	0x3da0533c	0.07828376
231	0xbd5ef1d3	-0.05442984
232	0xbd291742	-0.041281946
233	0xbd2ee85e	-0.04270207
234	0xbdb95c4d	-0.09050808
235	0xbe6e700c	-0.2328493
236	0x3e0760ad	0.13220473
237	0xbd2e7cb4	-0.042599395
238	0xbc0ade76	-0.00847589
239	0x3e1d5d3f	0.15367602
240	0xbdae1072	-0.084992304
241	0xbcafa301	-0.021440031
242	0xbcc2e13f	-0.023789046
243	0x386af1fb	5.601531e-05
244	0x3c392c71	0.0113021
245	0xbb0159e2	-0.0019737412
246	0xbb0680c7	-0.0020523535
247	0xbdc895fb	-0.097942315
248	0x3dd3b1bd	0.10336635
249	0x3d139a45	0.036035795
250	0x3cc85bde	0.024457868
251	0xbbf66155	-0.007518927
252	0x3cbd7d86	0.023131143
253	0x3b93aa27	0.0045063677
254	0xbd8b35dd	-0.06797383
255	0xbb845c41	-0.004039318

fcs1.bias f4 [512]
0	0xbe323efd	-0.1740684
1	0xbe87da48	-0.26533723
2	0xbe039661	-0.12850334
3	0x3d064daa	0.03278891
4	0xbe134266	-0.14380798
5	0xbe2a8697	-0.16652904
6	0x3e18bcc4	0.14915758
7	0xbe5012a8	-0.20319617
8	0xbdcf6ef4	-0.101285845
9	0x3d2a4738	0.041571826
10	0xbe6570b9	-0.22406282
11	0x3d885d25	0.06658391
12	0xbe4e7cac	-0.20164746
13	0xbd6d009f	-0.05786192
14	0xbddc51af	-0.107577674
15	0xbd7199f0	-0.058984697
16	0xbe4d25bf	-0.2003393
17	0xbaa0e0bb	-0.0012274006
18	0xbc6de9ac	-0.014521044
19	0x3da42f8f	0.080168836
20	0xbde3572a	-0.111006096
21	0x3de92f7c	0.1138601
22	0xbe5bec50	-0.21476865
23	0xbe272203	-0.16321568
24	0xbd814a10	-0.063129544
25	0x3d414108	0.04718116
26	0x3e14b1c3	0.14520936
27	0xbd9166c5	-0.0709968
28	0xbe2f2a13	-0.17105894
29	0xbbfe4876	-0.007760103
30	0xbcd02e1e	-0.025412615
31	0x3be7cd94	0.0070740674
32	0xbaa944f4	-0.0012914226
33	0xbd7f5883	-0.06234027
34	0xbdf8279c	-0.1211693
35	0x3af6beee	0.0018825212
36	0x3c4ceeb4	0.012508083
37	0xbe82f3f0	-0.25576735
38	0x3e08815e	0.133306
39	0x3c127ccc	0.008940887
40	0x3ce28b03	0.027654177
41	0xbc58712b	-0.013210575
42	0xbd3fd2b5	-0.046831805
43	0xbe3c49bc	-0.18387502
44	0xbcd00b55	-0.025396029
45	0xbe3ea73a	-0.1861848
46	0xbb493cff	-0.0030706523
47	0xbd21d71f	-0.039511796
48	0xbd9b59e8	-0.07585508
49	0xbe563c2b	-0.2092139
50	0x3d1f66f8	0.038916558
51	0xbdd5d4c4	-0.104409724
52	0x3a2745d5	0.000638095
53	0xbe5ccbbc	-0.21562093
54	0xbde67d0c	-0.112543195
55	0x3d4b6341	0.049655203
56	0xbd2b1b8c	-0.041774318
57	0xbe3bea13	-0.18351011
58	0x3d6c3ad2	0.057673283
59	0xbe334a98	-0.17508924
60	0xbe06a3af	-0.13148378
61	0xbe372cac	-0.17888135
62	0xbe944fc2	-0.289671
63	0xbc95b79a	-0.018276025
64	0x3e05589e	0.13022086
65	0xbd15dbe8	-0.036586672
66	0xbd84cbc6	-0.06484179
67	0xbe19d75d	-0.15023561
68	0xbda43053	-0.080170296
69	0xbdbc58fa	-0.091966584
70	0xbe6f0338	-0.23341072
71	0xbd61bd61	-0.055112246
72	0xbe07eac7	-0.13273154
73	0x3e0b9e6f	0.13634656
74	0x3d2b59bc	0.041833624
75	0xbe4bfe10	-0.19921136
76	0xbe149fd1	-0.1451409
77	0x3dd801ff	0.10547256
78	0x3dd39ef0	0.10333049
79	0xbe6ea428	-0.23304808
80	0x3d802df2	0.062587634
81	0xbd69da27	-0.057092812
82	0xbdd9dc05	-0.106376685
83	0xbe199920	-0.14999819
84	0x3de4dbf7	0.111747675
85	0xbe1f9f91	-0.15588214
86	0xbd15e0dd	-0.0365914
87	0xbe4582bc	-0.19288152
88	0xbd55c808	-0.052192718
89	0x3d52e62e	0.051489048
90	0xbe1f6e22	-0.15569356
91	0xbe183546	-0.14864072
92	0xbc83b82e	-0.016079035
93	0x3d68fa25	0.05687918
94	0xbe16668e	-0.14687559
95	0xbdf92118	-0.12164515
96	0xbd68aa22	-0.056802876
97	0xbd8e109d	-0.069367625
98	0x3dc7cd08	0.097559035
99	0xbd1a75fb	-0.03771017
100	0xbd845ad9	-0.0646264
101	0xbd9e213f	-0.07721185
102	0x3d5bbfaf	0.0536496
103	0xbc90df41	-0.01768458
104	0xbd981a4c	-0.07426891
105	0xbe0c9bae	-0.13731262
106	0xbdaa5ee1	-0.08318878
107	0xbd3cc0a1	-0.046082143
108	0xbdae7eb5	-0.08520261
109	0xbe1dfe5e	-0.15429065
110	0xbc4837d6	-0.012220344
111	0xbdf0c196	-0.117556736
112	0xbcbbd424	-0.022928305
113	0xbc92d998	-0.017926022
114	0xbd6d3364	-0.057910338
115	0xbe3177e7	-0.17330895
116	0xbdfa8b1c	-0.12233564
117	0x3b6b86cb	0.0035938497
118	0xbe39b824	-0.1813665
119	0xbe3bec9c	-0.18351978
120	0xbe6d50fb	-0.23175423
121	0xbcb369aa	-0.02190097
122	0xbe19ba53	-0.15012483
123	0xbd10d090	-0.03535515
124	0xbe05f974	-0.1308344
125	0x3d010cea	0.031506456
126	0x3da3d18c	0.07998952
127	0x3d81413d	0.06311271
128	0xbbe118c6	-0.0068694083
129	0x3dea1f74	0.114317805
130	0xbe06ee8f	-0.1317694
131	0xbd79febb	-0.061033946
132	0xbd718166	-0.058961295
133	0xbe4d25d3	-0.2003396
134	0xbd0c2391	-0.034213606
135	0x3c2ec85c	0.010667887
136	0xbd834b7d	-0.064108826
137	0xbd2fe644	-0.042944208
138	0x3b3d80f9	0.0028915985
139	0xbe6ca3d7	-0.23109375
140	0x3d559fbc	0.052154288
141	0xbdd81296	-0.1055042
142	0xbd7df2de	-0.061999194
143	0xbe8f39e4	-0.27973855
144	0xbd632df6	-0.055463754
145	0xbe019bc4	-0.12657076
146	0xbda1b1d2	-0.07895245
147	0xbe214048	-0.15747178
148	0xbe0c0f38	-0.1367768
149	0xbdf0179c	-0.11723253
150	0xbe4a9adf	-0.19785641
151	0xbe8231e0	-0.25428677
152	0xbd91e851	-0.07124389
153	0x3c9ae7bc	0.018909328
154	0xbdbfdd6a	-0.09368403
155	0x3d0fbb39	0.03509066
156	0xbdfae9b4	-0.122516066
157	0xbe3d66c8	-0.18496239
158	0xbde2a5f5	-0.1106681
159	0xbd048b36	-0.032359324
160	0xbe0c464d	-0.13698693
161	0xbdceb060	-0.100922346
162	0xbe2d58c0	-0.16928387
163	0x3cb00768	0.021487907
164	0xbe13d6d5	-0.1443742
165	0xbe23c90b	-0.1599466
166	0xbe8fdd85	-0.28098693
167	0x3d32cde0	0.04365337
168	0xbdbccaa6	-0.092183396
169	0xbe6d8241	-0.23194219
170	0xbe12a686	-0.14321336
171	0xbd3e3e68	-0.046446234
172	0xbd84c811	-0.06483472
173	0x3d654f5e	0.055983894
174	0xbddc7709	-0.10764892
175	0xbe434656	-0.190698
176	0xbe1a0743	-0.15041833
177	0xbcdda8eb	-0.027058085
178	0x3dd38547	0.10328155
179	0xbe7f4f80	-0.2493267
180	0xbe170a56	-0.14750037
181	0x3cec5a14	0.028851546
182	0x3dab32ec	0.08359322
183	0xbe4cf3cf	-0.2001488
184	0xbe6547c9	-0.22390665
185	0x3e276af7	0.16349398
186	0xbe269180	-0.16266441
187	0xbc8a9b8a	-0.01691987
188	0xbe956a2f	-0.29182574
189	0xbd0c2929	-0.03421894
190	0xbdfafafe	-0.12254904
191	0xbd7d9094	-0.06190546
192	0xbe82fcd3	-0.25583515
193	0xbc88c9ba	-0.016697753
194	0xbd9fb183	-0.077975295
195	0xbe29e005	-0.16589363
196	0xbe799748	-0.24374115
197	0x3dd0ea92	0.10200991
198	0xbdc25fd1	-0.09490932
199	0xbe36e732	-0.17861632
200	0xbd777bf1	-0.060420934
201	0x3dfc3fbc	0.12316844
202	0xbe67778e	-0.226042
203	0x3ce1a5db	0.027544906
204	0x3da085e9	0.07838041
205	0x3cc986f8	0.02460049
206	0xbe335147	-0.17511474
207	0xbe21a467	-0.15785371
208	0x3cbca6ca	0.02302875
209	0x3dbc8c34	0.09206429
210	0xbe146749	-0.14492525
211	0xbe314519	-0.17311515
212	0xbdd83f9c	-0.105590075
213	0xbcce0319	-0.025147961
214	0xbe815b09	-0.25264767
215	0xbdbc0903	-0.09181406
216	0xbd306300	-0.043063164
217	0xbe27f408	-0.16401684
218	0xbe0b622c	-0.13611668
219	0xbe24fb42	-0.16111472
220	0xbdbaefc9	-0.09127767
221	0xbd569f91	-0.052398268
222	0xbe9a06c8	-0.300833
223	0xbd85fdb3	-0.0654253
224	0x3bcf32d0	0.006323196
225	0x3d81a446	0.06330161
226	0xbe126234	-0.14295274
227	0x3ca4f972	0.020138476
228	0xbde7ab04	-0.113119155
229	0xbd88e0a2	-0.0668347
230	0xbe5c98c2	-0.21542647
231	0xbc47aa20	-0.012186557
232	0xbe7832bd	-0.24238105
233	0x3e04eeff	0.12981795
234	0xbe516d30	-0.20451808
235	0x3d219dad	0.039457012
236	0xbe50cd26	-0.20390758
237	0x3db1927d	0.086705185
238	0xbe117982	-0.14206508
239	0xbe55eb14	-0.20890456
240	0xbb625437	-0.003453506
241	0xbe6d21f6	-0.23157486
242	0xbc3e0cb8	-0.011599712
243	0x3db04fbc	0.08608958
244	0xbd102f8a	-0.035201587
245	0xbe707f56	-0.23486075
246	0x3daa4348	0.08313614
247	0xbda74f74	-0.08169451
248	0xbe101a6a	-0.14072576
249	0x3c41f0ef	0.011837228
250	0xbe659fbb	-0.22424214
251	0xbe4eec80	-0.20207405
252	0xbd334579	-0.043767426
253	0xbe3241ce	-0.17407915
254	0xbe6eca0f	-0.23319267
255	0xbe786f5c	-0.2426123

fc2.weight f4 [256, 516]
0	0xbd481691	-0.048849646
1	0xbbd8a58e	-0.0066115325
2	0x3dbb58f3	0.09147825
3	0xbd96cdeb	-0.073634945
4	0xbd5313fd	-0.051532734
5	0xbb0f129f	-0.0021831167
6	0xbc7ce1a6	-0.015434658
7	0xbcfc9b2a	-0.030835707
8	0x3d74bc36	0.059749804
9	0x3cb050a5	0.02152283
10	0xbd7f1de6	-0.062284373
11	0x3d9e771f	0.07737564
12	0x3bcefe98	0.006316971
13	0xbd8b830b	-0.06812104
14	0xbc808955	-0.015690485
15	0xbe113fb9	-0.14184465
16	0xbdc1c74e	-0.094618425
17	0x3c1eabfa	0.009684557
18	0xbdf34b3a	-0.11879583
19	0xbdb64893	-0.08900561
20	0xbe00af28	-0.12566817
21	0xbd2d936b	-0.042376917
22	0xbccfb145	-0.025353083
23	0xbdf04fe9	-0.11733992
24	0xbc2809ff	-0.0102562895
25	0xbd00832f	-0.031375106
26	0xbdb93c84	-0.090447456
27	0x3d1ad510	0.03780085
28	0xbdd9775f	-0.10618471
29	0xbe2808a8	-0.16409552
30	0xbc9ff68b	-0.01952674
31	0x3bb6736f	0.00556796
32	0x3d1a0809	0.03760532
33	0xbb1e46de	-0.0024151127
34	0x3d56d305	0.052447338
35	0x3d3e80ad	0.046509434
36	0xbe0889c4	-0.13333803
37	0x3e0882ab	0.13331096
38	0x3bb79d72	0.0056034857
39	0xbb3f8fcc	-0.0029229997
40	0xbd0df0d1	-0.03465349
41	0x3c098f95	0.008396049
42	0x3bcda2b8	0.006275501
43	0xb8a1e5c5	-7.719876e-05
44	0xbd8df970	-0.06932342
45	0xbda0d898	-0.07853812
46	0x3d0b4ade	0.034006946
47	0x3cd4fd70	0.025999755
48	0x3e03ce5f	0.12871693
49	0x3cb95fa1	0.022628607
50	0xbe1e87a9	-0.15481438
51	0xbcee1de9	-0.029066997
52	0xbd52270b	-0.051306766
53	0xbe05e8a4	-0.13077027
54	0x3cb4e39a	0.022081185
55	0xbc90397e	-0.01760554
56	0x3d31ed6c	0.043439314
57	0xbe1d4051	-0.15356566
58	0xbd3e7ab6	-0.046503745
59	0x3d62143a	0.05519507
60	0xbc690965	-0.014223431
61	0xbd95c57c	-0.07313058
62	0xbd0d5604	-0.03450586
63	0xbd98ceda	-0.07461329
64	0x3dcfdbc7	0.10149341
65	0xbc4d06a4	-0.01251379
66	0x3ded6279	0.11591048
67	0x3d711400	0.058856964
68	0x3c76ab04	0.015055422
69	0x3dcf00a8	0.10107547
70	0xbd352056	-0.04422029
71	0x3c26f061	0.010189147
72	0xbb79029f	-0.0037995947
73	0xbc3157ba	-0.010824138
74	0xbd85671c	-0.06513807
75	0xbd692e21	-0.056928758
76	0xbd092651	-0.033483807
77	0x3da437f2	0.08018483
78	0x3cd4a297	0.025956435
79	0x3d351e8b	0.04421858
80	0x3cefc140	0.029266953
81	0x3d8ac36a	0.067755535
82	0x3dad937d	0.08475397
83	0xbdbe350f	-0.09287464
84	0x3d887d9a	0.066645816
85	0xbdaf82c6	-0.08569865
86	0xbd58ca0c	-0.052927062
87	0xbd473bef	-0.04864114
88	0xbd2c6674	-0.042089894
89	0x3d1eb7b7	0.038749423
90	0x3d34288d	0.043983985
91	0x3a1c34d5	0.00059588003
92	0xbd409580	-0.047017574
93	0xbd684fef	-0.056716856
94	0x3bb86b8e	0.005628056
95	0xbb63af8e	-0.003474209
96	0x3cfe6b94	0.031057157
97	0xbc38658e	-0.011254681
98	0x3d60743a	0.054798342
99	0xbdab3486	-0.083596274
100	0x3c5b8335	0.013397981
101	0xbdc2009a	-0.09472771
102	0xbd4771ef	-0.04869264
103	0x3d5388bc	0.051644072
104	0xbd6a142c	-0.057148144
105	0xbc6d4888	-0.014482625
106	0xbdab643d	-0.08368728
107	0xbcd7ba04	-0.026333816
108	0xbe2ebe44	-0.17064768
109	0x3c7a4aaf	0.015276595
110	0x3c9b20be	0.018936511
111	0xbde94997	-0.11390989
112	0x3d0287cc	0.031867787
113	0x3d774311	0.060366694
114	0xbdb7429f	-0.08948254
115	0x3d84b93b	0.064806424
116	0x3d89dbab	0.067313515
117	0xbd3d3f65	-0.046203036
118	0x3ca963c4	0.020677455
119	0xbccd9908	-0.025097385
120	0x3c4d54ee	0.012532456
121	0xbd86e06b	-0.06585773
122	0xbd2b36ce	-0.041800313
123	0xbc64ff17	-0.013976834
124	0xbce7b65b	-0.028285196
125	0xbda0985b	-0.078415595
126	0xbdb3c8e7	-0.087785535
127	0x3c9f7b7d	0.019468063
128	0xbd3412f5	-0.04396339
129	0x3bdb72d4	0.006697038
130	0xbc2b80c2	-0.01046771
131	0x3d0de352	0.034640618
132	0x3c59f8d1	0.013303951
133	0xbd2333af	-0.03984421
134	0xbc580070	-0.013183698
135	0x3d0c2b91	0.034221236
136	0x3cfb2d7c	0.030661337
137	0xbd3ff42b	-0.046863716
138	0xbd8d4f1e	-0.06899856
139	0x3e1b8ede	0.15191218
140	0xbd0443c3	-0.032291185
141	0xbd256662	-0.040380843
142	0x3d00c361	0.031436328
143	0x3d0c1705	0.03420164
144	0x3beec7b5	0.0072869905
145	0x3dcc000f	0.09960949
146	0xbd861316	-0.06546609
147	0xbc1498c0	-0.009069622
148	0xbc3c1d3c	-0.011481579
149	0xbc392c31	-0.01130204
150	0xbd9765a1	-0.07392431
151	0xbcbc38f9	-0.022976385
152	0x3d74b3de	0.059741847
153	0xbd92721e	-0.071506724
154	0x3c0a1935	0.008428861
155	0x3cad8d7a	0.021185625
156	0x3da2d531	0.07950819
157	0xbc35e282	-0.011101367
158	0xbc47af85	-0.012187843
159	0xbd0dbfb3	-0.034606647
160	0x3a588e90	0.00082609896
161	0xbc7bc227	-0.015366114
162	0x3dba97ce	0.09110986
163	0xbe1a6631	-0.15078045
164	0xbe0c78b0	-0.13717914
165	0xbb9d902f	-0.004808448
166	0x3c441eb7	0.011970214
167	0xbe2c9fdf	-0.16857861
168	0xbd37acc5	-0.0448425
169	0x3d262601	0.040563587
170	0x3b33c7ca	0.0027432316
171	0xbdc3f1d3	-0.09567609
172	0xbd7656aa	-0.060141243
173	0xbd053410	-0.032520354
174	0xbd7ea788	-0.06217149
175	0x3dbf32ef	0.09335887
176	0xbd872b58	-0.06600064
177	0xbdaa1e35	-0.08306543
178	0xbd905f77	-0.070494585
179	0xbcd0ed0a	-0.025503654
180	0x3d943bf1	0.072379954
181	0xbd38b6c5	-0.045096178
182	0xbd84c9e7	-0.06483822
183	0xbd8e16b7	-0.06937926
184	0xbce29f93	-0.027663982
185	0xbe1320b3	-0.14367943
186	0xbd61c375	-0.055118043
187	0xbdb77e7d	-0.089596726
188	0xbd6852c6	-0.056719564
189	0x3d28751d	0.041127313
190	0x3d2b0c03	0.041759502
191	0x3bf36553	0.0074278503
192	0x3d4d6adb	0.050150733
193	0x3d8b0f22	0.06789996
194	0x3d97d2c3	0.074132465
195	0xbd3db832	-0.04631824
196	0xbd5fe32e	-0.054660015
197	0xbc40c9fa	-0.011766905
198	0xbc2f357c	-0.010693904
199	0xbddca686	-0.10773949
200	0x3c848c07	0.016180051
201	0xbda005b4	-0.07813588
202	0x3d3461fa	0.04403875
203	0x3d8ca1a4	0.06866768
204	0x3d997535	0.074930586
205	0x3dd5f4be	0.104470715
206	0xbb8cbe97	-0.004295181
207	0x3cc3cbef	0.023900954
208	0xbb7e129f	-0.0038768423
209	0xbda8f0ed	-0.08249078
210	0xbdac0ead	-0.08401237
211	0x3ca43602	0.020045284
212	0xbceb9d15	-0.028761426
213	0xbde505e1	-0.11182762
214	0xbe09cd26	-0.13457164
215	0xbc552d43	-0.0130112795
216	0xbd88d515	-0.06681267
217	0xbe13b7c6	-0.14425573
218	0x3d485c5f	0.048916217
219	0xbd3c5c37	-0.04598638
220	0x3cf6fb8c	0.030149244
221	0xbcc2c3c3	-0.023774987
222	0xbd85ff4e	-0.06542836
223	0xbcf2df92	-0.029647622
224	0x3c97b54a	0.018519063
225	0x3d04b651	0.032400433
226	0xbd593787	-0.05303147
227	0xbd81cdc1	-0.063380726
228	0xb9a80189	-0.000320446
229	0x3d3aca1a	0.045602895
230	0xbd6c5ddf	-0.05770671
231	0xbd996aa4	-0.07491043
232	0xbde2a820	-0.110672235
233	0xbc0d2add	-0.008616176
234	0x3d542cf4	0.051800683
235	0xbd0a6168	-0.0337843
236	0x3d783d75	0.060605485
237	0xbccbbe87	-0.024871124
238	0x3d7aedee	0.061262064
239	0xbdacd60c	-0.08439264
240	0xbde95710	-0.11393559
241	0x3da9de7d	0.082943894
242	0x3c75f9be	0.015013156
243	0xbd019870	-0.031639516
244	0x3da7a769	0.08186228
245	0xbd61c610	-0.055120528
246	0x3c88107a	0.01660942
247	0x3ba00c90	0.00488431
248	0x3bebe017	0.0071983445
249	0x3d0bd4c9	0.034138475
250	0x3ce04f5e	0.027381595
251	0x3bd67558	0.00654475
252	0x3c033242	0.008007588
253	0x3dc8c423	0.09803035
254	0xbb496ede	-0.0030736248
255	0xbafa6a66	-0.0019105196

fc2.bias f4 [256]
0	0x3db0fe76	0.086422846
1	0x3cdfdbd8	0.02732651
2	0x3da0b628	0.078472435
3	0xbdb671ba	-0.0890841
4	0x3e008dea	0.12554136
5	0xbb4dc364	-0.003139698
6	0x3da2ed26	0.07955389
7	0xbe28dd39	-0.1649064
8	0xbd9ff640	-0.0781064
9	0x3da20d20	0.0791266
10	0x3c22553f	0.00990802
11	0xbe38abd7	-0.18034302
12	0xbdbde937	-0.09272998
13	0x3d2cd821	0.042198304
14	0xbd1836fe	-0.03716182
15	0xbe288eee	-0.16460773
16	0x3e4ef90f	0.20212196
17	0x3d38c245	0.045107145
18	0xbdeb862d	-0.115002014
19	0x3d00d670	0.031454504
20	0x3da6b3de	0.08139776
21	0x3d915375	0.07095996
22	0xbe321c00	-0.17393494
23	0x3d87ba4c	0.0662733
24	0xbd740124	-0.0595714
25	0x3d82bfbe	0.06384228
26	0xbe0524ce	-0.13002321
27	0xbbbbc99b	-0.0057308204
28	0x3e0b296e	0.13590023
29	0x3de35d5b	0.111017905
30	0xbe15b314	-0.14619094
31	0xbdd44c0b	-0.103660665
32	0x3d3c7448	0.046009332
33	0xbe0c2e79	-0.13689603
34	0x3c4c6d27	0.012477196
35	0x3bd72f64	0.0065669287
36	0xbe3d69a1	-0.18497325
37	0xbbc14131	-0.005897664
38	0xbe2aa604	-0.16664892
39	0x3d90235d	0.07037995
40	0xbdfd7927	-0.123766236
41	0x3d9f3646	0.07774024
42	0x3db2ebe2	0.08736397
43	0xbd6780f0	-0.05651945
44	0xbd9c3c01	-0.07628632
45	0x3d576039	0.052582
46	0xbd20f153	-0.039292645
47	0xbe15cda2	-0.14629224
48	0xbe12f14d	-0.14349861
49	0xbb0ff26d	-0.0021964565
50	0x3c3f2a2a	0.011667768
51	0x3e164180	0.14673424
52	0xbe31043f	-0.17286776
53	0xbd4a4015	-0.04937752
54	0xbe1567f0	-0.1459043
55	0x3e0c3c0e	0.13694784
56	0x3dd19baf	0.102347724
57	0xbdcf60b9	-0.1012587
58	0xbdfa1802	-0.122116104
59	0xbe12a091	-0.14319064
60	0xbe61dd93	-0.2205718
61	0x3dea880d	0.11451731
62	0xbdf78efa	-0.120878175
63	0x3e05e180	0.13074303
64	0x3e3d6489	0.18495382
65	0xbde5098f	-0.11183464
66	0xbd8e9879	-0.069626756
67	0xbe116020	-0.14196825
68	0xbe33e4e6	-0.17567787
69	0xbde7e13f	-0.11322259
70	0x3e0ee829	0.1395575
71	0x3cb38742	0.021915082
72	0x3d6b55f9	0.057455037
73	0xbe232902	-0.15933612
74	0xbe1da168	-0.15393603
75	0xbc2b94eb	-0.0104725165
76	0xbe18f6b5	-0.14937861
77	0x3e038dab	0.12847011
78	0xbc61bdad	-0.013778132
79	0xbe8e95ba	-0.27848607
80	0xbbf45f79	-0.0074576703
81	0xbe0d8736	-0.1382111
82	0xbd5556ac	-0.05208461
83	0xbe2d2be6	-0.16911277
84	0xbe1baab3	-0.15201835
85	0x3d0f7a09	0.03502849
86	0x3d6808a8	0.05664888
87	0x3d7e4e09	0.06208614
88	0xbdb93fdb	-0.090453826
89	0xbe024e98	-0.12725294
90	0xbca48fc3	-0.020088082
91	0x3d867259	0.06564779
92	0xbe22fb20	-0.15916109
93	0xbde6a54e	-0.11261998
94	0xbced84ab	-0.028993925
95	0x3b98d701	0.0046643023
96	0xbbdc6a57	-0.006726544
97	0x3c991e06	0.018691074
98	0xbe16d8d4	-0.14731151
99	0xbdc74b17	-0.09731119
100	0xbe16ee21	-0.14739276
101	0x3c897215	0.016778031
102	0xbb8f4b6f	-0.004373006
103	0xbdf9837d	-0.121832825
104	0xbcfd66e5	-0.030932853
105	0xbe0a6987	-0.13516818
106	0xbdecd07b	-0.11563202
107	0x3e10d6a3	0.14144377
108	0x3db14278	0.08655256
109	0x3d8bddc3	0.06829407
110	0xbe2cad10	-0.16862893
111	0xbdb949f2	-0.09047307
112	0xbdeca34d	-0.11554585
113	0xbe1c6aac	-0.15275067
114	0xbdf1541a	-0.11783619
115	0xbdf8d924	-0.12150791
116	0xbca6c898	-0.020359322
117	0x3e2da370	0.16956878
118	0x3e37f9a6	0.17966327
119	0x3d425b91	0.047450606
120	0x3d95ea58	0.07320088
121	0x3bdf2c50	0.0068107024
122	0x3d4f0dca	0.05055026
123	0xbde4b71b	-0.11167737
124	0x3d4f8220	0.050661206
125	0xbdf1c342	-0.118048206
126	0xbd94e6fa	-0.07270618
127	0xbe3668a5	-0.17813356
128	0xbc9caa48	-0.019124165
129	0x3dd995fd	0.10624311
130	0x3cb22027	0.021743847
131	0xbc45013f	-0.012024223
132	0xbdb311ad	-0.08743606
133	0xbe1e8e69	-0.15484013
134	0xbdf52276	-0.119694635
135	0x3de655c7	0.112468295
136	0xbe0b67fa	-0.13613883
137	0xbe2bb626	-0.16768703
138	0xbe12d98e	-0.14340803
139	0xbdf34a2a	-0.1187938
140	0x3d8c3f74	0.0684804
141	0xb7aefedf	-2.08611e-05
142	0xbe064387	-0.13111697
143	0x3d4b29c4	0.049600378
144	0xbd515ca0	-0.051113725
145	0xbe58f886	-0.21188554
146	0xbdf22bfa	-0.11824794
147	0xbdd536d6	-0.1041085
148	0x3da9113e	0.08255242
149	0xbe2dcbc8	-0.16972268
150	0xbddb0c14	-0.10695663
151	0x3dad5da6	0.08465128
152	0x3d2343a0	0.039859414
153	0xbdc968ed	-0.09834466
154	0x3d91fcc3	0.071282886
155	0x3d7fffee	0.062499933
156	0x3bd11034	0.0063801054
157	0xbdcae760	-0.099074125
158	0x3e073d00	0.13206863
159	0xbe3f331e	-0.18671843
160	0xbe178e18	-0.14800298
161	0x3db2cc00	0.08730316
162	0xbe10c87b	-0.14138977
163	0xbdfe9136	-0.124300405
164	0xbc4301fe	-0.01190233
165	0x3c5280e8	0.012848116
166	0xbe0ca979	-0.13736524
167	0xbe511270	-0.2041719
168	0xbde8b0be	-0.11361836
169	0x3d38ee8e	0.04514938
170	0x3d5e5f79	0.05429027
171	0xbd97a325	-0.07404164
172	0xbe0a8fc4	-0.13531405
173	0xbe177578	-0.14790905
174	0xbe0efd15	-0.1396373
175	0xbd8f78b1	-0.07005442
176	0x3dda3323	0.10654285
177	0xbddedac1	-0.10881568
178	0x3dac65db	0.08417865
179	0x3ca19be6	0.019727658
180	0x3c8b7c18	0.017026946
181	0x3dcd0610	0.10010922
182	0xbd82f659	-0.06394643
183	0x3d1c036d	0.038089205
184	0x3e25fb7e	0.16209218
185	0xbe2b4e81	-0.16729166
186	0xbe424153	-0.18970232
187	0x3cd708f3	0.026249385
188	0x3d18b1a7	0.037278797
189	0xbdf192b9	-0.11795563
190	0xbdf64096	-0.120240375
191	0xbe11d133	-0.1423996
192	0xbdcb4be2	-0.09926583
193	0x3d8c8390	0.06861031
194	0x3dd282e4	0.10278872
195	0x3c0c926b	0.008579831
196	0x3df3c8f7	0.119035654
197	0xbe112b8c	-0.14176768
198	0x3b0a9c45	0.0021150273
199	0xbe2df404	-0.16987616
200	0x3c15f478	0.009152524
201	0xbe1451b3	-0.14484291
202	0x3d656ae1	0.05601013
203	0xbdef1227	-0.11673384
204	0xbdc3677f	-0.09541225
205	0x3b3ee812	0.0029130024
206	0xbdd7830f	-0.10523044
207	0xbd93b718	-0.07212657
208	0x3e2e21f5	0.17005141
209	0xbe115fdc	-0.14196724
210	0xbca72449	-0.020403044
211	0xbe3c1be8	-0.1837002
212	0x3d1f298f	0.038857993
213	0x3e2841ac	0.16431302
214	0xbdc6461a	-0.096813396
215	0x3d7cb060	0.06169164
216	0xbcd7c381	-0.02633834
217	0xbe0c64a4	-0.13710266
218	0x3da43926	0.08018713
219	0xbe4a6dbc	-0.19768423
220	0xbe251d16	-0.16124377
221	0x3d3bb6b1	0.045828525
222	0xbde30576	-0.11085026
223	0xbe19b1d7	-0.15009247
224	0xbc8d6c3b	-0.017263522
225	0xbe062aea	-0.13102308
226	0xbe2b512c	-0.16730183
227	0xbdf696b9	-0.12040467
228	0xbdbe9a71	-0.09306801
229	0xbc44c1a6	-0.01200906
230	0xbd98d72b	-0.07462915
231	0x3d57a464	0.05264701
232	0xbca6b26f	-0.020348756
233	0xbe60554c	-0.21907538
234	0xbe06c80f	-0.13162254
235	0xbe25e206	-0.16199502
236	0xbe3b8974	-0.18314153
237	0xbe0ed07e	-0.13946721
238	0x3e485f6c	0.1956765
239	0xbe132147	-0.14368163
240	0xbe121309	-0.14265074
241	0xbe08c877	-0.13357721
242	0x3d25dd67	0.04049435
243	0x3df60179	0.12012
244	0xbdf38c4c	-0.11891994
245	0xbe4acc0b	-0.19804399
246	0xbdd0c59c	-0.10193941
247	0xbd378d9e	-0.04481279
248	0xbe074696	-0.1321052
249	0xbe185074	-0.1487444
250	0x3ccbec5f	0.024892984
251	0xbe1f5e76	-0.15563378
252	0x3d675480	0.05647707
253	0xbe4c9158	-0.19977319
254	0xbe1288e8	-0.14310038
255	0xbe5296ee	-0.20565388

fc3.weight f4 [1, 256]
0	0x3d03da67	0.032190707
1	0x3d2c32ab	0.04204051
2	0x3d24b034	0.040207103
3	0x3deeff96	0.11669843
4	0x3d4bac96	0.049725138
5	0x3d479e33	0.048734855
6	0x3d3b9fd7	0.045806732
7	0xbdb58610	-0.08863461
8	0xbd9793f9	-0.074012704
9	0x3d3f55c1	0.04671264
10	0x3d6c116e	0.05763381
11	0xbdf5c932	-0.120012656
12	0xbd7e83b8	-0.062137336
13	0x3d2cd5ab	0.042195957
14	0x3d9767ae	0.07392822
15	0xbe1a6e2f	-0.15081094
16	0x3d83e9cb	0.06441077
17	0x3d20a6d3	0.039221596
18	0xbdd91439	-0.1059956
19	0x3d1cd793	0.038291525
20	0x3d315a63	0.04329909
21	0x3d1cdf11	0.03829867
22	0xbe9b209c	-0.30298316
23	0x3d52c7e4	0.05146016
24	0x3d820855	0.063492455
25	0x3d194620	0.037420392
26	0xbd630448	-0.055424005
27	0x3d85d1a6	0.06534128
28	0x3d0fe1e6	0.035127543
29	0x3d72c034	0.05926533
30	0xbe0ab36e	-0.1354501
31	0xbdaf3952	-0.08555855
32	0x3d2aca51	0.04169685
33	0xbdb6b99b	-0.0892212
34	0x3d15b4e5	0.036549468
35	0x3d875823	0.066086076
36	0xbd8bece8	-0.06832296
37	0x3da7f3b0	0.082007766
38	0xbe11165d	-0.14168687
39	0x3d487f24	0.048949376
40	0xbe1666c4	-0.1468764
41	0x3d589a55	0.052881557
42	0x3cdf5626	0.027262758
43	0xbd6c9236	-0.057756625
44	0xbe01bacf	-0.12668918
45	0x3d064aa7	0.032786038
46	0x3d73cb00	0.059519768
47	0xbdb78641	-0.08961154
48	0xbe193299	-0.14960708
49	0x3d6ccd5f	0.057813045
50	0x3d422f9a	0.047408678
51	0x3d32e480	0.043674946
52	0xbe39de0a	-0.18151107
53	0x3dfae505	0.12250713
54	0xbdada58a	-0.0847884
55	0x3d2b1c38	0.04177496
56	0x3d2df7ef	0.042472776
57	0xbe8348ca	-0.2564147
58	0xbed71637	-0.42009136
59	0xbe83def3	-0.25756034
60	0xbefc11d9	-0.49232367
61	0x3d7d7104	0.06187536
62	0xbe76f410	-0.2411654
63	0x3d7df27d	0.061998833
64	0x3d43e243	0.047823202
65	0xbd96d217	-0.0736429
66	0x3e203b78	0.15647686
67	0xbe979d9a	-0.29612428
68	0xbe67638f	-0.22596572
69	0xbdc54924	-0.09633091
70	0x3d7472ab	0.05967967
71	0x3d5c7fbe	0.053832762
72	0x3d2cbbb5	0.0421712
73	0xbe382e34	-0.17986375
74	0xbddc53b0	-0.107581496
75	0x3d62b019	0.05534372
76	0xbebd1985	-0.36933532
77	0x3d5a0f57	0.053237285
78	0x3d6b437d	0.05743741
79	0xbd95eec8	-0.073209345
80	0x3d4663e8	0.04843512
81	0xbe956f12	-0.29186302
82	0x3d69ea4c	0.05710821
83	0xbdb24e43	-0.087063335
84	0xbd80fffb	-0.062988244
85	0x3d3b1e96	0.045683466
86	0x3d5bf870	0.053703725
87	0x3d43488a	0.0476766
88	0x3dea5979	0.11442847
89	0xbe4a38d7	-0.19748245
90	0x3de6ca40	0.11269045
91	0x3d75bd6f	0.05999511
92	0xbdc00b2f	-0.09377133
93	0xbd906f5b	-0.07052489
94	0x3d7dd3a8	0.06196943
95	0x3d185b99	0.03719673
96	0x3d25136d	0.04030173
97	0x3d62aa9a	0.05533848
98	0xbdfb6274	-0.12274638
99	0xbda05e10	-0.07830441
100	0xbe3f6832	-0.18692091
101	0x3d72c942	0.059273966
102	0x3d180cc0	0.037121534
103	0xbe8f5601	-0.27995303
104	0x3d549ac6	0.051905416
105	0xbe1eb569	-0.1549889
106	0xbdbf2af5	-0.09334365
107	0x3d2f8efe	0.042860977
108	0x3d52d9d4	0.05147727
109	0x3d509d70	0.050931394
110	0xbdb1b722	-0.08677508
111	0xbd54eb4b	-0.051982205
112	0xbdcd0350	-0.100103974
113	0xbe2d97f7	-0.16952501
114	0xbd7f583b	-0.062340003
115	0xbe037be4	-0.1284023
116	0x3d28a399	0.041171644
117	0x3d4b52d5	0.04963954
118	0x3d8a900c	0.06765756
119	0x3d9debb9	0.07710976
120	0x3d30f196	0.043199144
121	0x3d3593ee	0.04433053
122	0x3d4ff372	0.050769277
123	0xbe89e2b3	-0.2693077
124	0x3d2efb1f	0.042719956
125	0xbd875fd1	-0.066100724
126	0x3dc0b411	0.09409345
127	0xbee6aba4	-0.45052826
128	0x3d3677c2	0.044547804
129	0x3d4eec3b	0.050518256
130	0x3d76395a	0.06011329
131	0x3d3d16d1	0.046164338
132	0x3e071c37	0.13194357
133	0xbd74d520	-0.059773564
134	0xbe978f9b	-0.2960175
135	0x3d2c9887	0.04213765
136	0xbdf1a8f6	-0.11799805
137	0xbea21737	-0.31658337
138	0xbd871713	-0.06596198
139	0xbe16eb6b	-0.14738242
140	0x3d3e4707	0.046454456
141	0x3d1183ca	0.035526074
142	0xbe7b5bbc	-0.24546713
143	0x3d658ccb	0.056042474
144	0x3dbba846	0.09162955
145	0xbed02652	-0.40654236
146	0xbd6bf617	-0.057607736
147	0xbd939d81	-0.07207776
148	0x3d3f926f	0.04677051
149	0xbeb2fe38	-0.3495958
150	0xbe011920	-0.1260724
151	0x3d498921	0.049203042
152	0x3d3a7151	0.045518223
153	0xbdabf094	-0.08395496
154	0x3d158cd6	0.036511265
155	0x3d0937ef	0.033500608
156	0x3d86fcd7	0.06591194
157	0xbebee8a8	-0.37286878
158	0x3d6dd010	0.058059752
159	0xbe38e7c6	-0.18057165
160	0xbe563969	-0.20920338
161	0x3d59f727	0.05321422
162	0xbe706ed3	-0.23479776
163	0xbd9f02a7	-0.07764178
164	0x3d751be1	0.05984104
165	0x3d3a2c2e	0.04545229
166	0xbdc307c3	-0.09522965
167	0xbe8e6e49	-0.27818516
168	0xbd96670b	-0.07343873
169	0x3d27cc68	0.04096642
170	0x3d52acb6	0.05143424
171	0xbe3a5ad5	-0.18198712
172	0xbdfd4a9e	-0.12367748
173	0xbd9bf003	-0.07614138
174	0xbdac9f15	-0.0842878
175	0x3ddfb0bb	0.109223805
176	0x3d4e2495	0.050327856
177	0xbe31c64b	-0.17360799
178	0x3d476a34	0.048685268
179	0x3cf28cda	0.029608179
180	0x3d806441	0.06269122
181	0x3d5a3924	0.05327715
182	0x3dbf54da	0.09342356
183	0x3d4819f6	0.048852883
184	0x3d508cce	0.05091553
185	0xbe241e85	-0.16027267
186	0xbe2ca5d8	-0.1686014
187	0x3cf24e04	0.029578216
188	0x3d5926c4	0.053015485
189	0xbd96cb52	-0.07362999
190	0xbdc79ed8	-0.09747094
191	0xbda5467c	-0.080700845
192	0xbdcbbd6c	-0.09948239
193	0x3d580573	0.05273957
194	0x3d5ea9b5	0.054361064
195	0x3d376f24	0.044783726
196	0x3d475c0e	0.048671775
197	0xbe1ae024	-0.15124565
198	0x3d1c3d2f	0.038144287
199	0xbe2823f5	-0.16419967
200	0x3d7dc3ef	0.061954435
201	0xbe32e94e	-0.17471811
202	0x3d49e0ac	0.04928653
203	0xbdada417	-0.08478563
204	0xbd56b3b8	-0.052417487
205	0x3d7a6c14	0.061138228
206	0xbdd74023	-0.1051028
207	0x3d96ba07	0.07359701
208	0x3d3bcb6d	0.0458483
209	0xbdd24c4b	-0.10268458
210	0x3d828c92	0.06374468
211	0xbec7b82e	-0.39007705
212	0x3d40248d	0.046909858
213	0x3d7413bd	0.059589136
214	0xbd8a7ba7	-0.06761866
215	0x3d3a38a6	0.04546418
216	0x3d6c2b7d	0.05765866
217	0xbda4343e	-0.08017777
218	0x3d42b63a	0.047537066
219	0xbe1b850d	-0.15187474
220	0xbda69e1a	-0.08135624
221	0x3d190fb4	0.03736849
222	0xbe6f42c9	-0.2336532
223	0xbe7f951a	-0.24959221
224	0x3d4a108c	0.049332187
225	0xbde72b6f	-0.11287581
226	0xbef71244	-0.48256123
227	0xbd601ac5	-0.05471303
228	0xbda3b2cc	-0.07993087
229	0x3d862784	0.06550506
230	0x3dc64e9e	0.09682964
231	0x3d2756a2	0.040854104
232	0x3dd9c2c2	0.1063285
233	0xbe22942a	-0.15876833
234	0xbe4b501a	-0.19854775
235	0xbd88b9b4	-0.06676045
236	0xbe3a9b4e	-0.18223307
237	0xbe0d7c85	-0.13817032
238	0x3d38bf7c	0.04510449
239	0xbef487b4	-0.47759783
240	0xbdc6f2ec	-0.097143024
241	0xbd657603	-0.056020748
242	0x3d437213	0.04771621
243	0x3d85fc2e	0.0654224
244	0xbd9c9da7	-0.07647257
245	0xbe222e5b	-0.15837996
246	0xbe82b9e2	-0.25532442
247	0x3d9e2786	0.07722382
248	0xbe12c7bd	-0.14334007
249	0xbdf334ae	-0.11875282
250	0x3d45402e	0.04815691
251	0xbe0edf12	-0.13952282
252	0x3d2e3056	0.042526565
253	0xbe2fd283	-0.17170148
254	0xbe330f1f	-0.17486237
255	0xbe353142	-0.17694572

bn.weight f4 [512]
0	0x3f338351	0.7012225
1	0x3f4213d6	0.7581152
2	0x3eac9698	0.33708644
3	0x3ebe36bf	0.37151143
4	0x3f2b7389	0.6697317
5	0x3e433e6c	0.19066781
6	0x3e3cdece	0.18444368
7	0x3f3aec55	0.73016864
8	0x3f82923b	1.0200876
9	0x3e9cb85c	0.30609405
10	0x3efb9590	0.49137545
11	0x3d5acc8d	0.05341773
12	0x3f44ea26	0.7691978
13	0x3f136b6d	0.57585794
14	0x3ea7b5c0	0.32755852
15	0x3f2d5c16	0.67718637
16	0x3f4818e9	0.7816301
17	0x3ed78272	0.4209171
18	0x3f1fa42d	0.6235989
19	0x3f316e78	0.69309187
20	0x3ed271fe	0.41102594
21	0x3cfbfdeb	0.030760726
22	0x3f6da78a	0.9283377
23	0x3e886cd8	0.2664554
24	0x3f2a935b	0.66631097
25	0x3f101807	0.5628666
26	0x3d133cd7	0.035946693
27	0x3f358e06	0.70919836
28	0x3ee7d552	0.45279938
29	0x3f35ca1d	0.71011525
30	0x3f1f7785	0.6229175
31	0x3f369770	0.71324825
32	0x3ed66320	0.418725
33	0x3f1298be	0.57264316
34	0x3f225198	0.6340575
35	0x3e610469	0.21974339
36	0x3f6bd660	0.92123985
37	0x3ea2c6cf	0.31792304
38	0x3f2a03d5	0.664121
39	0x3ea83330	0.32851553
40	0x3f04eadd	0.5192087
41	0x3f42f170	0.76149654
42	0x3ec44701	0.38335422
43	0x3ee55352	0.4479013
44	0x3f4bc02d	0.7959011
45	0x3e8b8961	0.2725325
46	0x3f626a97	0.88443893
47	0x3f7ad337	0.9797854
48	0x3e918e9f	0.28429124
49	0x3ea34750	0.31890345
50	0x3f49d2fb	0.78837556
51	0x3e887852	0.26654297
52	0x3f05897f	0.5216293
53	0x3f1a2a0f	0.60220426
54	0x3f47a61a	0.77987826
55	0x3eedd4b7	0.4645135
56	0x3ed06956	0.40705365
57	0x3f4c848f	0.7988977
58	0x3f078b6b	0.5294711
59	0x3eb8dd21	0.36106208
60	0x3f637d15	0.88862735
61	0x3f4dbdb0	0.80367565
62	0x3f1f9d66	0.62349546
63	0x3ed07cba	0.4072016
64	0x3e75f950	0.24020886
65	0x3ec4fff8	0.3847654
66	0x3ed808f0	0.4219432
67	0x3f01a0d8	0.50636053
68	0x3f64f7da	0.8944069
69	0x3eddb5cf	0.4330277
70	0x3f85cb0f	1.0452594
71	0x3ebbbe76	0.36668748
72	0x3f329b4c	0.69768214
73	0x3f3bddb7	0.73385185
74	0x3ef8ec15	0.48617616
75	0x3f01ebb8	0.50750303
76	0x3f29e0ee	0.6635884
77	0x3f4030f9	0.75074726
78	0x3f0eb89c	0.5575044
79	0x3f0d890a	0.5528723
80	0x3f0795e4	0.5296309
81	0x3f5e5b7b	0.8685834
82	0x3eb377a6	0.35052222
83	0x3f209b74	0.627372
84	0x3ecf5335	0.4049317
85	0x3ecaa76d	0.3958086
86	0x3eb15974	0.3463856
87	0x3ee84242	0.4536305
88	0x3f378c99	0.7169891
89	0x3d424dbc	0.047437415
90	0x3ef56794	0.47930586
91	0x3f60d1b9	0.8782001
92	0x3e75d9af	0.24008821
93	0x3f093198	0.535913
94	0x3ed362f6	0.4128644
95	0x3e18d4e1	0.14924957
96	0x3f21a3c6	0.63140523
97	0x3f433326	0.7624992
98	0x3efe4ebb	0.49669442
99	0x3f616fa5	0.8806098
100	0x3f49f526	0.7888969
101	0x3d28e49a	0.041233636
102	0x3ee2b3c1	0.44277766
103	0x3f0cdf98	0.55028677
104	0x3ef8d13c	0.48597133
105	0x3ee46bc4	0.4461347
106	0x3f09211c	0.53566146
107	0x3ea5b04d	0.3236107
108	0x3ec3b5e0	0.38224697
109	0x3eee5dca	0.4655593
110	0x3f0f4504	0.55964684
111	0x3f109405	0.5647586
112	0x3e89cfa8	0.26916242
113	0x3f2fad86	0.6862415
114	0x3f8c53e6	1.0963104
115	0x3f1e9ebb	0.61960953
116	0x3f20c3c7	0.6279873
117	0x3f27133e	0.65263736
118	0x3f72f9dd	0.9491251
119	0x3ed4498d	0.41462365
120	0x3f53ac46	0.82684743
121	0x3d747d9a	0.059690095
122	0x3eded6b7	0.4352319
123	0x3f20a344	0.62749124
124	0x3f535461	0.82550627
125	0x3f7d0c0d	0.98846513
126	0x3ed5bc6b	0.41745314
127	0x3f034bbb	0.5128743
128	0x3f0866eb	0.5328204
129	0x3f23de52	0.6401111
130	0x3f1f2b9e	0.6217593
131	0x3ee3aa95	0.4446608
132	0x3ed5a232	0.41725308
133	0x3f3889cc	0.7208526
134	0x3e413872	0.18869188
135	0x3ec52845	0.38507286
136	0x3ecaead7	0.39632294
137	0x3f5302fa	0.82426417
138	0x3f3e14b8	0.74250364
139	0x3f1a209f	0.60206026
140	0x3f2b1d0a	0.66841185
141	0x3f5e1b3b	0.867603
142	0x3ec5a0dc	0.38599288
143	0x3f491bde	0.78558147
144	0x3f45aff3	0.772216
145	0x3f2bc834	0.6710236
146	0x3f622293	0.88334006
147	0x3f1d89f2	0.6153861
148	0x3f423b29	0.7587152
149	0x3f4058a8	0.7513528
150	0x3e20e7cd	0.15713425
151	0x3eb773ad	0.3583044
152	0x3eca6619	0.3953102
153	0x3ebc9f47	0.3684027
154	0x3f1e6886	0.6187824
155	0x3e9d8814	0.30767882
156	0x3f6752b3	0.90360564
157	0x3f1b437b	0.6064984
158	0x3f23f678	0.64047956
159	0x3eb5589a	0.3541916
160	0x3ef7b1e7	0.48377916
161	0x3ee9b6f4	0.45647395
162	0x3e8aa1bd	0.27076522
163	0x3ee91f7a	0.45531827
164	0x3e844932	0.25837094
165	0x3ec22424	0.37918198
166	0x3e9d8c14	0.30770934
167	0x3eecaeea	0.462272
168	0x3ef969cc	0.4871353
169	0x3ec806ca	0.3906768
170	0x3f1fce81	0.62424475
171	0x3ea3f8cd	0.32025757
172	0x3f4987b1	0.78722674
173	0x3f1cc382	0.6123582
174	0x3eeaf0d8	0.45886874
175	0x3ef6362a	0.480882
176	0x3f27d1f1	0.6555472
177	0x3f8f0936	1.1174686
178	0x3f41aac9	0.7565122
179	0x3f2a91b0	0.6662855
180	0x3ec2e552	0.38065583
181	0x3ee93c3f	0.45553777
182	0x3ef6227d	0.48073187
183	0x3f499fe0	0.78759575
184	0x3e7b0153	0.24512224
185	0x3f6621ca	0.8989531
186	0x3ead162c	0.33805978
187	0x3f34fa90	0.7069483
188	0x3e998f87	0.29992315
189	0x3efee240	0.4978199
190	0x3f18b2e6	0.5964798
191	0x3f25d47b	0.64777344
192	0x3eb37832	0.3505264
193	0x3ed08196	0.40723866
194	0x3f013cc8	0.5048337
195	0x3f34ae54	0.70578504
196	0x3f09c1ac	0.53811145
197	0x3f5e020d	0.8672188
198	0x3f3e2f71	0.7429114
199	0x3efcbb00	0.4936142
200	0x3e82a93a	0.25519735
201	0x3f06d8aa	0.52674353
202	0x3f1e296b	0.6178195
203	0x3e7b3269	0.24530949
204	0x3f0eb1f2	0.55740273
205	0x3f3499c8	0.7054715
206	0x3ed95162	0.42444903
207	0x3f2f071a	0.6837021
208	0x3f0900ec	0.5351703
209	0x3f499f63	0.7875883
210	0x3f12f67a	0.57407343
211	0x3e8eefa0	0.27917194
212	0x3e9777d1	0.295836
213	0x3f1bfc9a	0.60932314
214	0x3ef97ddf	0.48728845
215	0x3e71e44d	0.23622246
216	0x3f1d39d6	0.61416376
217	0x3e972637	0.29521343
218	0x3f4621bf	0.7739524
219	0x3f215652	0.6302234
220	0x3f19d7b6	0.60094774
221	0x3f5b670e	0.85704124
222	0x3ea01310	0.31264544
223	0x3efa8b77	0.48934528
224	0x3f149b6e	0.58049667
225	0x3f18c68e	0.5967797
226	0x3f1a7919	0.6034103
227	0x3f0f2805	0.5592044
228	0x3f3b2130	0.73097515
229	0x3eed093f	0.46296117
230	0x3f0d99aa	0.553126
231	0x3ee0aba7	0.4388096
232	0x3eef6b15	0.46761385
233	0x3f0c3a13	0.54776114
234	0x3f5247c4	0.82140756
235	0x3eb633f7	0.3558652
236	0x3f17703a	0.5915562
237	0x3f03231f	0.51225466
238	0x3e7b2fee	0.24530002
239	0x3ecd5aae	0.40108246
240	0x3f0811fa	0.5315243
241	0x3efeb5bf	0.49748036
242	0x3ed57179	0.41688135
243	0x3d264fc3	0.04060341
244	0x3f226eb6	0.6345018
245	0x3f2b8738	0.670032
246	0x3f678ab8	0.90446043
247	0x3f62919f	0.8850345
248	0x3edbd903	0.42939004
249	0x3f3fd010	0.74926853
250	0x3f25825d	0.64652044
251	0x3f1fdc94	0.6244595
252	0x3ee4979e	0.44646925
253	0x3eba87c9	0.3643172
254	0x3f00862c	0.5020473
255	0x3f347c07	0.7050175

bn.bias f4 [512]
0	0xba7c6dd1	-0.0009629401
1	0x3e2ccbc0	0.168746
2	0xbd39918d	-0.045304824
3	0xbd9d8b56	-0.07692592
4	0x3dc514f6	0.096231386
5	0xbe369db8	-0.17833602
6	0xbe24a6d3	-0.16079263
7	0x3d82f754	0.0639483
8	0x3e220ee2	0.1582599
9	0x3dc602f5	0.09668533
10	0x3ce9bd52	0.028532658
11	0xbe2708fc	-0.16312021
12	0x3dd83534	0.10557023
13	0x3c032c76	0.008006206
14	0x3de88f24	0.11355427
15	0xbcd978ec	-0.026546918
16	0x3d0ba557	0.034093227
17	0x3dd723c7	0.10504871
18	0x3c55fc20	0.0130606
19	0x3dac1461	0.084023245
20	0x3d9439d8	0.07237595
21	0x3e8946e8	0.2681191
22	0x3dd6bf83	0.10485747
23	0xbde058b9	-0.109544225
24	0xbddd86bc	-0.10816714
25	0x3c68d670	0.014211282
26	0xbe19b657	-0.15010963
27	0xbcb927b1	-0.022601934
28	0xbd69897a	-0.057015873
29	0x3d281b9a	0.041041948
30	0x3e300afe	0.17191693
31	0xbc85d189	-0.016335266
32	0x3cb06afc	0.02153539
33	0x3b64e98c	0.0034929244
34	0x3df1fbf3	0.118156336
35	0x3d39d445	0.04536845
36	0xbc8699f8	-0.01643084
37	0xbe0aa20c	-0.13538378
38	0xbd95c81e	-0.0731356
39	0x3d2fc700	0.04291439
40	0xbde188e2	-0.110124364
41	0x3e2fb7f0	0.1716001
42	0x3d9318ae	0.07182442
43	0x3e04919e	0.12946174
44	0x3e1d4850	0.15359616
45	0xbc83d9c4	-0.01609505
46	0xbb5991cd	-0.0033198476
47	0x3e323f58	0.17406976
48	0xbd5cc463	-0.053898226
49	0x3d9423ad	0.07233367
50	0xbc1d5c0c	-0.009604465
51	0xbdf2db45	-0.118582286
52	0xbdcf47ed	-0.10121141
53	0xbbcda4a7	-0.0062757316
54	0x3d459942	0.04824186
55	0x3e4c9067	0.1997696
56	0x3dbf5295	0.09341923
57	0x3c96488c	0.01834514
58	0xbbfc3bfa	-0.0076975795
59	0x3bd1c0ce	0.006401158
60	0xbc88d290	-0.016701967
61	0x3dac0ab4	0.08400479
62	0x3d57250d	0.05252557
63	0x3d32a486	0.043613933
64	0x3dec2795	0.11530987
65	0xbcdb673d	-0.026782626
66	0x3be904b5	0.007111157
67	0xbe0c9ef9	-0.13732518
68	0xbd979f74	-0.0740346
69	0xbe038c09	-0.12846388
70	0xbd7f0779	-0.062262986
71	0xbdb85f8a	-0.09002598
72	0xbdfb1183	-0.122591995
73	0xbc07ac8c	-0.0082808845
74	0xbd1e219a	-0.038606264
75	0x3de165df	0.110057585
76	0x3d426d9f	0.047467824
77	0xbdaf2b3b	-0.085531674
78	0x3d3c7f2b	0.046019714
79	0x3c9562be	0.01823556
80	0x3d0e456e	0.034734182
81	0x3e16394c	0.14670295
82	0xbda0a49f	-0.07843899
83	0x3e258fe2	0.16168168
84	0x3bfc173b	0.007693199
85	0x3dc8c7f7	0.09803765
86	0xbbb54dc9	-0.0055329544
87	0x3de4885d	0.11158822
88	0x3d025247	0.031816747
89	0x3e8c7b64	0.2743789
90	0xbe6393e3	-0.22224383
91	0x3e204508	0.15651333
92	0x3d305b99	0.043056104
93	0x3a78b0f7	0.0009486819
94	0xbc64380b	-0.013929377
95	0xbe429115	-0.19000657
96	0xbd6bf3f1	-0.057605688
97	0x3e1e6f22	0.15472081
98	0xbe4a616e	-0.19763729
99	0xbde89185	-0.11355881
100	0x3d8c0529	0.06836922
101	0xbe92d118	-0.2867515
102	0xbbc8c8ec	-0.0061274674
103	0x3d6e2b6c	0.05814688
104	0x3e1bb30d	0.15205021
105	0xbc59cda2	-0.013293656
106	0x3cf0a342	0.029374722
107	0x3e353ee4	0.17699772
108	0x3e1c377e	0.15255544
109	0xbdb4c638	-0.0882687
110	0x3e1dbb74	0.15403539
111	0x3d7172c5	0.058947343
112	0x3d416e7d	0.04722451
113	0x3e19da91	0.15024783
114	0x3d15ea8e	0.036600642
115	0x3de4a603	0.11164477
116	0xbd7d1c4b	-0.06179456
117	0xbd56a66c	-0.052404806
118	0xbd7dd8d3	-0.061974358
119	0xbe0a68eb	-0.13516586
120	0x3cb3fa2c	0.021969877
121	0xbe734800	-0.23757935
122	0xbd8db513	-0.06919303
123	0xba9daf08	-0.0012030313
124	0x3de564aa	0.11200841
125	0x3dc75ce8	0.09734517
126	0x3d1dd6d6	0.03853496
127	0x3e255449	0.16145433
128	0xbe024dd8	-0.12725008
129	0xbe1ee12b	-0.15515582
130	0xbddb3b08	-0.10704619
131	0x3dddd3b6	0.10831396
132	0x3d874534	0.06604996
133	0x3daf7774	0.08567706
134	0xbe1473ab	-0.14497249
135	0xbc7dc20b	-0.015488158
136	0x3d6df005	0.05809023
137	0xbcf27b2a	-0.029599745
138	0x3bed8e60	0.0072496384
139	0xbdf26b01	-0.118368156
140	0xbcdb5006	-0.026771557
141	0xbbe2ddec	-0.006923428
142	0x3e545c1e	0.20738265
143	0x3e316319	0.17322959
144	0x3e5764a9	0.21034493
145	0xbd532fad	-0.05155914
146	0xbcfbff04	-0.03076125
147	0x3e4576c3	0.19283585
148	0xbdc7322c	-0.097263664
149	0x3d49d0c1	0.04927135
150	0x3dc56faa	0.09640439
151	0x3e5132e9	0.20429577
152	0xbb14bc3b	-0.0022695202
153	0xbce43220	-0.027855933
154	0x3d900a85	0.070332564
155	0x3d9c8f67	0.07644539
156	0x3e37f018	0.17962682
157	0x3d872d85	0.06600479
158	0xbc8eb59e	-0.017420586
159	0x3ce63aa5	0.028104136
160	0x3e2253bd	0.15852256
161	0xbcdded40	-0.027090669
162	0x3df8a1c0	0.12140226
163	0xbd108299	-0.035280798
164	0x3b8eff04	0.0043638963
165	0xbd5c1b17	-0.053736772
166	0xbe323772	-0.17403963
167	0xbb2c5ae5	-0.0026299295
168	0x3dce7b81	0.1008215
169	0xbd167f20	-0.03674233
170	0x3dd654ac	0.10465369
171	0x3dd62b27	0.104574494
172	0xbc0c2d21	-0.008555681
173	0x3e1a7982	0.15085414
174	0x3cb5d710	0.022197276
175	0xbc7466d2	-0.014917092
176	0x3dad67bc	0.084670514
177	0x3dd99f2c	0.10626063
178	0x3db8564a	0.09000833
179	0x3d446be0	0.04795444
180	0x3e2efee2	0.17089418
181	0x3d7abae3	0.061213385
182	0x3e12ca55	0.14334996
183	0xbd7a2c2c	-0.06107728
184	0xbd197af9	-0.03747079
185	0x3e2e3a78	0.17014492
186	0xbe490df6	-0.19634232
187	0x3dcc244d	0.09967861
188	0x3cea65a4	0.02861292
189	0xba9cfc13	-0.001197698
190	0xbdccc1c0	-0.099978924
191	0xbe4ed5fd	-0.20198818
192	0x3d3390d9	0.04383931
193	0xbe180c37	-0.1484841
194	0xbc8aa197	-0.016922755
195	0x3d9f5047	0.077789836
196	0xbd872b93	-0.06600108
197	0xbd6e212c	-0.058137104
198	0x3d6954ab	0.05696551
199	0x3d01cbc8	0.03168848
200	0xbe633bf8	-0.22190845
201	0xbd058510	-0.0325976
202	0x3e4a4ef3	0.19756679
203	0xbe9828af	-0.2971854
204	0xbdd0b899	-0.10191459
205	0xbdc0adb8	-0.09408134
206	0x3d38124f	0.044939335
207	0x3e0af9f9	0.1357192
208	0xbcb57be9	-0.022153812
209	0x3d08bc3c	0.03338264
210	0xba283a50	-0.00064173806
211	0xbda9dd71	-0.0829419
212	0x3e1ae910	0.15127969
213	0x3d6f68b2	0.058449455
214	0xbe0bafab	-0.13641231
215	0xbe4ad374	-0.19807225
216	0x3d80623a	0.06268735
217	0x3e160868	0.14651644
218	0x3b0acddf	0.0021179838
219	0x3dd6eb7f	0.10494136
220	0x3e033736	0.1281403
221	0x3d8d6adc	0.069051474
222	0xbe18880f	-0.14895652
223	0xbd821f8e	-0.06353675
224	0x3dab8c39	0.08376355
225	0x3e0dcaf0	0.13846946
226	0x3d9541a6	0.07287912
227	0x3c7c5395	0.015400787
228	0x3e1ed0c2	0.15509322
229	0xbe46ef19	-0.19427146
230	0x3ca9db47	0.020734442
231	0x3d900ccc	0.07033691
232	0xbb85af4b	-0.0040797344
233	0x3c82353c	0.015894525
234	0xbd155ff4	-0.03646846
235	0x3d7069e8	0.05869475
236	0x3e0a1694	0.13485175
237	0x3d848acc	0.06471786
238	0xbda2f6cd	-0.0795723
239	0x3cae32fa	0.021264542
240	0xbc539cfe	-0.012915848
241	0x3b85112b	0.0040608845
242	0xbbf84d9e	-0.007577612
243	0xbe8446e8	-0.25835347
244	0x3d474f5d	0.04865967
245	0x3bd5c36f	0.0065235416
246	0x3e286831	0.16445996
247	0x3d8f34dd	0.06992505
248	0x3a90e35c	0.0011054086
249	0x3dda4bde	0.10659002
250	0x3cb66b56	0.022267979
251	0x3d9d86fc	0.07691762
252	0x3e20d599	0.15706481
253	0xbd8a9332	-0.067663565
254	0x3dcd4724	0.100233346
255	0x3d06f8a1	0.032951955
