model_ddpg_actor.pth (torch_old, 613401 bytes, 14 tensors)

fc1.weight f4 [512, 33]
0	0x3c30a8d7	0.010782442
1	0xbc6859e3	-0.014181587
2	0xbd67f0e5	-0.05662622
3	0xba9706bd	-0.0011522394
4	0xbd389639	-0.04506514
5	0xbe1ee88c	-0.15518397
6	0xbc8c3609	-0.01711561
7	0xbc1027c6	-0.008798545
8	0x3c8ce978	0.01720117
9	0x3c83378e	0.016017701
10	0xbc5ae7a3	-0.013360891
11	0x3d30aa13	0.043130945
12	0xba94e007	-0.0011358269
13	0xbca32d5b	-0.019919088
14	0xbcc2a77e	-0.023761507
15	0x3c9f4c21	0.01944548
16	0x3c2b3aec	0.01045106
17	0xbc40c761	-0.011766286
18	0xbd04c40f	-0.03241354
19	0x3c9330eb	0.017967662
20	0xbc2ebbff	-0.010664939
21	0x3d837e45	0.064205684
22	0x3c582b58	0.013193928
23	0x3c68109c	0.014164116
24	0xbc16a261	-0.009193988
25	0xbb0176ba	-0.0019754604
26	0x3c202721	0.009774954
27	0x3d24809a	0.040161707
28	0xbd04ad53	-0.032391857
29	0x3ce190da	0.02753489
30	0xbdb24e29	-0.08706314
31	0xbd291329	-0.04127804
32	0x3eca2246	0.39479274
33	0xbc406dea	-0.011744956
34	0x3d146bab	0.036235493
35	0x3dca6ce0	0.098840475
36	0x3d287373	0.041125726
37	0x3d73306a	0.059372343
38	0xbe05ca49	-0.13065447
39	0x3e11bb93	0.1423171
40	0x3c31f3a0	0.010861307
41	0xbdffc14b	-0.124880396
42	0x3d22fcd1	0.039791886
43	0x3c4375a1	0.0119299
44	0x3b905d58	0.0044056587
45	0x3d1457d3	0.03621657
46	0x3bcdbfe3	0.006278978
47	0x3b2fcaf0	0.002682384
48	0x3d58f8ba	0.05297158
49	0x3e43f032	0.19134596
50	0x3d3af7bb	0.04564641
51	0xbd7688ce	-0.06018906
52	0xbdc3be52	-0.09557785
53	0xbcb73a95	-0.022366801
54	0x3d69afd0	0.057052433
55	0xbd93cdc5	-0.07216982
56	0x3cca9bd6	0.024732511
57	0x3c0e71b9	0.008694106
58	0x395b5f84	0.0002092105
59	0xbadd85c4	-0.0016900827
60	0xbce4cb66	-0.02792902
61	0xbd95f669	-0.0732239
62	0x3c9222c4	0.017838843
63	0x3d600b7d	0.054698456
64	0x3c85cd40	0.016333222
65	0xbddd5410	-0.10807049
66	0x3c7717e3	0.015081379
67	0x3d75d7aa	0.060020126
68	0xbc67056b	-0.014100413
69	0xbc8aa2ff	-0.016923426
70	0xbe881186	-0.2657587
71	0x3d866622	0.06562449
72	0x3d668119	0.05627546
73	0x3d3ec300	0.046572685
74	0x3d537ae4	0.05163087
75	0x3d62c51d	0.055363763
76	0xbbaeb16c	-0.005331209
77	0x3c048c23	0.008090052
78	0xbc7b6af4	-0.015345324
79	0xbcd821f7	-0.026383383
80	0xbbec154b	-0.0072046868
81	0x3d23f6f9	0.040030453
82	0xbe419cf6	-0.18907532
83	0x3d247d53	0.04015858
84	0x3d1e5f45	0.038665075
85	0xbe3e2ca5	-0.18571718
86	0x3b56af64	0.003275835
87	0x3cb2dd37	0.021834
88	0xbb9134b5	-0.004431332
89	0xbcc62119	-0.024185704
90	0xbd492526	-0.049107693
91	0xbcac61b4	-0.021042682
92	0x3beabeb2	0.007163846
93	0xbbedb448	-0.007254157
94	0xbcec23e7	-0.028825713
95	0x3bfb3df0	0.0076672956
96	0xbc0f58ec	-0.008749228
97	0xbc8b1b3c	-0.01698076
98	0x3bfdb873	0.0077429353
99	0xbd93d3b1	-0.07218111
100	0x3d4545c2	0.04816223
101	0xbc280b6b	-0.0102566285
102	0xbb8ebaef	-0.0043557803
103	0x3c2d83c5	0.010590498
104	0x3e6e7446	0.23286542
105	0x3d91a7a5	0.07112054
106	0xbd089024	-0.03334059
107	0x3ca59eda	0.020217348
108	0xbd2cdc08	-0.042202026
109	0xbd459414	-0.04823692
110	0x3d09f23e	0.033678286
111	0xbd0b5169	-0.034013186
112	0xbdc9e10f	-0.0985738
113	0x3cfd1543	0.030893927
114	0x3c8003cc	0.01562681
115	0x3c2e3144	0.010631863
116	0xbd12fbe7	-0.035884764
117	0xbbcf59ef	-0.0063278596
118	0xbd845714	-0.06461921
119	0xbce4a964	-0.027912803
120	0xbd495776	-0.049155675
121	0x3d03159e	0.032003038
122	0xbcd694fd	-0.02619409
123	0x3c8edc1a	0.017438937
124	0xbc2699a4	-0.010168467
125	0xbc9bfa3a	-0.019040216
126	0x3dea87c4	0.114516765
127	0x3d2fa1e5	0.042879004
128	0xbc38c610	-0.0112776905
129	0xbde770cf	-0.113008134
130	0xbc5f406a	-0.013626197
131	0xbc6970d6	-0.014248094
132	0xbd9c8357	-0.076422386
133	0x3d2d29d3	0.042276215
134	0x3c9dd79d	0.019267851
135	0xbd803d3b	-0.06261679
136	0xbdcf5be0	-0.10124946
137	0xbe8c84f3	-0.27445182
138	0x3c82dcce	0.015974429
139	0xbc0d88e3	-0.008638593
140	0xbd9c8626	-0.07642774
141	0x3daa797d	0.08323953
142	0xbbf876ea	-0.007582535
143	0x3ca9bb94	0.020719327
144	0x3c5232e5	0.012829517
145	0x3d88fdb0	0.06689012
146	0xbd8ae87b	-0.067826234
147	0x3a69bb73	0.0008916177
148	0xbc9c9a31	-0.019116493
149	0x3d67e0ad	0.056610752
150	0x3e153bcb	0.1457359
151	0x3c811cf5	0.015760878
152	0x3be40948	0.006959114
153	0xbd634098	-0.055481523
154	0x3c33e90f	0.0109808585
155	0xb914d4c9	-0.00014193649
156	0x3ba1bc9f	0.0049358155
157	0x3c4073f7	0.011746398
158	0x3d2a9f38	0.04165575
159	0x3d60b624	0.054861203
160	0xbc98cbd3	-0.018651878
161	0xbd31ff1b	-0.04345618
162	0xbdb2028a	-0.086918905
163	0xbb855100	-0.004068494
164	0xbe160829	-0.1465155
165	0x3d2df00b	0.04246525
166	0x3d8654ab	0.06559118
167	0xbaac6793	-0.0013153426
168	0xbcd67cb5	-0.026182512
169	0x3d679f71	0.05654854
170	0xbe4e178b	-0.20126168
171	0x3c8ab1f6	0.016930562
172	0xbbd6a8be	-0.0065508774
173	0xbd0ec404	-0.034854904
174	0xbd4b89ed	-0.049692083
175	0xbc80eee6	-0.015738916
176	0x3c4276ce	0.011869146
177	0xbd605556	-0.054768883
178	0x3c985677	0.018595917
179	0x3d8bf0eb	0.06833061
180	0xbd7b6cd2	-0.061383076
181	0xbd10d8fe	-0.03536319
182	0x3da01a5c	0.07817528
183	0xbbf62d11	-0.0075126966
184	0xbd8da6cc	-0.069165796
185	0x3b21f273	0.0024711161
186	0xbcee381e	-0.029079493
187	0x3ca9c609	0.020724313
188	0xbad0c32b	-0.0015927305
189	0x3cdb832d	0.026795948
190	0xbd2b8b10	-0.041880667
191	0xbda1ddb9	-0.07903618
192	0x3ccf5f76	0.025314074
193	0x3c49a80e	0.012308134
194	0xbcd8e43c	-0.026476018
195	0x3ca1088f	0.019657401
196	0xbd23d400	-0.0399971
197	0xbdfecf5a	-0.12441893
198	0x3d8eeba7	0.06978541
199	0x3d123ef0	0.035704553
200	0xbd458dd8	-0.048230976
201	0x3d07de8d	0.033171225
202	0xbdd43cb4	-0.10363141
203	0x3d8528dc	0.06501934
204	0xbe3d0b38	-0.18461311
205	0xbca6b27f	-0.020348785
206	0x3c42c047	0.011886663
207	0x3da1cc6b	0.07900318
208	0xbcfb8d65	-0.03070707
209	0x3b72bbd2	0.003703822
210	0xbc3f6f43	-0.011684242
211	0xbcb8c3b9	-0.022554265
212	0x3d6e4541	0.058171514
213	0x3d2f2e03	0.04276849
214	0x3ca43352	0.020044003
215	0x3e131392	0.14362934
216	0xbe5cbfbb	-0.21557514
217	0x3b96ae21	0.0045983945
218	0x3ce45716	0.027873557
219	0xbaeef3ab	-0.0018230578
220	0x3d42732e	0.047473125
221	0xbbd87132	-0.006605291
222	0xbbf3e298	-0.0074427836
223	0xbd1bafd9	-0.0380095
224	0xbcd589b5	-0.02606664
225	0xbc44d3df	-0.012013405
226	0xbbcd7323	-0.006269829
227	0xbaa62aa0	-0.0012677498
228	0xbd6ce1a3	-0.05783237
229	0xbd1df471	-0.038563196
230	0x3e823ac3	0.25435457
231	0xbca04846	-0.019565713
232	0xbca4ace9	-0.020101981
233	0x3dcec26e	0.10095678
234	0xbe01c628	-0.12673247
235	0xbdb18a3a	-0.08668943
236	0x3cf99fc6	0.030471694
237	0xbd66a66d	-0.05631106
238	0x3d41e129	0.04733387
239	0xbcd86be9	-0.026418643
240	0x3dd9baaf	0.1063131
241	0x3ca37bc9	0.019956486
242	0x3c884900	0.016636372
243	0x3d3903e6	0.045169733
244	0xbd554526	-0.0520679
245	0x3c818e65	0.01581497
246	0x3c497a6f	0.012297257
247	0xbe49c023	-0.197022
248	0xbd9fd203	-0.078037284
249	0x3d9771c2	0.073947445
250	0x3e0b8b57	0.13627373
251	0xbd4210b4	-0.04737921
252	0xbcdddd6c	-0.027083121
253	0x3afaf3e2	0.0019146169
254	0x3c7f6f8e	0.015590562
255	0x3cd7ac1c	0.026327185

fc1.bias f4 [512]
0	0xbe0787d9	-0.13235416
1	0xbde3d445	-0.111244716
2	0xbe290063	-0.16504054
3	0xbde07ead	-0.109616615
4	0xbe22182b	-0.15829532
5	0xbe1a4e66	-0.15068969
6	0x3e140ff7	0.14459215
7	0xbe44bfa5	-0.19213732
8	0xbe087ce0	-0.13328886
9	0x3d00c5b5	0.031438548
10	0xbe496354	-0.19666797
11	0xbc24a96b	-0.010050158
12	0xbdf87602	-0.12131883
13	0xbe0cf897	-0.13766704
14	0xbd0a1fad	-0.033721615
15	0xbdb00c79	-0.08596129
16	0xbdf1d1ee	-0.11807619
17	0xbd206d22	-0.039166577
18	0xbd5897f1	-0.052879278
19	0x3dfa7a5d	0.1223037
20	0xbddeb83c	-0.10874984
21	0x3df57b0f	0.11986362
22	0xbe0e6e62	-0.13909295
23	0xbdabeb79	-0.08394522
24	0xbd0aaca5	-0.033856053
25	0x3d6b20e1	0.057404403
26	0x3d10432a	0.035220303
27	0x3d6de73b	0.058081847
28	0xbdc223ae	-0.094794616
29	0xbdb251c6	-0.08707003
30	0xbcfd1cdc	-0.03089755
31	0x3d1833ad	0.037158657
32	0x3b2bff04	0.002624453
33	0xbc7d816e	-0.015472753
34	0xbc33fb57	-0.010985217
35	0x3d146b99	0.036235426
36	0xbdcaf18b	-0.09909352
37	0xbe42c71b	-0.19021265
38	0x3e0d41e9	0.13794674
39	0xbc4f1d12	-0.012641208
40	0x3de2b1ea	0.11069091
41	0x3d3a6b11	0.045512263
42	0xbd8a080a	-0.067398146
43	0xbe581e4f	-0.21105312
44	0xbe8bb62c	-0.27287424
45	0xbde2873a	-0.11060949
46	0x3d33893a	0.04383204
47	0xbd45fba6	-0.048335694
48	0xbd7cd4d7	-0.061726417
49	0xbe0bae86	-0.13640794
50	0xbcea04f2	-0.028566811
51	0xbe0f314f	-0.13983653
52	0x3c4ef633	0.012631941
53	0xbe2b9604	-0.16756445
54	0xbccd4fa0	-0.025062382
55	0x3c634526	0.013871467
56	0xbd31b69f	-0.04338705
57	0xbe4501c2	-0.19238952
58	0x3d5b3a30	0.05352229
59	0xbe5f4afb	-0.21805947
60	0xbe4ef7a6	-0.20211658
61	0xbe13df86	-0.14440736
62	0xbe46a44c	-0.19398612
63	0x3d2003fb	0.039066296
64	0x3d8feb01	0.07027245
65	0x3dc45850	0.09587157
66	0xbc6a63e2	-0.0143060405
67	0xbe152c47	-0.14567672
68	0xbad7eb57	-0.0016473335
69	0xbcaa9d08	-0.020826831
70	0xbe690db5	-0.22759135
71	0xbdcad614	-0.099041134
72	0xbc88957a	-0.016672838
73	0x3dc8a9c1	0.09798003
74	0x3d915eb0	0.07098138
75	0xbdcbc650	-0.099499345
76	0xbe1fcffc	-0.15606683
77	0x3d6794fb	0.056538563
78	0x3db831b8	0.08993858
79	0xbdd05591	-0.101725705
80	0x3e293281	0.16523172
81	0xbde707e8	-0.11280805
82	0xbdb504be	-0.08838795
83	0xbca58899	-0.020206736
84	0x3d465f8c	0.048430964
85	0xbe4f1f36	-0.2022675
86	0x3cdfcf06	0.027320396
87	0xbe048a4b	-0.1294338
88	0xbd61483e	-0.055000536
89	0x3d5a7a2c	0.05333917
90	0xbe1c501c	-0.15264934
91	0xbe20ebcf	-0.15714954
92	0x3d29be2b	0.041441124
93	0x3d4ca85d	0.04996525
94	0xbce50886	-0.027958166
95	0xbe0b7e05	-0.13622291
96	0xbc7e08c4	-0.01550502
97	0xbd4cb7bc	-0.04997991
98	0x3da58312	0.0808164
99	0xbd8ef5ad	-0.06980453
100	0xbd8cb1db	-0.06869861
101	0xbd531ff1	-0.051544134
102	0x3d898a48	0.06715828
103	0xbd705c9f	-0.05868208
104	0xbdcfe0c1	-0.1015029
105	0xbe21e3ea	-0.15809599
106	0x3d7e290b	0.06205086
107	0x3dab47ce	0.08363305
108	0xbe32e92d	-0.17471762
109	0xbe1f4855	-0.15554936
110	0x3d96c7cd	0.07362328
111	0xbdf41db3	-0.11919727
112	0x3db21b63	0.0869663
113	0xbc888653	-0.016665613
114	0xbd88c243	-0.066776775
115	0xbdf2e893	-0.11860766
116	0xbd973c7d	-0.07384584
117	0x3ca2d269	0.019875722
118	0xbe5bfaf5	-0.21482451
119	0xbe02e3ef	-0.12782262
120	0xbe24a460	-0.16078329
121	0xbda59d2e	-0.0808662
122	0xbe14e6ad	-0.14541121
123	0xbe001495	-0.12507851
124	0xbdfd1bc3	-0.12358811
125	0xbd494d1f	-0.049145814
126	0x3b3f24c5	0.0029166203
127	0x3c3a6ea7	0.011378921
128	0xbd98877f	-0.07447719
129	0x3da2c9ab	0.07948621
130	0xbe2af8e4	-0.16696507
131	0xbdcafa77	-0.09911054
132	0xbd33e3e9	-0.043918524
133	0xbdea4c42	-0.11440326
134	0x3c947959	0.01812427
135	0x3d6f84ba	0.058476187
136	0x3dc90213	0.09814849
137	0x3d8102f6	0.06299393
138	0x3d13a4af	0.036045726
139	0xbdc76d16	-0.09737603
140	0x3dc2a662	0.09504391
141	0xbdd3f1ec	-0.10348877
142	0xbd6dc6c6	-0.058050893
143	0xbdcb84ba	-0.09937425
144	0xbdba6ac3	-0.091023944
145	0xbe107b9c	-0.14109653
146	0xbe1e6fc4	-0.15472323
147	0xbe4b6ef2	-0.19866541
148	0xbd9a878f	-0.07545387
149	0xbddf830c	-0.10913667
150	0xbe5e65ee	-0.2171857
151	0xbe23418d	-0.15942974
152	0x3cc64576	0.024203043
153	0xbd3265cc	-0.043554112
154	0xbde83c27	-0.11339598
155	0x3d778e75	0.060438592
156	0xbdae1a01	-0.085010536
157	0xbe1c2845	-0.15249737
158	0xbd0332d5	-0.0320309
159	0x3d00e982	0.03147269
160	0xbddc8e57	-0.10769337
161	0xbe1d846a	-0.15382543
162	0xbd870949	-0.06593568
163	0x3d0f895f	0.035043117
164	0xbe2da0b6	-0.16955838
165	0xbdafc035	-0.085815825
166	0xbe56cb84	-0.20976073
167	0x3c42be06	0.011886125
168	0xbd863688	-0.0655337
169	0xbd960fd2	-0.07327236
170	0xbe33a98b	-0.17545144
171	0xbced97a8	-0.02900298
172	0xbcbdde3f	-0.023177264
173	0x3d1eb0f6	0.03874298
174	0xbd8230a3	-0.06356933
175	0xbe2d538e	-0.16926405
176	0xbe6f4cfc	-0.23369211
177	0xbd86511d	-0.0655844
178	0x3d9ce4aa	0.07660802
179	0xbe744b15	-0.23856767
180	0xbdd0ebc4	-0.10201219
181	0x3da9edc1	0.08297301
182	0x3dc8c4a6	0.09803133
183	0xbe1e426e	-0.15455028
184	0xbe8073c2	-0.25088316
185	0x3e0c550d	0.1370432
186	0xbe0ac650	-0.13552213
187	0x3cff7a77	0.031186325
188	0xbe5917ea	-0.21200529
189	0x3c9d467c	0.019198649
190	0xbd421688	-0.04738477
191	0xbd1bef85	-0.03807022
192	0xbd907bfc	-0.07054898
193	0xbc020432	-0.007935571
194	0xbe06e4e2	-0.1317325
195	0xbe147c54	-0.14500552
196	0xbe19b17a	-0.15009108
197	0x3d5e6ec1	0.054304842
198	0xbe05652d	-0.13026877
199	0xbda3e0e0	-0.08001876
200	0xbcc3797b	-0.023861637
201	0x3d6e6dc9	0.058210168
202	0xbe4c8eab	-0.19976299
203	0x3d04b26b	0.032396715
204	0x3cf69984	0.030102499
205	0x3b1ad675	0.0023626362
206	0xbd9dff4d	-0.077147104
207	0xbe56710b	-0.2094156
208	0xbe1d8a5b	-0.1538481
209	0x3e071227	0.13190518
210	0xbe0b31f3	-0.13593273
211	0xbe5b1fcb	-0.21398847
212	0xbda3b8ca	-0.0799423
213	0x3c9bb28b	0.019006034
214	0xbe4afa45	-0.19822033
215	0xbd5dd43a	-0.054157473
216	0x3d390dba	0.045179106
217	0xbd86db82	-0.065848365
218	0xbe2d7650	-0.16939664
219	0xbdadef81	-0.08492947
220	0xbd5c4c9f	-0.05378401
221	0xbcd7a04c	-0.026321553
222	0xbe76f042	-0.24115089
223	0xbc3d8c7d	-0.01156914
224	0xbd4a5d82	-0.049405582
225	0x3d2cd175	0.04219194
226	0xbe0fe9b8	-0.14054
227	0x3c6bb02b	0.014385263
228	0xbd8412e7	-0.06448918
229	0xbb9f50f4	-0.0048619453
230	0xbe6dd7b6	-0.23226818
231	0xbe05446a	-0.13014379
232	0xbe68fae0	-0.22751951
233	0xbd0577ad	-0.032584835
234	0xbe7e0787	-0.24807559
235	0x3d986dce	0.074428186
236	0xbe74748f	-0.23872589
237	0x3c7c2979	0.015390747
238	0xbdd0382b	-0.10166963
239	0xbe488573	-0.19582157
240	0x3c79d3d4	0.015248258
241	0xbe1eba42	-0.15500739
242	0xbd65530c	-0.055987403
243	0x3dcb24e6	0.09919147
244	0xbe00a477	-0.12562738
245	0xbe0b668e	-0.1361334
246	0x3d9ef5e3	0.07761743
247	0xbd714e63	-0.058912646
248	0x3b813702	0.003943325
249	0xbd7b62ca	-0.06137351
250	0xbddd50d6	-0.10806434
251	0xbd8d9f20	-0.06915116
252	0xbd07dbb0	-0.033168495
253	0xbe21cb9c	-0.15800327
254	0xbdedb340	-0.11606455
255	0xbe479e48	-0.19493973

fc2.weight f4 [256, 512]
0	0xbe47e188	-0.19519627
1	0x3ddde357	0.10834377
2	0x3c820781	0.015872719
3	0xbc021ac9	-0.007940956
4	0xbcfc9943	-0.0308348
5	0xbcffa007	-0.031204237
6	0xbd0d5f92	-0.03451497
7	0x3d81fde6	0.063472554
8	0x3d3ddaa2	0.046351083
9	0xbd5e9f80	-0.05435133
10	0x3cc6aaef	0.02425143
11	0x3d82335a	0.06357451
12	0xbd94adb7	-0.07259696
13	0x3c2d663f	0.010583459
14	0xbb4317bd	-0.0029768788
15	0xbd8dada0	-0.06917882
16	0xbd300829	-0.042976532
17	0xbd9c1444	-0.07621053
18	0xbce1beeb	-0.027556857
19	0xbda15a08	-0.078785
20	0xbd6aa0db	-0.05728231
21	0x3d120dee	0.035657816
22	0x3ce4d108	0.027931705
23	0xbda08a4c	-0.07838878
24	0xbd34f4ad	-0.044178654
25	0xbbb4167b	-0.005495844
26	0xbd963b86	-0.07335572
27	0x3d8e3ced	0.069452144
28	0xbba92804	-0.005162241
29	0x3d620936	0.055184565
30	0xbd7b96c4	-0.06142308
31	0x3d4df11b	0.050278764
32	0xbbac1717	-0.005251776
33	0xbaad198a	-0.0013206464
34	0x3d3d9f77	0.046294656
35	0xbd50162b	-0.05080239
36	0xbd910bf0	-0.07082355
37	0xbd10a5b7	-0.035314288
38	0x3d9ceff2	0.076629534
39	0xbd3ba44b	-0.04581098
40	0x3d6cc70b	0.05780701
41	0xba02613c	-0.00049735955
42	0xbc9d314f	-0.019188551
43	0x3dafda41	0.085865505
44	0xbbf95e97	-0.007610153
45	0x3d7ed62f	0.06221598
46	0xbc243e15	-0.010024567
47	0x3bb8b2ef	0.005636565
48	0xbd415a13	-0.047205042
49	0xbb53a5f0	-0.0032294951
50	0xbdb6b4e9	-0.089212246
51	0xbda767f4	-0.08174124
52	0xbd4cd837	-0.050010886
53	0x3dff1e6f	0.124569766
54	0xbc8d4016	-0.017242473
55	0x3ca4676a	0.020068843
56	0xbbafc0dc	-0.005363567
57	0xbd71c77f	-0.059028145
58	0x3c4bf0af	0.01244752
59	0xbc8e4c3a	-0.017370332
60	0xbd2aed91	-0.041730467
61	0x3d680536	0.056645595
62	0x3c20efc1	0.009822787
63	0x3d567be9	0.052364264
64	0x3d5e7be6	0.054317378
65	0xbdce93e9	-0.100868054
66	0x3b1eef5f	0.0024251563
67	0x3d2bec02	0.04197312
68	0xbb9508ba	-0.0045481594
69	0xbd1dcbc8	-0.03852442
70	0xbc53f31a	-0.012936378
71	0xbd8329e5	-0.06404475
72	0xbd5e9777	-0.054343667
73	0x3ce5720d	0.028008485
74	0xbd87ad9c	-0.0662491
75	0xbd5e4102	-0.054261215
76	0x3d2895a8	0.04115835
77	0xbc2a8a51	-0.010408954
78	0xbbf9eaad	-0.0076268525
79	0x3de54e04	0.11196521
80	0x3d1671d2	0.03672964
81	0x3cdf787f	0.027279137
82	0x3e5217db	0.20516913
83	0xbb6c6c86	-0.0036075427
84	0xbd3adbba	-0.045619704
85	0xbcafe8c1	-0.02147329
86	0x3d3a23fa	0.045444466
87	0x3da0d058	0.078522384
88	0xbd62cb3e	-0.055369608
89	0xbd2e0a4b	-0.042490285
90	0xbcfa55cb	-0.030558487
91	0xbd3f7a5c	-0.04674755
92	0x3d72fc44	0.05932261
93	0xbb7094f9	-0.0036709888
94	0xbd0ef468	-0.034901053
95	0x3d8ef052	0.06979431
96	0xbd6228be	-0.055214636
97	0xbd49b584	-0.049245372
98	0xbdc5fd5c	-0.09667465
99	0xbd4f7582	-0.050649174
100	0xbc87769c	-0.01653605
101	0xbd169240	-0.03676057
102	0x3b5e14bb	0.0033886868
103	0x3c78370b	0.015149842
104	0x3c4b5e33	0.012412596
105	0x3cf6c24b	0.030121943
106	0x3be982f2	0.0071262056
107	0xbcba4f96	-0.022743028
108	0x3cec96ca	0.028880496
109	0x3d337329	0.043810997
110	0x3d02e9a2	0.03196109
111	0xbdb7dd73	-0.08977785
112	0x3cdbea6d	0.026845181
113	0x3d7b38f9	0.06133363
114	0xbdbc51a4	-0.09195259
115	0x3d5cce56	0.053907715
116	0xbd92df6a	-0.07171519
117	0xbd468628	-0.048467785
118	0xbd91f554	-0.07126871
119	0xbacece0f	-0.0015777963
120	0x3c654428	0.0139933005
121	0xbd8f08a7	-0.06984072
122	0x3d9bbd57	0.07604473
123	0xbdaee396	-0.08539502
124	0xbc3ce5bb	-0.011529381
125	0x3da80a7d	0.082051255
126	0x3d299d2a	0.04140965
127	0xbdaba8f2	-0.08381833
128	0x3ca108f1	0.019657584
129	0x3e218bcb	0.15775983
130	0x3d37605d	0.044769634
131	0x3a4b9cd5	0.0007767205
132	0xbaa33324	-0.0012451154
133	0x3d6c7acb	0.057734292
134	0xbd8eb512	-0.0696813
135	0xbc1488d8	-0.009065829
136	0x3de9d85b	0.1141822
137	0xbbc7e402	-0.0061001787
138	0x3d58cf63	0.052932154
139	0xbc3c83fd	-0.011506078
140	0xbd8ded00	-0.0692997
141	0xbd0e106b	-0.034683626
142	0xbccc3311	-0.024926694
143	0xbd548852	-0.051887818
144	0xbc3d0d84	-0.011538867
145	0x3cd780d9	0.026306557
146	0xbbb4ba97	-0.0055154073
147	0xbdd07a88	-0.10179621
148	0x3d06ec52	0.032940216
149	0x3c65b7f8	0.014020912
150	0xbe202d45	-0.15642269
151	0x3c8f0727	0.017459465
152	0xbd8e95bf	-0.069621556
153	0x3cfea0d7	0.031082554
154	0xbcd9f4f6	-0.026606064
155	0x3d990874	0.074723154
156	0xb9e29a39	-0.00043220984
157	0x3d2b84c2	0.041874655
158	0xbd8f20ae	-0.06988655
159	0xb9a484fd	-0.00031379602
160	0xbd98f188	-0.074679434
161	0x3c950ae4	0.01819367
162	0x3d9407c9	0.072280474
163	0xbdd83ba6	-0.10558252
164	0xbdb63636	-0.08897059
165	0x3c652a95	0.013987203
166	0xbdf55d57	-0.11980694
167	0x3d10fa2b	0.03539483
168	0xbd40772c	-0.04698865
169	0xbd56a43a	-0.052402712
170	0x3ce4175b	0.027843168
171	0xbdb7d45c	-0.08976051
172	0x3cb86d9b	0.022513201
173	0xbd885be4	-0.06658152
174	0xbd4db7c2	-0.050224073
175	0xbc0ae66d	-0.008477789
176	0xbd01e80e	-0.031715445
177	0x3d06bc8b	0.032894652
178	0xbd0697e4	-0.032859698
179	0xbcda7f4c	-0.026672028
180	0xbda46732	-0.080274954
181	0x3d6339c2	0.055475004
182	0xbd14f0fe	-0.03636264
183	0xbd0be23a	-0.034151293
184	0x3c22909a	0.009922171
185	0xbbcab8a7	-0.006186563
186	0xbce9b444	-0.02852834
187	0x3d5cc726	0.05390086
188	0x3d2bd96d	0.0419554
189	0xbd6057a5	-0.054771084
190	0x3daeb842	0.08531238
191	0xbc8d71c7	-0.017266167
192	0xbce5ebd9	-0.028066562
193	0xba34184a	-0.00068700744
194	0x3dd50f2a	0.10403283
195	0x3ce7ac4e	0.028280403
196	0x3cfc5500	0.03080225
197	0xbd069c18	-0.032863706
198	0xbc77bec9	-0.01512117
199	0x3daceb35	0.084433
200	0xbd58bb8d	-0.052913237
201	0x3d88c0ce	0.066773996
202	0x3d6c0e07	0.057630565
203	0xbd3cb232	-0.046068378
204	0x3cab4a61	0.02090949
205	0xbd45ef46	-0.048323892
206	0xbcc40faf	-0.02393326
207	0xbd6e3295	-0.058153708
208	0x3ccdcf23	0.025123185
209	0x3c451910	0.012029901
210	0xbd0612be	-0.032732718
211	0x3c0f75bd	0.008756098
212	0xbcb82a5f	-0.022481142
213	0xbdaf1956	-0.08549754
214	0x3c4337dd	0.011915174
215	0xbd89dbec	-0.067314
216	0xbc68662e	-0.014184518
217	0x3d902577	0.07038396
218	0xbd04a6f4	-0.03238578
219	0xbd4f054f	-0.050542172
220	0x3d1f7ecd	0.038939286
221	0xbcef30ea	-0.029198129
222	0x3cd54bbf	0.026037095
223	0xbd01edd1	-0.03172094
224	0xbca5233c	-0.020158403
225	0x3d169b1a	0.03676901
226	0x3d0b8cc8	0.034069806
227	0xbd39c481	-0.045353416
228	0xbd96ccb3	-0.07363262
229	0xbdffa1fb	-0.12482067
230	0xbcbf065a	-0.023318458
231	0xbd89a402	-0.06720735
232	0xbd11d1dc	-0.035600528
233	0x3d83061e	0.06397651
234	0xbd2f1647	-0.042745855
235	0x3cfcb54c	0.030848168
236	0x3d923f1c	0.071409434
237	0x3d072b7d	0.033000458
238	0x3d15bcfc	0.036557183
239	0xbc5eb8ae	-0.013593836
240	0x3d211c5d	0.03933369
241	0x3c11eecd	0.008907032
242	0x3be78b51	0.0070661684
243	0x3d1d4848	0.03839901
244	0xbd99e4cc	-0.07514343
245	0x3d2aca11	0.04169661
246	0x3d5e82d8	0.054324
247	0xbca38b89	-0.019963996
248	0xbccbc36c	-0.024873458
249	0xbc4eea28	-0.012629069
250	0x3d748cce	0.059704594
251	0xbcc4414e	-0.023956921
252	0x3c62b189	0.013836273
253	0xbcabffb8	-0.02099596
254	0x3d494eae	0.0491473
255	0x3c0caa17	0.008585474

fc2.bias f4 [256]
0	0xbdcd4df5	-0.10024635
1	0x3b02048f	0.0019839143
2	0xbdca2c2c	-0.09871706
3	0xbd2bcbe6	-0.0419425
4	0xbe159219	-0.14606513
5	0xbc97e291	-0.018540652
6	0xbd48371b	-0.048880678
7	0xbdb1fbc5	-0.08690599
8	0xbd715bb7	-0.058925357
9	0xbd2b8a24	-0.041879788
10	0xbdbb719c	-0.09152529
11	0xbdf7599f	-0.12077641
12	0xbc7b41f8	-0.015335552
13	0xbd88a6b8	-0.06672424
14	0xbd042c05	-0.032268543
15	0xbd052a15	-0.032510836
16	0xbd68fdf6	-0.05688282
17	0xbdc15a35	-0.09441034
18	0xbd6f3926	-0.05840411
19	0xbd121f3a	-0.03567431
20	0xbd919a3e	-0.071094975
21	0xbdcf1b79	-0.10112662
22	0xbda4fc4f	-0.080559365
23	0xbd7ee911	-0.06223399
24	0xbdbd5276	-0.09244244
25	0xbce8aebc	-0.028403632
26	0xbd823abd	-0.0635886
27	0xbe01536b	-0.12629478
28	0xbdc005b7	-0.0937609
29	0xbd914158	-0.070925415
30	0xbc4e54f6	-0.012593498
31	0xbddc5049	-0.10757501
32	0xbd99f2be	-0.075170025
33	0xbcfd665e	-0.030932602
34	0xbd90548c	-0.07047376
35	0xbd7f72b6	-0.062365256
36	0xbdf3515f	-0.11880755
37	0xbddd9b6a	-0.108206585
38	0xbdaec26a	-0.08533175
39	0xbd3e621c	-0.046480283
40	0xbd3bf728	-0.045890003
41	0xbd5d6cbd	-0.05405878
42	0xbdb623c1	-0.08893538
43	0xbe2073b3	-0.15669136
44	0xbdb7a7e1	-0.08967567
45	0xbd784f2b	-0.060622375
46	0xbdc5f141	-0.09665156
47	0xbb7b3d22	-0.0038335999
48	0xbcac79e0	-0.021054208
49	0xbd67b2bb	-0.056566935
50	0xbd1fa5d5	-0.03897651
51	0xbc9f59c6	-0.019451987
52	0xbdd35c4d	-0.10320339
53	0xbd0de7ba	-0.03464482
54	0xbdaac189	-0.08337695
55	0xbde4ed14	-0.111780316
56	0xbdade51a	-0.08490963
57	0xbd8e7476	-0.06955807
58	0xbd211cdc	-0.039334163
59	0xbcb6a911	-0.022297414
60	0xbd866676	-0.065625116
61	0xbdf1b5dd	-0.11802266
62	0xbcb9d289	-0.022683399
63	0xbd5b4259	-0.05353007
64	0x3bdf79aa	0.0068199234
65	0xbdb1da67	-0.08684235
66	0xbd10a68a	-0.035315074
67	0xbd80a00e	-0.06280528
68	0xbda302cf	-0.0795952
69	0xbdeab774	-0.11460772
70	0xbd49bbd0	-0.049251378
71	0xbd2b2b8b	-0.041789573
72	0xbdbdee0d	-0.0927392
73	0xbcd518e7	-0.02601285
74	0xbbe2d51b	-0.006922377
75	0xbd9f1bea	-0.07768996
76	0xbcf87b3f	-0.030332206
77	0xbdfbf48f	-0.12302505
78	0x3c9b6893	0.018970763
79	0xbd870013	-0.06591811
80	0xbddbdc14	-0.10735336
81	0xbd223a3d	-0.03960632
82	0xbdfef50a	-0.12449081
83	0xbe23b0ed	-0.1598546
84	0xbca188d2	-0.019718561
85	0xbd9db149	-0.0769983
86	0xbd981100	-0.074251175
87	0xbd4c4e8c	-0.049879596
88	0xbdf60cc8	-0.120141566
89	0x3c995c55	0.018720785
90	0xbcebc1d8	-0.028778955
91	0xbcf4e917	-0.029896302
92	0xbda8e996	-0.08247678
93	0xbd10c849	-0.035347257
94	0x3ccd2230	0.025040716
95	0xb9bd719c	-0.00036133535
96	0xbc5638d2	-0.01307507
97	0xbde60998	-0.112322986
98	0xbdd38210	-0.10327542
99	0xbdede657	-0.116161995
100	0xbdcd1c17	-0.10015123
101	0xbd6d067e	-0.05786752
102	0xbda3a0b5	-0.07989637
103	0xbceb08db	-0.028690746
104	0xbcda0a9e	-0.02661639
105	0x3bf899b5	0.0075866827
106	0xbd005bb3	-0.03133745
107	0xbdc60e7a	-0.0967073
108	0xbde40378	-0.11133474
109	0xbdabe8a6	-0.083939835
110	0xbdb9a7c9	-0.090652056
111	0xbcd3d980	-0.025860548
112	0xbd3e6ce5	-0.04649057
113	0xbd9e15c0	-0.07718992
114	0xbda3c177	-0.07995885
115	0xbd2e4463	-0.042545687
116	0xbdae8734	-0.08521882
117	0xbd652129	-0.055939827
118	0xbe176f1a	-0.14788476
119	0xbc8cbf7f	-0.017181156
120	0xbdae7ed8	-0.08520287
121	0xbb5c9b87	-0.0033662037
122	0xbe09607d	-0.13415714
123	0xbda9ccd0	-0.08291018
124	0xbcfb8f3b	-0.030707946
125	0xbc905afb	-0.017621508
126	0xbd97d8d1	-0.07414401
127	0xbdd8d14a	-0.10586794
128	0xbd8a0629	-0.06739456
129	0xbcddbe43	-0.027068263
130	0xbda1c5dc	-0.07899067
131	0xbda65e95	-0.08123509
132	0xbd9990d0	-0.07498324
133	0xbcdcc62f	-0.02694997
134	0xbe14e5cf	-0.1454079
135	0xbd18861f	-0.037237283
136	0xbdb57120	-0.088594675
137	0xbcc7e946	-0.024403226
138	0xbdad02d9	-0.08447809
139	0xbc1e0f0c	-0.009647142
140	0xbd779254	-0.060442284
141	0xbc677313	-0.014126557
142	0xbd13de17	-0.036100473
143	0xbdc654b9	-0.09684128
144	0xbd20c805	-0.039253253
145	0xbc8664c2	-0.016405467
146	0xbde3ea22	-0.11128642
147	0xbc9eaa4f	-0.019368319
148	0xbd96a1be	-0.073550686
149	0xbdacaa7f	-0.08430957
150	0xbdd8aa18	-0.10579318
151	0xbc0b21cc	-0.0084919445
152	0xbd8a16de	-0.06742643
153	0xbd90a447	-0.070625834
154	0xbd723b81	-0.05913878
155	0xbdb70e29	-0.08938248
156	0xbc30d487	-0.010792858
157	0xbe061e1d	-0.13097425
158	0xbd45beb5	-0.048277576
159	0xbd606d18	-0.05479154
160	0xbd251b79	-0.040309403
161	0xbd50e0d1	-0.05099565
162	0xbdb085e8	-0.086192906
163	0xbd570f07	-0.052504566
164	0xbdb21b31	-0.086965926
165	0xbe1be975	-0.15225776
166	0xbdd282cf	-0.10278856
167	0xbdf63e69	-0.120236225
168	0xbd23e7bf	-0.040015932
169	0xbc69b6fa	-0.014264816
170	0xbcf400ec	-0.029785596
171	0xbdeef925	-0.11668614
172	0xbe07f8a0	-0.13278437
173	0xbdabe73a	-0.08393712
174	0xbdf8bcb4	-0.12145367
175	0xbd1d182c	-0.03835313
176	0xbd899676	-0.06718151
177	0xbceab28c	-0.02864959
178	0x3be65891	0.007029601
179	0xbdc826ad	-0.09773002
180	0x3c5f835c	0.013642158
181	0xbdcbda43	-0.099537395
182	0xbdbbd841	-0.091721065
183	0xbd8cc084	-0.06872657
184	0xbe153eee	-0.14574787
185	0xbdbd25fe	-0.09235762
186	0xbd5bd8c0	-0.053673506
187	0x3cb617fc	0.022228234
188	0xbca29a0c	-0.019848846
189	0xbe059a71	-0.13047196
190	0xbdc4ddf9	-0.096126504
191	0xbd9a2683	-0.07526877
192	0xbd4f9db4	-0.050687507
193	0xbdae4cf0	-0.085107684
194	0xbd93847d	-0.072030045
195	0xbda38ba4	-0.07985619
196	0xbd2651a0	-0.040605187
197	0xbd806dd8	-0.06270951
198	0xbd93ced6	-0.07217185
199	0xbd3d9eab	-0.046293896
200	0xbdf9c392	-0.12195505
201	0xbe0aa12f	-0.13538049
202	0xbd0f9a69	-0.035059366
203	0xbd8da58a	-0.0691634
204	0xbdb4a971	-0.08821381
205	0xbb9c8f3b	-0.0047778166
206	0xbc5b58e7	-0.013387895
207	0xbd09bc4c	-0.03362684
208	0xbda1aa47	-0.07893806
209	0xbd7c0b53	-0.061534237
210	0xbd7477e1	-0.059684638
211	0xbc9826b1	-0.018573137
212	0xbda5aed1	-0.08089984
213	0xbd505022	-0.05085767
214	0xbd68c407	-0.05682757
215	0xbdd9d142	-0.10635616
216	0xbcd8a96b	-0.026447972
217	0xbd9481ef	-0.07251345
218	0xbd92876a	-0.071547344
219	0xbd5d32b2	-0.054003425
220	0xbdb6f06a	-0.08932574
221	0xbbcc7c87	-0.0062404308
222	0xbddb2f82	-0.10702421
223	0xbd8173b3	-0.06320896
224	0xbd1bfd85	-0.038083572
225	0x3d4e0ba3	0.050304066
226	0xbe200201	-0.15625764
227	0xbcdb11d7	-0.026741905
228	0xbd90a400	-0.070625305
229	0xbdbae08b	-0.091248594
230	0x3cd4b6ef	0.025966136
231	0xbc262612	-0.010140913
232	0xbdc4482c	-0.09584078
233	0xbdda107c	-0.106476754
234	0xbdbbf3a7	-0.09177332
235	0xbe0ca314	-0.13734084
236	0xbdbaff72	-0.091307536
237	0x3b3909e9	0.0028234667
238	0xbdc8e960	-0.09810138
239	0xbd47284a	-0.048622407
240	0xbd568b60	-0.052379012
241	0xbd43f60f	-0.04784208
242	0xbdbde426	-0.092720315
243	0x3d19b39c	0.037524804
244	0xbd8b17b2	-0.06791629
245	0xbda6e85a	-0.08149786
246	0xbd871fee	-0.06597887
247	0xbdb5585e	-0.08854745
248	0xbd950c51	-0.0727774
249	0xbdd2f2bc	-0.10300204
250	0xbde7dad2	-0.113210335
251	0xbd391bd8	-0.04519257
252	0xbd17c4d1	-0.037052933
253	0xbd91705e	-0.071015105
254	0xbd790e08	-0.060804397
255	0xbd6f2c3f	-0.058391806

fc3.weight f4 [4, 256]
0	0x3eaaba57	0.3334529
1	0xbdba93dc	-0.09110233
2	0x3d7004c9	0.058598313
3	0xbe4ea792	-0.2018111
4	0xbd2b4eb3	-0.0418231
5	0x3d5b5d18	0.053555578
6	0xbeafd3b1	-0.34341195
7	0x3f07437e	0.5283736
8	0x3dffdcf5	0.12493316
9	0xbdf7c4fb	-0.12098118
10	0x3da631b2	0.081149474
11	0xbeb18980	-0.34675217
12	0x3e86cd2f	0.26328418
13	0xbd161a87	-0.036646392
14	0x3db62c64	0.088951856
15	0x3e74d045	0.23907574
16	0xbe3acb2a	-0.18241563
17	0x3db76b98	0.08956069
18	0x3cb854ac	0.022501312
19	0x3ea6ac43	0.325533
20	0xb9862053	-0.00025582555
21	0xbf485d3b	-0.7826726
22	0x3f1c22bc	0.609905
23	0xbe4efa8d	-0.20212765
24	0xbe814c1e	-0.25253385
25	0x3bccd135	0.0062505254
26	0xbd61dea8	-0.055143982
27	0xbe2216e2	-0.15829042
28	0xbf24e743	-0.6441538
29	0xbe12e015	-0.14343293
30	0xbd2fe686	-0.042944454
31	0xbd674412	-0.0564614
32	0xbe357692	-0.17721012
33	0x3e908dfd	0.28233328
34	0x3d912bac	0.07088408
35	0xbf072579	-0.52791554
36	0xbe43e31a	-0.19129601
37	0x3e8e6a5e	0.27815527
38	0x3f08f7b6	0.53502977
39	0x3ebc3f31	0.3676696
40	0x3e879497	0.26480553
41	0x3e4c4df6	0.19951615
42	0xbf2ea095	-0.6821378
43	0x3e9931f8	0.29920936
44	0xbdb5fb3a	-0.08885808
45	0x3d0778c2	0.033074148
46	0xbe191a39	-0.1495141
47	0xbca89874	-0.020580508
48	0x3e350bd5	0.17680295
49	0xbe72831d	-0.23682828
50	0xbe3f6dbf	-0.18694209
51	0x3e52224f	0.205209
52	0x3dc968b2	0.09834422
53	0xbcba7e68	-0.022765353
54	0xbc6fd523	-0.014638218
55	0xbe831b26	-0.2560665
56	0x3e8a2ebe	0.26988786
57	0x3e735fb7	0.23766981
58	0x3e6c0922	0.23050359
59	0xbdec2fab	-0.115325294
60	0x3f35c48d	0.7100304
61	0x3dd4b225	0.10385541
62	0x3eb02f7a	0.34411222
63	0xbde19521	-0.11014772
64	0x3e192c12	0.14958218
65	0xbdcc50a7	-0.09976321
66	0x3d162511	0.036656443
67	0xbdad162f	-0.08451497
68	0xbe4e00bd	-0.20117469
69	0x3d4c0f27	0.049819138
70	0xbe85dd59	-0.26145437
71	0xbdb53933	-0.088488005
72	0xbe1ac7a4	-0.1511522
73	0x3e8fc3e0	0.28079128
74	0xbe777237	-0.24164663
75	0x3e8344a5	0.2563831
76	0x3eded9a2	0.43525416
77	0x3e91d461	0.28482345
78	0x3e882ea6	0.2659809
79	0xbefd78fd	-0.4950637
80	0x3d5f29dd	0.054483283
81	0x3db32948	0.08748108
82	0x3da9e950	0.08296454
83	0xbd017eee	-0.03161519
84	0xbf14eab5	-0.58170635
85	0x3b0c2652	0.0021385145
86	0x3d6ff99c	0.058587655
87	0x3e12dcde	0.14342067
88	0x3e82a231	0.25514367
89	0xbd2ca153	-0.04214604
90	0xbde7ab4c	-0.11311969
91	0x3e52f8c3	0.20602708
92	0xbe85c7d9	-0.26129034
93	0xbd6c8690	-0.057745516
94	0xbdf3a8b7	-0.11897414
95	0xbe4a930a	-0.19782653
96	0x3e47b168	0.19501269
97	0xbe1ded1c	-0.15422481
98	0x3e69e3d9	0.22840823
99	0xbf262e15	-0.64914066
100	0x3e337462	0.17524865
101	0xbe52714f	-0.20551036
102	0x3cd95b1f	0.026532708
103	0xbcd18556	-0.025576275
104	0xbc3ace76	-0.011401763
105	0x3ee86f13	0.45397243
106	0xbeaeeaa1	-0.34163383
107	0xbef61fb3	-0.4807106
108	0x3ea57e60	0.3232298
109	0xbedcc0bf	-0.43115804
110	0xbe541951	-0.20712782
111	0xbe8cb50e	-0.27481884
112	0x3ebafcd7	0.36521026
113	0xbf440072	-0.7656318
114	0x3c971fe1	0.018447818
115	0x3f04e5ed	0.5191334
116	0xbd8cb5cd	-0.06870613
117	0xbd3de602	-0.04636193
118	0xbe149c30	-0.14512706
119	0x3dfcda4a	0.12346323
120	0x3e0d0edf	0.13775204
121	0xbe4a7a1c	-0.19773144
122	0x3e3b9fea	0.18322721
123	0x3eb6dc67	0.3571503
124	0xbe19e84a	-0.15030017
125	0x3caec8b9	0.021335946
126	0xbdac9779	-0.084273286
127	0xbd0f21b9	-0.03494427
128	0x3e461303	0.1934319
129	0x3e049e9c	0.1295113
130	0xbec0551f	-0.37564942
131	0x3dd0e95e	0.10200761
132	0x3eb56d99	0.3543518
133	0x3e9f8cca	0.311621
134	0xbbdab9aa	-0.006674965
135	0x3f1d928b	0.6155173
136	0x3e87ec7d	0.26547614
137	0x3eed6a37	0.46370098
138	0xbe2e514f	-0.17023204
139	0xbec3d82e	-0.3825087
140	0x3c308ae1	0.010775299
141	0xbce1a346	-0.027543675
142	0xbe653f7c	-0.22387499
143	0xbf348b7f	-0.70525354
144	0x3edb98fc	0.42890155
145	0x3edb3614	0.42814696
146	0xbe94d486	-0.29068393
147	0x3df4423d	0.119266964
148	0xbbb5b160	-0.0055448264
149	0xbe01113f	-0.12604235
150	0xbf10f6e7	-0.56626743
151	0xbe761c40	-0.24034214
152	0xbe40aab6	-0.18815121
153	0x3e7681ab	0.24072902
154	0x3ed58217	0.41700813
155	0xbf5d9521	-0.8655568
156	0xbceffc50	-0.029295117
157	0xbf4481db	-0.76760644
158	0x3da435b8	0.080180585
159	0xbdf5aa79	-0.11995406
160	0xbdcac681	-0.09901143
161	0x3f01e8c5	0.50745803
162	0x3ec56c6c	0.38559282
163	0x3eb6189a	0.35565645
164	0xbea47f97	-0.32128593
165	0xbea07b76	-0.31344193
166	0xbe264145	-0.16235836
167	0xbeea96b6	-0.45818108
168	0x3ce38c39	0.027776824
169	0x3e08b67c	0.13350862
170	0x3e6c9af8	0.23105991
171	0xbe9a3c5a	-0.3012417
172	0x3da6adff	0.08138656
173	0xbdbb30fb	-0.09140202
174	0x3e879ab4	0.26485217
175	0x3dd37600	0.10325241
176	0x3f3b510b	0.73170537
177	0xbdb2da57	-0.08733051
178	0xbea7f65a	-0.3280514
179	0xbe0db562	-0.13838723
180	0x3e839806	0.25701922
181	0xbef24dfe	-0.47325128
182	0x3e4eeb16	0.20206866
183	0xbed6e538	-0.41971755
184	0x3d875e6b	0.06609806
185	0xbd30e93e	-0.043191187
186	0x3ecd1698	0.400563
187	0xbebf8b32	-0.37410885
188	0x3e0d379e	0.13790748
189	0xbddcdf0b	-0.107847296
190	0xbe43eb7a	-0.19132796
191	0x3d1b02b0	0.03784436
192	0x3d272ecd	0.040816117
193	0x3eb10f74	0.34582102
194	0xbbca7da8	-0.00617953
195	0xbe68f6b7	-0.22750364
196	0x3e1d60c6	0.15368947
197	0x3e87e915	0.26545015
198	0x3e6885d3	0.227073
199	0xbdc04e7f	-0.09389972
200	0xbde312f4	-0.110875994
201	0x3ec45403	0.38345346
202	0x3f00c7ca	0.50304854
203	0x3eacd723	0.33757886
204	0x3f0a241e	0.5396136
205	0xbe1369eb	-0.14395873
206	0x3f0f842d	0.5606106
207	0xbe284ab8	-0.16434753
208	0x3dc1ca1d	0.09462378
209	0x3e91a0c2	0.2844296
210	0x3e837758	0.2567699
211	0xbe94f42a	-0.29092532
212	0x3d835489	0.06412608
213	0xbea05ae4	-0.31319344
214	0x3e95aeea	0.2923501
215	0xbde6e619	-0.112743564
216	0xbde081bf	-0.10962247
217	0x3e811925	0.25214496
218	0x3d8536cd	0.06504593
219	0x3ebd351b	0.3695458
220	0x3e26870a	0.16262451
221	0xbd36268d	-0.04447036
222	0xbf28dd65	-0.6596282
223	0x3f12d87a	0.5736157
224	0x3f26c89f	0.65149873
225	0xbe04ed05	-0.12981041
226	0x3da025b9	0.07819695
227	0xbd9c3a6e	-0.07628332
228	0xbd30cce6	-0.043164156
229	0x3e997746	0.2997381
230	0x3dc67ddd	0.09691975
231	0xbeea5ea4	-0.4577533
232	0xbdc39119	-0.095491596
233	0xbe0483b3	-0.12940864
234	0x3bf9cc11	0.0076232036
235	0xbf4196aa	-0.7562052
236	0x3dfaf8df	0.122545
237	0x3d864552	0.065561906
238	0x3eb70236	0.35743874
239	0xbe7b67d5	-0.24551328
240	0x3e5f3a5e	0.21799609
241	0x3edbec21	0.4295359
242	0xbeb0119f	-0.34388444
243	0xbe53cdbf	-0.20683955
244	0x3f01aea9	0.50657135
245	0xbe044127	-0.12915479
246	0xbe9b130d	-0.30287972
247	0xbeaee4b5	-0.34158865
248	0x3bb4a121	0.005512372
249	0xbeae9596	-0.340985
250	0x3e0d6a05	0.13809974
251	0xbd575a15	-0.052576143
252	0x3e0e0fba	0.13873187
253	0x3ef0a09a	0.4699753
254	0x3e23c655	0.15993626
255	0x3ce73c30	0.028226942

fc3.bias f4 [4]
0	0x3c8a808a	0.016906995
1	0x3dc89ede	0.097959265
2	0xbce8dc50	-0.028425366
3	0x3cd3bd85	0.025847206

bn1.weight f4 [512]
0	0x3ee5377b	0.4476889
1	0x3ea9d689	0.3317149
2	0x3eff0541	0.49808696
3	0x3ece2f5f	0.40270516
4	0x3f0eccea	0.55781424
5	0x3ee471cf	0.4461808
6	0x3ef2d843	0.4743062
7	0x3f0aac9f	0.5416965
8	0x3f567f00	0.83787537
9	0x3f42c291	0.76078135
10	0x3f46592d	0.7747982
11	0x3f03f53c	0.5154607
12	0x3ed95591	0.42448094
13	0x3f080af8	0.53141737
14	0x3ecc7a34	0.39936984
15	0x3f36e8a4	0.7144873
16	0x3ea9a814	0.33136046
17	0x3f37b3d2	0.7175876
18	0x3e9491d6	0.29017514
19	0x3f36056f	0.7110204
20	0x3f01ed2c	0.5075252
21	0x3f231a13	0.6371166
22	0x3eebd144	0.46058095
23	0x3f08b4b5	0.5340074
24	0x3f4cb2e4	0.79960465
25	0x3e503796	0.20333704
26	0x3f37a322	0.71733296
27	0x3ea7ff38	0.32811904
28	0x3f3dfd83	0.74214953
29	0x3f1cb3d0	0.6121187
30	0x3f4c4ad5	0.79801685
31	0x3ea17464	0.31534111
32	0x3f768b2b	0.96306103
33	0x3f14f07d	0.58179456
34	0x3f2e8d34	0.6818421
35	0x3ebf42ed	0.37355748
36	0x3e565770	0.20931792
37	0x3f19594e	0.59901893
38	0x3efe6a54	0.49690497
39	0x3f14f284	0.5818255
40	0x3f4df0b2	0.80445397
41	0x3f6cfb2f	0.92570776
42	0x3eeaa1d7	0.458266
43	0x3e68abe3	0.2272182
44	0x3ecdee04	0.40220654
45	0x3f2107f8	0.62902784
46	0x3f482d36	0.78193986
47	0x3f4ad97c	0.79238105
48	0x3f2c5d88	0.6733022
49	0x3f44c69e	0.76865566
50	0x3ec2c56d	0.3804125
51	0x3e4b1e0f	0.19835685
52	0x3f4c9ed8	0.79929876
53	0x3f02057d	0.50789624
54	0x3eef144e	0.4669518
55	0x3e8bbfcb	0.27294764
56	0x3e8f81ee	0.28028816
57	0x3ecfe6d2	0.4060579
58	0x3f506993	0.81411093
59	0x3e7d5846	0.24740705
60	0x3f590433	0.8477203
61	0x3f395949	0.72401863
62	0x3f34fbdf	0.70696825
63	0x3f1046ec	0.5635822
64	0x3e9a3235	0.3011643
65	0x3e9ae8ea	0.30255824
66	0x3f4d2d36	0.8014711
67	0x3ef2bf96	0.47411793
68	0x3f192165	0.5981658
69	0x3f328a83	0.697426
70	0x3ee19c67	0.44064638
71	0x3ed18bef	0.40927073
72	0x3f2569bb	0.64614457
73	0x3f0e1f13	0.55516165
74	0x3f4632d3	0.774213
75	0x3e8fdaee	0.28096718
76	0x3e5136c9	0.20431055
77	0x3f2f650b	0.68513554
78	0x3f30dd82	0.69087994
79	0x3eb532d0	0.3539033
80	0x3e6eb55f	0.23311375
81	0x3f0c668b	0.5484397
82	0x3f8997f8	1.0749502
83	0x3f098e73	0.53732985
84	0x3edccb1a	0.43123704
85	0x3ef37eb5	0.47557607
86	0x3f074534	0.5283997
87	0x3ea9e964	0.33185875
88	0x3f246b1e	0.6422595
89	0x3f3a20e7	0.72706455
90	0x3edbad14	0.42905486
91	0x3e94788f	0.2899823
92	0x3f40a45a	0.7525078
93	0x3eddca96	0.43318623
94	0x3f0ee87a	0.5582348
95	0x3f2292f0	0.6350546
96	0x3edffa19	0.43745497
97	0x3f201ed9	0.6254707
98	0x3ebdda88	0.3708079
99	0x3ea6d1e8	0.3258202
100	0x3ee987cb	0.45611414
101	0x3f4224b9	0.75837284
102	0x3f0ebdbe	0.55758274
103	0x3ef2874f	0.47368857
104	0x3f49a658	0.78769445
105	0x3f4a3a87	0.78995556
106	0x3f268769	0.6505037
107	0x3f516e9f	0.8180942
108	0x3eae664e	0.34062427
109	0x3f22e635	0.6363252
110	0x3f003360	0.5007839
111	0x3f1b2671	0.6060553
112	0x3f1e01f0	0.61721706
113	0x3f42ff7c	0.7617109
114	0x3ee998a0	0.45624256
115	0x3e847b0f	0.25875136
116	0x3f5ee21b	0.8706376
117	0x3f63f385	0.89043456
118	0x3e642759	0.22280635
119	0x3f0a3aa8	0.5399575
120	0x3e87cf6f	0.26525447
121	0x3f082d07	0.53193706
122	0x3f1e49ae	0.61831176
123	0x3ed35a66	0.41279906
124	0x3f6a5ff3	0.91552657
125	0x3f434b8a	0.7628714
126	0x3ee10d6e	0.4395556
127	0x3f2a9605	0.6663516
128	0x3f2eaab4	0.6822922
129	0x3ebe62fc	0.37184894
130	0x3f5ab3ca	0.85430586
131	0x3ea17c9b	0.3154038
132	0x3e895c1f	0.26828095
133	0x3f4afb88	0.79290056
134	0x3e5f9d1f	0.2183728
135	0x3f59f4fb	0.85139436
136	0x3e96718a	0.29383498
137	0x3efa5145	0.4889013
138	0x3f49afb9	0.78783756
139	0x3f1279c9	0.5721708
140	0x3f518b4b	0.8185317
141	0x3f0fdf9f	0.56200594
142	0x3f16741e	0.5877093
143	0x3ef10b12	0.47078758
144	0x3e599c91	0.21251132
145	0x3f2bf40c	0.6716926
146	0x3f165903	0.5872957
147	0x3e9dd3cf	0.3082566
148	0x3eb5a716	0.3547904
149	0x3f416066	0.7553772
150	0x3e5968e6	0.21231422
151	0x3ef043ef	0.4692683
152	0x3f22f2ff	0.6365203
153	0x3f273690	0.6531763
154	0x3f5f8473	0.87311476
155	0x3f6cf1a1	0.92556196
156	0x3f0009b7	0.50014824
157	0x3f40fa20	0.7538166
158	0x3f27b875	0.65515834
159	0x3f110e30	0.56662273
160	0x3f651531	0.8948546
161	0x3e9ed2ab	0.31020102
162	0x3ec7f323	0.39052686
163	0x3ea29895	0.31757036
164	0x3ec8fe76	0.39256638
165	0x3f29de88	0.6635518
166	0x3ee1059a	0.43949586
167	0x3ec9673c	0.39336574
168	0x3f143caa	0.57905066
169	0x3f2abdd6	0.66695917
170	0x3f48e1da	0.7846962
171	0x3f26c76f	0.6514806
172	0x3f2ba5a3	0.67049617
173	0x3f3a4ed1	0.72776514
174	0x3f2e65d9	0.6812416
175	0x3ea4bbd3	0.32174549
176	0x3f0bbdba	0.54586375
177	0x3ed3230e	0.41237682
178	0x3f66dfdf	0.9018535
179	0x3ebc12bf	0.36733052
180	0x3ec3d9c5	0.38252082
181	0x3f24cca4	0.64374757
182	0x3ec865c1	0.39140132
183	0x3ef322bc	0.47487438
184	0x3f4a4142	0.79005826
185	0x3f2a4181	0.665062
186	0x3f86ffa1	1.0546762
187	0x3f2e987a	0.6820141
188	0x3ed12c6f	0.40854213
189	0x3edca857	0.43097183
190	0x3ec57ab0	0.38570166
191	0x3f0798f1	0.52967745
192	0x3f399411	0.72491556
193	0x3f3176e5	0.69322044
194	0x3f86f627	1.054387
195	0x3f263657	0.64926666
196	0x3edb4009	0.42822292
197	0x3f08ac90	0.5338831
198	0x3dec76e6	0.115461156
199	0x3ec906d9	0.39263037
200	0x3f29dd62	0.6635343
201	0x3ea6f47c	0.32608402
202	0x3f4d8b37	0.8029055
203	0x3eb099fb	0.34492478
204	0x3f3834ee	0.71955764
205	0x3f087351	0.5330096
206	0x3f204739	0.6260868
207	0x3f1b5dd9	0.60690075
208	0x3f2a24c6	0.6646236
209	0x3f09d490	0.5383997
210	0x3eefe269	0.46852425
211	0x3f06ca60	0.5265255
212	0x3f5ecbbf	0.8702964
213	0x3f2a802e	0.66601837
214	0x3ed566a6	0.41679877
215	0x3f13accc	0.5768554
216	0x3ef472c1	0.477438
217	0x3dada341	0.08478404
218	0x3ec896e4	0.3917762
219	0x3f735c3f	0.9506263
220	0x3ed559e3	0.4167014
221	0x3f687774	0.9080727
222	0x3e921feb	0.28539976
223	0x3f5e89f4	0.8692925
224	0x3f1e1a13	0.61758536
225	0x3e65b75d	0.22433229
226	0x3ea7c559	0.32767752
227	0x3f462f75	0.77416164
228	0x3f33cce0	0.7023449
229	0x3f2aec64	0.66766953
230	0x3e6bae3c	0.23015684
231	0x3f294a26	0.66128767
232	0x3f28c052	0.6591846
233	0x3edcfcd4	0.43161643
234	0x3f28f2b9	0.65995365
235	0x3e8fe260	0.28102398
236	0x3f0fc1ee	0.5615529
237	0xbe66e62a	-0.22548738
238	0x3f2c2318	0.6724105
239	0x3f321b23	0.6957266
240	0x3f588870	0.8458319
241	0x3f3ab7da	0.72936785
242	0x3f640420	0.89068794
243	0x3f1b1e6c	0.60593295
244	0x3f3d95ca	0.74056685
245	0x3ef0d16f	0.47034785
246	0x3f3ad57b	0.72981995
247	0x3f1047b4	0.5635941
248	0x3e8865ed	0.26640263
249	0x3f23f630	0.6404753
250	0x3ee41db1	0.44553903
251	0x3f53c253	0.8271839
252	0x3ea224a9	0.31668594
253	0x3ec3463a	0.38139516
254	0x3f340819	0.70324856
255	0x3e957c5b	0.29196438

bn1.bias f4 [512]
0	0x3e27c3d0	0.1638329
1	0xbd567549	-0.052357946
2	0x3cc70b72	0.02429745
3	0x3d369961	0.044579867
4	0x3d8ef8c5	0.06981043
5	0x3ded28e3	0.11580064
6	0x3dbae585	0.091258086
7	0x3cb2a98e	0.021809366
8	0x3ce4be85	0.027922878
9	0x3b394eec	0.00282758
10	0xbcb5392d	-0.02212199
11	0x3e0a67bb	0.13516133
12	0x3d5557f2	0.052085824
13	0x3e1ab14e	0.15106699
14	0xbdb9ea73	-0.09077921
15	0x3e2fe78c	0.17178172
16	0xbe31179a	-0.1729416
17	0x3dbe8f60	0.0930469
18	0x3de3662e	0.111034736
19	0x3e06e568	0.13173449
20	0x3e3a1ba6	0.1817461
21	0x3d3aceae	0.04560726
22	0x3d8beead	0.06832633
23	0x3dcf93dd	0.101356246
24	0x3da64aaa	0.0811971
25	0x3d7dd04c	0.061966226
26	0xbc770910	-0.015077844
27	0x3e39d808	0.18148816
28	0x3d6f7622	0.05846227
29	0xbcefbcd5	-0.029264847
30	0x3e1fcb26	0.15604839
31	0xbc744572	-0.014909135
32	0x3dae9e83	0.085263275
33	0x3e5072f0	0.20356345
34	0x3dd2c0a8	0.102906525
35	0xbd5f539f	-0.054523107
36	0x3ee37ad2	0.44429642
37	0xbd426e95	-0.04746874
38	0x3e27331b	0.16328089
39	0xbda7adf9	-0.081874795
40	0x3dca3a49	0.09874398
41	0x3c69a668	0.014260866
42	0x3e551e56	0.20812353
43	0x3c89d213	0.016823804
44	0x3e1dccc8	0.15410149
45	0x3d69b132	0.057053752
46	0x3db659e9	0.08903868
47	0xbcb3b4ff	-0.021936892
48	0x3db43ca9	0.088006325
49	0x3db7e53a	0.08979268
50	0x3e2babf3	0.16764812
51	0x3ea39eb5	0.3195702
52	0x3d85615f	0.06512713
53	0xbc50ca0a	-0.012743482
54	0x3d1cb8a8	0.03826204
55	0x3d6a776e	0.057242803
56	0x3b65ce6b	0.0035065662
57	0x3d39e7a5	0.04538693
58	0xbcd8e3ce	-0.026475813
59	0x3e3aa81d	0.18228193
60	0x3e3950b1	0.18097188
61	0x3db0187e	0.085984215
62	0x3d72b282	0.05925227
63	0x3de938e1	0.11387802
64	0xbe418154	-0.18896991
65	0xbbffe4ec	-0.007809272
66	0xbd7fdfe6	-0.062469386
67	0x3e2457f3	0.16049175
68	0x3c969c64	0.01838512
69	0x3dde61fa	0.10858531
70	0x3e3f0937	0.18655859
71	0x3dd1925e	0.102329955
72	0xbd3e5475	-0.046467263
73	0x3cf90a13	0.030400312
74	0x3d6013c2	0.054706343
75	0x3db286db	0.08717128
76	0xbe7b9066	-0.24566802
77	0x3d0f6720	0.035010457
78	0x3deca74e	0.11555348
79	0x3db1707c	0.08664033
80	0xbdb6ff2b	-0.08935388
81	0x3ca39c6b	0.019972047
82	0x3dde7902	0.10862924
83	0x3c67ad7f	0.014140486
84	0x3e27610f	0.16345619
85	0x3ddcb2ab	0.10776266
86	0x3d822426	0.06354551
87	0x3d925f16	0.071470425
88	0x3da0a138	0.0784325
89	0x3e1396e4	0.14413029
90	0xbcabd919	-0.020977544
91	0x3d10e8bd	0.035378207
92	0x3d33d13f	0.043900725
93	0x3cebd9ad	0.02879032
94	0xbdffd32e	-0.12491451
95	0x3c656f7d	0.014003632
96	0x3da9e241	0.08295108
97	0xbd271013	-0.040786814
98	0x3c128b56	0.008944353
99	0xbce085ec	-0.027407609
100	0x3cc6983d	0.024242515
101	0xbdcd59fe	-0.1002693
102	0x3dcaea41	0.09907962
103	0xbba3c750	-0.004998125
104	0xbcd07b45	-0.025449404
105	0x3d259271	0.04042286
106	0x3dd4e24a	0.10394724
107	0x3d31a18b	0.04336695
108	0x3ccaa5d0	0.024737269
109	0x3e4a31d0	0.19745564
110	0x3cb29b34	0.021802522
111	0x3ddfb945	0.10924009
112	0x3cb8cd21	0.02255875
113	0xbdef7b3c	-0.11693427
114	0x3d5f57e9	0.054527197
115	0xbe410aed	-0.18851824
116	0x3bda05b1	0.0066535105
117	0xbdd9387d	-0.106064774
118	0x3e60750b	0.21919648
119	0x3da9d530	0.082926154
120	0x3dc49436	0.095985815
121	0x3daa5a5e	0.083180174
122	0xbcfc133b	-0.030770889
123	0x3d19a7cc	0.03751354
124	0x3d99fa5d	0.07518456
125	0xbdbb6f6c	-0.091521114
126	0xbca5c9a4	-0.020237751
127	0xbd45da03	-0.048303615
128	0xbaf57cf9	-0.0018729261
129	0xbd99d4b2	-0.075112715
130	0x3e65a197	0.22424923
131	0x3da52af1	0.08064831
132	0x3e309450	0.17244077
133	0x3d8429e7	0.06453305
134	0x3dd0404d	0.101685144
135	0xbd88e362	-0.06683995
136	0xbdadd449	-0.08487756
137	0xbde588df	-0.11207747
138	0x3d8d3839	0.06895489
139	0x3d57ecfb	0.052716237
140	0xbd5578a5	-0.05211701
141	0x3e1020ee	0.14075062
142	0x3ddb4ca0	0.107079744
143	0xbbb639e2	-0.0055610994
144	0x3e0a0992	0.13480213
145	0x3dc0b438	0.09409374
146	0x3d6b2622	0.057409413
147	0x3dae1491	0.085000165
148	0x3e02307a	0.12713805
149	0x3e3cf6c0	0.18453503
150	0x3da4cfa6	0.08047418
151	0x3cc80d48	0.024420395
152	0x3d9338aa	0.07188542
153	0xbcc5a23a	-0.024125207
154	0x3d76e509	0.06027702
155	0x3d148189	0.036256347
156	0x3da031db	0.07822009
157	0x3de99f57	0.11407345
158	0x3ddfb739	0.10923619
159	0x3d970924	0.0737479
160	0x3d01f48d	0.031727362
161	0x3ddac008	0.10681158
162	0x3c9c0899	0.019047068
163	0x3dfb745e	0.12278055
164	0x3e21f1c4	0.15814883
165	0x3e21f82f	0.15817331
166	0x3dd50e93	0.104031704
167	0x3dea3da3	0.114375375
168	0x3dd215a0	0.10258031
169	0xbd08e0ce	-0.033417515
170	0x3d88c74c	0.06678638
171	0x3cf66cff	0.03008127
172	0x3e440230	0.1914146
173	0x3d382507	0.044957187
174	0xbc156d15	-0.009120245
175	0xbb295b46	-0.0025841757
176	0x3d4e2198	0.050325006
177	0xbdd72054	-0.10504213
178	0x3e257625	0.1615835
179	0xbd1e8529	-0.03870121
180	0x3d934f2b	0.071928345
181	0x3ca853e2	0.020547811
182	0xbd9d8fe4	-0.076934606
183	0x3e24abf1	0.16081215
184	0x3d5f5b20	0.054530263
185	0x3cf162cf	0.02946606
186	0x3e299ab3	0.1656292
187	0x3dbd76d6	0.09251182
188	0x3c869987	0.01643063
189	0xbdd76018	-0.10516375
190	0x3db13204	0.08652118
191	0x3ceb60ef	0.028732745
192	0x3e124b5f	0.14286564
193	0x3d44767f	0.04796457
194	0x386fbee5	5.7159825e-05
195	0x3d5d1aee	0.05398076
196	0x3dcacd4e	0.0990244
197	0x3e0fb4cb	0.14033811
198	0xbe8f0587	-0.27933905
199	0xbdc1f64a	-0.09470804
200	0x3d4517ba	0.04811833
201	0x3e179183	0.14801602
202	0x3c44247e	0.011971591
203	0x3e48e1bb	0.1961736
204	0xbdcd622f	-0.10028493
205	0x3e0cbe21	0.13744403
206	0x3e25fd0c	0.16209811
207	0x3cbb5c7b	0.022871247
208	0xbd3a0a0a	-0.04541973
209	0xbe0fb3b0	-0.14033389
210	0x3e3cc63d	0.18434997
211	0xbc18a9fe	-0.009317873
212	0x3b21eb6d	0.0024706975
213	0x3e1b5f7e	0.15173146
214	0x3d7c3597	0.061574545
215	0xbdebe8d4	-0.11519018
216	0xbdc3f01b	-0.09567281
217	0xbec155aa	-0.3776067
218	0x3db0d072	0.08633508
219	0xbdfd2f0f	-0.12362491
220	0x3cd5bf1b	0.026092103
221	0x3dbb9883	0.09159949
222	0x3e57e02d	0.2108161
223	0x3d93160a	0.07181938
224	0x3e25d02c	0.16192693
225	0x3eb9d4f0	0.3629527
226	0x3dedff09	0.1162091
227	0xbda62b56	-0.081137344
228	0xbbd47014	-0.0064830873
229	0x3cfb87b8	0.030704364
230	0x3cdf2235	0.02723799
231	0xbd2ea2cf	-0.042635735
232	0x3ddfbd41	0.10924769
233	0x3e1da06a	0.15393224
234	0xbd20ad35	-0.039227683
235	0xbe4f0f1e	-0.2022061
236	0x3e30760d	0.17232533
237	0xbed7563c	-0.4205798
238	0x3e5578ef	0.20846914
239	0xbcbddad6	-0.023175638
240	0x3d0d5d66	0.0345129
241	0xbe4cf7a1	-0.20016338
242	0x3dfa2a54	0.12215105
243	0xbd166272	-0.03671498
244	0x3d044e8f	0.03230148
245	0x3e149aea	0.1451222
246	0x3e08c812	0.13357571
247	0xbe084427	-0.13307248
248	0x3db7e7ec	0.089797825
249	0x3d4abf26	0.0494987
250	0x3e1616cc	0.14657134
251	0x3d375330	0.04475707
252	0xbde60356	-0.11231105
253	0x3ccc70a9	0.024956064
254	0xbe3aa6ad	-0.18227644
255	0x3dfb4750	0.12269461
